deeper_null/lightning_logs/version_49/checkpoints/epoch=9-step=10.ckpt (torch, 14192 bytes, 21 tensors)

model.layers.0.weight f4 [10, 2]
000000 5d 6c 87 be e0 d1 18 be f6 77 6f 3e 35 03 c0 3e
       -0.26449862 -0.14923811 0.23385605 0.37502447
000010 b7 2b 85 be d3 e9 69 be 98 f0 33 bf b5 51 80 3d
       -0.26009914 -0.22843103 -0.7028899 0.062655844
000020 2f b6 08 3e db e7 b6 3d 47 cb 73 3e 24 b0 92 bc
       0.13350748 0.08930942 0.23808013 -0.017906256
000030 6a fb f5 be 61 c5 2b 3f a1 13 55 bd 0c 6a 82 3c
       -0.48043376 0.6709805 -0.052020673 0.015919708
000040 95 18 85 be 4a 53 0e bf 06 38 b1 3e d3 b4 b5 3e
       -0.25995317 -0.5559584 0.34613055 0.3548952

model.layers.0.bias f4 [10]
000000 41 d9 01 3f 3e cb 8a be 84 e3 1b 3f 6c ff ce 3e
       0.5072213 -0.27108186 0.60894036 0.40429246
000010 62 69 59 bc 60 4e 26 3d e0 13 a2 3e b5 74 0d 3f
       -0.013269754 0.040602088 0.31655788 0.55256206
000020 88 6c 3f be 61 64 8a 3c
       -0.18693745 0.016893568

model.layers.3.weight f4 [8, 10]
000000 7e 1c 7a be 11 58 e1 3d 6a bc 9b bd 9d af e6 3d
       -0.24424931 0.110031255 -0.076042965 0.11263964
000010 1f 5f e5 bd 68 2c 91 3e 1f 20 86 3e 85 5e df 3c
       -0.111997835 0.28354192 0.2619638 0.02726675
000020 49 d3 08 be 1a 6c 37 be 46 c7 84 be 55 45 b7 bd
       -0.13361849 -0.17912331 -0.25933284 -0.08948771
000030 a7 5e 65 3e 4b 08 86 bc f7 e1 53 be 67 36 91 3e
       0.22399388 -0.016361376 -0.20691667 0.28361818
000040 d9 c4 d4 3d f8 c5 9c 3d 02 b7 29 3d e9 19 5d 3e
       0.10389108 0.07654947 0.041434295 0.21591915
000050 a5 de fb bd 78 de 83 be b7 97 7f 3e b7 46 ce 3d
       -0.122983254 -0.25755668 0.24960218 0.100720815
000060 e8 ab 04 3e 11 8d a3 3d 21 1f 07 3d dd dd 19 3e
       0.12956202 0.07985891 0.03298867 0.1502604
000070 2c 9a 39 3d e5 18 fa bd cd 5a 18 be 65 27 20 3e
       0.045313045 -0.122117795 -0.14878388 0.15640028
000080 4f b6 8b bc c7 ac 6b be 0d cc 90 be b5 45 86 bd
       -0.017054705 -0.23015128 -0.28280678 -0.06556264
000090 4c 80 cc bc ef 85 50 3e 78 8f 91 3e ec 61 7f 3e
       -0.02496352 0.20363592 0.2842977 0.24939698
0000a0 5e 87 38 3d 22 54 fb 3b 63 9a 92 bd 86 4b 1b 3c
       0.04505097 0.0076699415 -0.07158353 0.009478455
0000b0 9b e5 92 3e 3d 51 74 3d 45 0e 7b 3e 86 1e 9c 3e
       0.286908 0.059647787 0.24517162 0.30492038
0000c0 e7 8b d6 bd 45 60 12 3e d0 d7 4c 3d 95 04 fe 3c
       -0.10475903 0.14294536 0.050010502 0.031008044
0000d0 ca 9c 21 3d d0 04 43 3e 43 89 98 3d f5 05 71 3d
       0.039456166 0.19044805 0.074480556 0.05884357
0000e0 89 d2 f6 3d 93 c0 06 3e f8 57 c1 3a 96 a1 6b bd
       0.12051875 0.13159399 0.0014750948 -0.057527147
0000f0 af 03 6c be 1f 37 5e 3e ea 20 0f 3e eb 25 96 be
       -0.2304828 0.21700715 0.139774 -0.29325804
000100 26 92 8c 3e af 5a 2e 3e 03 04 07 3d c3 08 59 3e
       0.27455252 0.1702678 0.03296281 0.21194749
000110 1f 85 c9 3d d6 38 a4 be 10 06 10 be 80 0d 31 be
       0.09839844 -0.32074612 -0.14064813 -0.17290306
000120 97 56 55 3e 46 20 0a bc 92 39 fd 3d 1d 56 b4 3b
       0.20833813 -0.008430546 0.12364496 0.0055034296
000130 62 52 95 3e 40 cd de bd a4 03 35 3e 67 4f 6f 3e
       0.29164416 -0.10878992 0.1767717 0.23370133

model.layers.3.bias f4 [8]
000000 fa 9e 08 3e f3 b3 2d 3e c4 16 88 3d 73 22 83 3d
       0.13341895 0.16963176 0.06644967 0.06403055
000010 e2 39 96 bc 97 2e c8 3c d6 33 e5 3d 6a db 9b be
       -0.018338148 0.024436278 0.111915275 -0.30440837

model.layers.6.weight f4 [4, 8]
000000 6f 38 27 3e cd 05 b5 3e 6c 3c 80 bd d1 99 63 be
       0.16330121 0.35355988 -0.062615246 -0.22226645
000010 66 81 92 be 03 99 32 be e9 89 3d 3e 48 28 42 3e
       -0.28614348 -0.17441182 0.1850964 0.18960679
000020 89 fd 9a be e1 cf 90 3e 38 1d 34 3e a1 d2 9a 3d
       -0.30271557 0.282836 0.17589271 0.075597055
000030 23 1a 84 be fc db 30 3e c2 69 91 3e 66 92 7c 3e
       -0.2580119 0.17271417 0.28401 0.24665222
000040 f9 d7 7d be d4 ab bb bd c5 e9 e8 3d de 7a f4 3d
       -0.24789418 -0.09163633 0.11372713 0.119374976
000050 d7 56 0a be 6b a1 7e 3d 86 e0 40 3e 9d 7d b7 3d
       -0.1350969 0.06216566 0.18835649 0.08959506
000060 f1 9e 9f be 2d 9d 0d 3e 20 3f 14 3e 72 b6 3d be
       -0.3117595 0.13829489 0.14477205 -0.18526629
000070 41 a2 2a 3e 3c 25 92 be 3a 3e 6a 3e 10 2e 61 3e
       0.16663457 -0.28544033 0.228753 0.21990228

model.layers.6.bias f4 [4]
000000 21 6d 88 3b f5 b8 be bd 1a eb 14 3d 39 cb 87 be
       0.0041634 -0.093126215 0.036357023 -0.26522234

model.layers.7.weight f4 [1, 4]
000000 f6 38 9b 3e 71 b6 15 be b9 f4 66 be c4 33 b4 bd
       0.30316895 -0.14620377 -0.22554292 -0.08798936

exp_avg f4 [10, 2]
000000 00 00 00 00 00 00 00 00 c2 c8 42 3f 4a 93 c2 3b
       0.0 0.0 0.7608758 0.0059379684
000010 00 00 00 00 00 00 00 00 00 00 00 00 00 00 00 00
       0.0 0.0 0.0 0.0
000020 e5 82 f1 3f ec 90 5c 3c 85 c5 22 c0 9e d2 94 bc
       1.8868071 0.013462286 -2.5433056 -0.018166836
000030 00 00 00 00 00 00 00 00 00 00 00 00 00 00 00 00
       0.0 0.0 0.0 0.0
000040 00 00 00 00 00 00 00 00 ba d3 d8 3f e2 40 53 3c
       0.0 0.0 1.6939614 0.012893887

exp_avg_sq f4 [10, 2]
000000 00 00 00 00 00 00 00 00 6a 11 91 3c d1 21 98 35
       0.0 0.0 0.017708499 1.1334724e-06
000010 00 00 00 00 00 00 00 00 00 00 00 00 00 00 00 00
       0.0 0.0 0.0 0.0
000020 b7 20 da 3d da 7c c8 36 56 bc 2f 3e 97 72 1f 37
       0.10650771 5.974999e-06 0.17161688 9.503819e-06
000030 00 00 00 00 00 00 00 00 00 00 00 00 00 00 00 00
       0.0 0.0 0.0 0.0
000040 00 00 00 00 00 00 00 00 8b 0c ab 3d 20 ee ac 36
       0.0 0.0 0.08352002 5.153721e-06

exp_avg f4 [10]
000000 00 00 00 00 67 fa 70 3c 00 00 00 00 00 00 00 00
       0.0 0.014708138 0.0 0.0
000010 3b 09 15 3d 0d 11 49 bd 00 00 00 00 00 00 00 00
       0.036385756 -0.049088527 0.0 0.0
000020 00 00 00 00 1e f8 05 3d
       0.0 0.032707326

exp_avg_sq f4 [10]
000000 00 00 00 00 7d 73 dd 36 00 00 00 00 00 00 00 00
       0.0 6.599758e-06 0.0 0.0
000010 45 02 26 38 66 e9 85 38 00 00 00 00 00 00 00 00
       3.9579598e-05 6.385408e-05 0.0 0.0
000020 00 00 00 00 9f 76 02 38
       0.0 3.110489e-05

exp_avg f4 [8, 10]
000000 00 00 00 00 c7 04 e8 bf 00 00 00 00 00 00 00 00
       0.0 -1.8126458 0.0 0.0
000010 06 57 81 bf 9b 1a e5 bf 00 00 00 00 00 00 00 00
       -1.0104682 -1.7898744 0.0 0.0
000020 00 00 00 00 df a1 28 c0 00 00 00 00 b9 df 4c bf
       0.0 -2.6348798 0.0 -0.80028874
000030 00 00 00 00 00 00 00 00 b1 b8 f4 be 83 5b 3d bf
       0.0 0.0 -0.47797158 -0.7396776
000040 00 00 00 00 00 00 00 00 00 00 00 00 81 9b a0 bf
       0.0 0.0 0.0 -1.2547456
000050 00 00 00 00 00 00 00 00 00 00 00 00 00 00 00 00
       0.0 0.0 0.0 0.0
000060 56 ee 86 3b 20 32 d8 3b 00 00 00 00 00 00 00 00
       0.0041177673 0.0065977722 0.0 0.0
000070 00 00 00 00 00 00 00 00 00 00 00 00 a9 90 93 3f
       0.0 0.0 0.0 1.1528522
000080 00 00 00 00 00 00 00 00 3a ab 2d 3f fb 0f 87 3f
       0.0 0.0 0.67839396 1.0551752
000090 00 00 00 00 00 00 00 00 00 00 00 00 5d f6 ec 3f
       0.0 0.0 0.0 1.8512684
0000a0 00 00 00 00 5e 9a f1 3e 00 00 00 00 00 00 00 00
       0.0 0.47188085 0.0 0.0
0000b0 65 15 90 3e 48 c5 de 3e 00 00 00 00 00 00 00 00
       0.28141323 0.4350989 0.0 0.0
0000c0 00 00 00 00 39 95 3b 3f 00 00 00 00 31 d5 51 3f
       0.0 0.7327457 0.0 0.8196593
0000d0 00 00 00 00 00 00 00 00 b2 44 fa 3e 51 47 4b 3f
       0.0 0.0 0.48880535 0.79405695
0000e0 00 00 00 00 00 00 00 00 00 00 00 00 a6 f0 9f 3f
       0.0 0.0 0.0 1.2495315
0000f0 00 00 00 00 b2 37 09 3f 00 00 00 00 00 00 00 00
       0.0 0.5360061 0.0 0.0
000100 4b a2 a2 3e 5c 9a 06 3f 00 00 00 00 00 00 00 00
       0.31764445 0.52579284 0.0 0.0
000110 00 00 00 00 20 5e 42 3f 00 00 00 00 5e 0c 8c 3e
       0.0 0.75924873 0.0 0.27353185
000120 00 00 00 00 00 00 00 00 63 9c 26 3e 71 ac 81 3e
       0.0 0.0 0.16270594 0.25326875
000130 00 00 00 00 00 00 00 00 00 00 00 00 3a 51 e2 3e
       0.0 0.0 0.0 0.44202596

exp_avg_sq f4 [8, 10]
000000 00 00 00 00 54 a7 bd 3d 00 00 00 00 00 00 00 00
       0.0 0.09260431 0.0 0.0
000010 0e c1 ed 3c 16 f9 b3 3d 00 00 00 00 00 00 00 00
       0.02902272 0.08787744 0.0 0.0
000020 00 00 00 00 fd 68 45 3e 00 00 00 00 53 ba 8d 3c
       0.0 0.19278331 0.0 0.01730076
000030 00 00 00 00 00 00 00 00 37 22 cb 3b 68 cc 70 3c
       0.0 0.0 0.006199147 0.014697172
000040 00 00 00 00 00 00 00 00 00 00 00 00 7a f6 2b 3d
       0.0 0.0 0.0 0.041983105
000050 00 00 00 00 00 00 00 00 00 00 00 00 00 00 00 00
       0.0 0.0 0.0 0.0
000060 40 74 03 35 e3 78 a0 35 00 00 00 00 00 00 00 00
       4.897047e-07 1.1956112e-06 0.0 0.0
000070 00 00 00 00 00 00 00 00 00 00 00 00 5a 43 18 3d
       0.0 0.0 0.0 0.037173606
000080 00 00 00 00 00 00 00 00 aa a6 54 3c 61 2c fc 3c
       0.0 0.0 0.012979189 0.03078288
000090 00 00 00 00 00 00 00 00 00 00 00 00 94 f8 c2 3d
       0.0 0.0 0.0 0.09520069
0000a0 00 00 00 00 40 7a d5 3b 00 00 00 00 00 00 00 00
       0.0 0.0065148175 0.0 0.0
0000b0 91 15 19 3b f9 bc b3 3b 00 00 00 00 00 00 00 00
       0.0023358802 0.005485174 0.0 0.0
0000c0 00 00 00 00 97 c7 7e 3c 00 00 00 00 cd ff a4 3c
       0.0 0.015550516 0.0 0.020141507
0000d0 00 00 00 00 00 00 00 00 a5 56 ec 3b 90 30 91 3c
       0.0 0.0 0.0072124773 0.017723352
0000e0 00 00 00 00 00 00 00 00 00 00 00 00 71 28 3d 3d
       0.0 0.0 0.0 0.046181146
0000f0 00 00 00 00 e6 06 0d 3c 00 00 00 00 00 00 00 00
       0.0 0.008607602 0.0 0.0
000100 0e 83 47 3b b6 28 04 3c 00 00 00 00 00 00 00 00
       0.0030443105 0.008066347 0.0 0.0
000110 00 00 00 00 6e ef 8b 3c 00 00 00 00 c7 e0 18 3b
       0.0 0.017081942 0.0 0.0023327337
000120 00 00 00 00 00 00 00 00 20 b8 5a 3a 72 02 02 3b
       0.0 0.0 0.0008343477 0.0019837883
000130 00 00 00 00 00 00 00 00 00 00 00 00 cf eb c6 3b
       0.0 0.0 0.0 0.006070591

exp_avg f4 [8]
000000 64 da 09 be 3b 91 82 bd 8c e5 0f 3a 62 23 bb 3d
       -0.13462216 -0.06375357 0.0005489222 0.09137608
000010 76 e1 19 3d 80 9c 83 3d e2 65 22 3d 1e 89 b2 3c
       0.037568532 0.064263344 0.039647944 0.021793898

exp_avg_sq f4 [8]
000000 ca 7e 03 3a 11 b4 e2 38 89 e2 09 32 34 67 71 39
       0.00050161465 0.0001081006 8.025958e-09 0.00023021997
000010 c4 a4 2a 38 68 b2 fe 38 37 38 42 38 df 23 75 37
       4.068461e-05 0.000121448946 4.630556e-05 1.461149e-05

exp_avg f4 [4, 8]
000000 b9 de 36 be 30 45 ab bf 61 e7 82 bb 95 5b ad bf
       -0.178584 -1.3380489 -0.0039948677 -1.3543574
000010 fd 4d e8 bf f7 55 76 be e3 b7 be be 9f 05 81 bf
       -1.81488 -0.2405623 -0.3724967 -1.007984
000020 29 28 b3 3d 94 22 28 3f 35 5e 00 3b 5a 41 2a 3f
       0.08747894 0.6567776 0.0019587402 0.6650597
000030 d7 27 64 3f 6d 55 f2 3d 08 86 3b 3e 3f 77 fd 3e
       0.8912329 0.118327 0.18312848 0.4950504
000040 c3 ec 05 3e 87 a9 7a 3f ed aa 3f 3b b3 ae 7d 3f
       0.13078599 0.9791493 0.0029246167 0.99094695
000050 64 f7 a9 3f 03 18 34 3e bd 75 8b 3e 0f ca 3c 3f
       1.3278623 0.17587285 0.27238265 0.73745817
000060 7a a9 5b 3d 8f a6 ce 3e 97 91 9d 3a 5d 5c d1 3e
       0.053628422 0.4036145 0.0012021539 0.4089078
000070 3e 49 0c 3f 1d 4b 95 3d b6 e9 e6 3d f4 de 9b 3e
       0.5479926 0.07289717 0.112750456 0.30443537

exp_avg_sq f4 [4, 8]
000000 68 3f 40 3a 54 cc 44 3d 5f ac ed 34 05 cc 52 3d
       0.0007333667 0.048046425 4.4270107e-07 0.0514641
000010 38 d1 bd 3d 8d e8 ff 3a 8f 18 90 3b 0f 48 ed 3c
       0.09268421 0.0019524262 0.004397459 0.028965024
000020 6f 54 39 39 8d 5f 3f 3c 53 57 e6 33 b0 55 4d 3c
       0.00017674429 0.011680496 1.0726094e-07 0.0125326365
000030 4e e9 b8 3c 8a 78 fa 39 59 d0 8c 3a 3f 40 e7 3b
       0.022572186 0.00047773524 0.0010743245 0.0070572193
000040 24 b4 cd 39 3a 0c d2 3c 4f e0 7d 34 21 e8 e0 3c
       0.00039234862 0.025640596 2.3644064e-07 0.027454438
000050 75 82 4a 3d 3d 51 88 3a 96 8e 19 3b c6 1e 7d 3c
       0.04944082 0.0010400187 0.0023430935 0.0154492315
000060 16 0e 8c 38 fe 20 92 3b b3 2c 2f 33 1b 1b 9d 3b
       6.678344e-05 0.0044594994 4.0786016e-08 0.004794491
000070 8d 7d 0d 3c a4 b6 40 39 93 49 d8 39 64 0a 31 3b
       0.008635891 0.00018378586 0.00041253548 0.002701425

exp_avg f4 [4]
000000 ea b1 97 be 09 f2 14 3e 9b ff 5d 3e f6 1a b7 3d
       -0.29627925 0.14545454 0.21679537 0.08940689

exp_avg_sq f4 [4]
000000 d0 3f 1d 3b e3 05 19 3a 00 ce a7 3a 05 e3 69 39
       0.0023994334 0.0005837364 0.0012802482 0.00022305183

exp_avg f4 [1, 4]
000000 ac 3c db 3e 24 e7 95 bf cb 80 ce 3d cd 80 9b bf
       0.42819726 -1.1711164 0.10083159 -1.2148682

exp_avg_sq f4 [1, 4]
000000 c0 18 fa 3b 15 63 2e 3d da ff 1c 3a 9a 38 36 3d
       0.007632345 0.04257496 0.00059890526 0.044487573
