deeper_null/lightning_logs/version_10/checkpoints/epoch=24-step=25.ckpt (torch, 13936 bytes, 21 tensors)

model.layers.0.weight f4 [10, 2]
0	0x3f1c305f	0.6101131
1	0x3efd85f7	0.4951627
2	0xbe5bcca4	-0.21464783
3	0x3cf92672	0.03041384
4	0x3d1aa9f7	0.037759747
5	0x3ed980f6	0.42481202
6	0xbe075b5f	-0.13218449
7	0xbeda27d3	-0.42608508
8	0x3ebdf456	0.37100476
9	0x3e8faee0	0.28063107
10	0xbd4f6057	-0.050628986
11	0xbd6f9534	-0.0584919
12	0xbea12bf8	-0.31478858
13	0x3f12a8f0	0.5728903
14	0x3f2aac50	0.6666918
15	0x3eb87d32	0.36033016
16	0xbc95736d	-0.018243516
17	0x3ec2f2ef	0.3807597
18	0x3f2ced01	0.6754914
19	0x3ef04ca6	0.46933478

model.layers.0.bias f4 [10]
0	0x3edfdeae	0.4372458
1	0x3eb268b0	0.34845495
2	0xbf14634c	-0.57964015
3	0x3e5d77bb	0.21627705
4	0x3d4c8d10	0.049939215
5	0xbefb9869	-0.49139717
6	0xbf2c313f	-0.67262644
7	0x3e98f0ef	0.29871318
8	0x3d92acf6	0.07161896
9	0xbe4933b6	-0.19648632

model.layers.3.weight f4 [8, 10]
0	0xbe9c4d54	-0.30527747
1	0xbe79d103	-0.24396138
2	0xbe5d46ca	-0.21609035
3	0x3d72f672	0.05931706
4	0x3dab63f7	0.08368676
5	0xbe8f5af7	-0.27999088
6	0xbdf69179	-0.120394655
7	0xbe4f06ab	-0.20217387
8	0xbd41ac53	-0.04728348
9	0x3d4e6ade	0.050394885
10	0xba3baf70	-0.0007159626
11	0x3e57509d	0.21026845
12	0xbd97be5d	-0.07409356
13	0xbe598797	-0.2124313
14	0x3e815a2c	0.25264108
15	0x3e147c84	0.14500624
16	0xbe5408c1	-0.20706464
17	0x3dcc168f	0.0996524
18	0xbe5dd133	-0.21661834
19	0x3e2087b6	0.1567677
20	0x3d94bbcc	0.07262382
21	0xbc2f2a5d	-0.010691253
22	0xbd27406b	-0.040832918
23	0x3de51660	0.11185908
24	0xbe93e169	-0.28882912
25	0x3e059725	0.13045938
26	0xbe10bf18	-0.14135396
27	0x3d7d74a0	0.0618788
28	0xbe8f2fe1	-0.27966216
29	0x3d8872e1	0.066625364
30	0xbd351dc5	-0.044217844
31	0xbc839edc	-0.016066961
32	0xbe976a27	-0.29573175
33	0x3e755d7d	0.23961444
34	0xbe1cefad	-0.15325804
35	0x3d206526	0.039158963
36	0x3e4d4a4a	0.2004787
37	0xbcfe6a4a	-0.031056542
38	0xbe486579	-0.19569959
39	0x3e7da86b	0.24771278
40	0x3d971394	0.07376781
41	0xbe4eb644	-0.20186716
42	0xbe831e1b	-0.25608906
43	0xbde81b83	-0.113333724
44	0x3e1ec6e3	0.15505557
45	0x3e933535	0.2875153
46	0x3e83537a	0.25649625
47	0x3c482b9e	0.01221743
48	0x3e832818	0.25616527
49	0x3dd96f7f	0.10616969
50	0x3cbc9135	0.023018459
51	0x3e33a71e	0.17544219
52	0xbe72b02a	-0.23700014
53	0xbe2a3c84	-0.16624647
54	0x3e372e3d	0.17888732
55	0x3e78ded3	0.2430375
56	0x3e81b510	0.25333452
57	0xbe280af7	-0.16410433
58	0x3e81987c	0.2531165
59	0x3e05049e	0.12990043
60	0x3d8ecb64	0.069723874
61	0xbe714a31	-0.23563458
62	0x3e745ae2	0.23862794
63	0x3d4e71e2	0.050401576
64	0xbddc633e	-0.107611164
65	0xbe79c94e	-0.24393198
66	0xbc3f4c4c	-0.011675905
67	0x3e83a468	0.2571137
68	0x3d8aa966	0.067705914
69	0x3e3ef227	0.18647061
70	0x3bca052d	0.006165168
71	0xbbd0cbfb	-0.0063719726
72	0x3cd54df1	0.026038142
73	0x3e11d2ba	0.14240542
74	0x3ca2a3da	0.019853521
75	0xbe722cac	-0.23649853
76	0x3d3dea70	0.046366155
77	0x3e921581	0.2853203
78	0xbdefa759	-0.11701841
79	0xbe02efe0	-0.12786818

model.layers.3.bias f4 [8]
0	0x3e781300	0.24225998
1	0xbe51d1d7	-0.20490204
2	0xbe8df70f	-0.27727553
3	0x3d8208ee	0.063493595
4	0x3e2acd23	0.16679816
5	0x3dfd5e14	0.123714596
6	0xbd204757	-0.039130535
7	0x3c60f2ed	0.013729793

model.layers.6.weight f4 [4, 8]
0	0xbddeb622	-0.10874583
1	0xbe5f4f5a	-0.21807614
2	0xbe18877a	-0.1489543
3	0xbe482ce1	-0.1954837
4	0x3d79fcea	0.061032213
5	0xbd3b4bcd	-0.045726586
6	0x3e784b76	0.24247536
7	0xbe922659	-0.28544882
8	0x3ea63991	0.32465795
9	0xbe11d10d	-0.14239903
10	0xbe981ad1	-0.2970796
11	0xbe568675	-0.20949729
12	0x3e2c1e3a	0.16808406
13	0x3e8d4edc	0.27599227
14	0x3ea5ae7c	0.32359684
15	0x3eac696c	0.3367418
16	0x3eaea8e3	0.34113225
17	0xbe4613bf	-0.1934347
18	0x3dcfb93d	0.10142753
19	0xbea1e2e0	-0.31618404
20	0xbe10bc1f	-0.14134263
21	0xbb867f0c	-0.0041045006
22	0x3e01ec88	0.12687886
23	0x3ca62570	0.020281523
24	0xbdf204c1	-0.11817313
25	0xbe0b072b	-0.13576953
26	0x3e86456b	0.26224837
27	0x3e862681	0.2620125
28	0xbe8de695	-0.27714983
29	0x3dd8cbba	0.10585733
30	0x3c28686b	0.010278801
31	0xbe5d5868	-0.21615756

model.layers.6.bias f4 [4]
0	0xbe935726	-0.28777426
1	0xbe512be3	-0.20426898
2	0xbe503540	-0.20332813
3	0x3e726b4d	0.23673744

model.layers.7.weight f4 [1, 4]
0	0xbeac5d19	-0.33664778
1	0xbee2f89c	-0.443303
2	0xbecd5715	-0.401055
3	0xbeec49f5	-0.46150175

exp_avg f4 [10, 2]
0	0x3fbfb7b1	1.4977933
1	0x3c245938	0.010031037
2	0x00000000	0.0
3	0x00000000	0.0
4	0x3ff45d3c	1.9090953
5	0xbb4b1344	-0.0030986825
6	0x00000000	0.0
7	0x00000000	0.0
8	0x40530bb8	3.2975903
9	0x3d35697a	0.044290043
10	0x00000000	0.0
11	0x00000000	0.0
12	0x00000000	0.0
13	0x00000000	0.0
14	0x40b7851b	5.734998
15	0x3d5607fd	0.052253712
16	0x00000000	0.0
17	0x00000000	0.0
18	0x40b55ba2	5.6674356
19	0x3d6b698a	0.057473697

exp_avg_sq f4 [10, 2]
0	0x3f85d46d	1.0455452
1	0x38b04bb3	8.406434e-05
2	0x00000000	0.0
3	0x00000000	0.0
4	0x411594e6	9.348852
5	0x3a44a609	0.0007501548
6	0x00000000	0.0
7	0x00000000	0.0
8	0x3f82c2c3	1.0215687
9	0x38d4a931	0.00010140462
10	0x00000000	0.0
11	0x00000000	0.0
12	0x00000000	0.0
13	0x00000000	0.0
14	0x402ab9ea	2.6675973
15	0x396f42a9	0.00022817649
16	0x00000000	0.0
17	0x00000000	0.0
18	0x3f8a9cf8	1.0829153
19	0x38dea61f	0.000106167274

exp_avg f4 [10]
0	0x3ce7788d	0.028255725
1	0x00000000	0.0
2	0x3d05903e	0.032608263
3	0x00000000	0.0
4	0x3d86fcaf	0.06591164
5	0x00000000	0.0
6	0x00000000	0.0
7	0x3de25198	0.11050719
8	0x00000000	0.0
9	0x3de23f02	0.11047174

exp_avg_sq f4 [10]
0	0x39c9eae5	0.00038512718
1	0x00000000	0.0
2	0x3b61800d	0.00344086
3	0x00000000	0.0
4	0x39c96024	0.00038409338
5	0x00000000	0.0
6	0x00000000	0.0
7	0x3a812eba	0.0009855845
8	0x00000000	0.0
9	0x39d4bb50	0.0004057535

exp_avg f4 [8, 10]
0	0x00000000	0.0
1	0x00000000	0.0
2	0xbbb7c634	-0.0056083445
3	0x00000000	0.0
4	0xbd9e9779	-0.07743735
5	0x00000000	0.0
6	0x00000000	0.0
7	0x00000000	0.0
8	0x00000000	0.0
9	0xbe0ff278	-0.14057338
10	0x40de1d6f	6.941093
11	0x00000000	0.0
12	0x3eb6c333	0.356958
13	0x00000000	0.0
14	0x40d47398	6.6391106
15	0x00000000	0.0
16	0x00000000	0.0
17	0x40f4bd8a	7.648137
18	0x00000000	0.0
19	0x411058cf	9.021682
20	0x3e0cbfe7	0.1374508
21	0x00000000	0.0
22	0x3ba2fb18	0.0049737804
23	0x00000000	0.0
24	0x3e028589	0.12746252
25	0x00000000	0.0
26	0x00000000	0.0
27	0x3e14966c	0.14510506
28	0x00000000	0.0
29	0x3e2401ee	0.16016361
30	0x3ef8a5d5	0.4856402
31	0x00000000	0.0
32	0x3c6fb781	0.014631153
33	0x00000000	0.0
34	0x3fbabebd	1.4589459
35	0x00000000	0.0
36	0x00000000	0.0
37	0x3f06645e	0.524969
38	0x00000000	0.0
39	0x3fc2a997	1.5208005
40	0x3f397e0e	0.7245797
41	0x00000000	0.0
42	0x3d0ab8ed	0.033867765
43	0x00000000	0.0
44	0x3f9234df	1.1422385
45	0x00000000	0.0
46	0x00000000	0.0
47	0x3f4112bd	0.7541922
48	0x00000000	0.0
49	0x3f950bae	1.1644189
50	0x3ec2758d	0.3798031
51	0x00000000	0.0
52	0x3d03ad63	0.032147776
53	0x00000000	0.0
54	0xbf0381ac	-0.5136974
55	0x00000000	0.0
56	0x00000000	0.0
57	0x3ea47484	0.32120144
58	0x00000000	0.0
59	0xbead2b2c	-0.33822
60	0x411d6593	9.837298
61	0x00000000	0.0
62	0x3f0df100	0.5544586
63	0x00000000	0.0
64	0x4055a4f3	3.3381927
65	0x00000000	0.0
66	0x00000000	0.0
67	0x4131d5a9	11.114663
68	0x00000000	0.0
69	0x411be536	9.74346
70	0x3e4c3f98	0.19946134
71	0x00000000	0.0
72	0x3c3fd186	0.011707669
73	0x00000000	0.0
74	0x3ec2a189	0.38013867
75	0x00000000	0.0
76	0x00000000	0.0
77	0x3ecf6046	0.40503138
78	0x00000000	0.0
79	0x3eaf5d4a	0.3425086

exp_avg_sq f4 [8, 10]
0	0x00000000	0.0
1	0x00000000	0.0
2	0x358de810	1.0572858e-06
3	0x00000000	0.0
4	0x391eca22	0.00015143355
5	0x00000000	0.0
6	0x00000000	0.0
7	0x00000000	0.0
8	0x00000000	0.0
9	0x3a0782f9	0.0005169358
10	0x4133427e	11.203733
11	0x00000000	0.0
12	0x3d4038fb	0.04692934
13	0x00000000	0.0
14	0x4062f4ae	3.546184
15	0x00000000	0.0
16	0x00000000	0.0
17	0x415840d3	13.515826
18	0x00000000	0.0
19	0x41593ecb	13.57783
20	0x3b267878	0.0025401395
21	0x00000000	0.0
22	0x36f439ad	7.278481e-06
23	0x00000000	0.0
24	0x3a6541cc	0.0008745461
25	0x00000000	0.0
26	0x00000000	0.0
27	0x3b441e92	0.0029925448
28	0x00000000	0.0
29	0x3b48781d	0.0030589171
30	0x4087efe2	4.2480326
31	0x00000000	0.0
32	0x3c98e59f	0.01866418
33	0x00000000	0.0
34	0x3f9a72f3	1.206633
35	0x00000000	0.0
36	0x00000000	0.0
37	0x40a45484	5.135317
38	0x00000000	0.0
39	0x40b33ed5	5.60142
40	0x3f5c4e3b	0.8605687
41	0x00000000	0.0
42	0x3b720b09	0.0036932847
43	0x00000000	0.0
44	0x3e837265	0.25673214
45	0x00000000	0.0
46	0x00000000	0.0
47	0x3f85a738	1.0441656
48	0x00000000	0.0
49	0x3f84d85a	1.0378525
50	0x40aec167	5.4611087
51	0x00000000	0.0
52	0x3cc7a949	0.024372714
53	0x00000000	0.0
54	0x3fc503a6	1.5391738
55	0x00000000	0.0
56	0x00000000	0.0
57	0x40ce06d7	6.438335
58	0x00000000	0.0
59	0x40e39e0c	7.113043
60	0x4201947b	32.395
61	0x00000000	0.0
62	0x3e1401ef	0.14453863
63	0x00000000	0.0
64	0x410adad9	8.67843
65	0x00000000	0.0
66	0x00000000	0.0
67	0x421ed536	39.708214
68	0x00000000	0.0
69	0x421a2f55	38.546223
70	0x3d60e251	0.054903332
71	0x00000000	0.0
72	0x3962a043	0.00021612742
73	0x00000000	0.0
74	0x3c92d86c	0.017925464
75	0x00000000	0.0
76	0x00000000	0.0
77	0x3d97caec	0.07411751
78	0x00000000	0.0
79	0x3d881d07	0.066461615

exp_avg f4 [8]
0	0xbb78ed38	-0.003798319
1	0x3e88b7b5	0.26702657
2	0x3b83e997	0.004025649
3	0x3d389071	0.045059625
4	0x3d1d98a7	0.03847566
5	0xbc87134d	-0.016488696
6	0x3e78d1bc	0.24298757
7	0x3c47f025	0.012203251

exp_avg_sq f4 [8]
0	0x34c332df	3.6358594e-07
1	0x3c1dadc6	0.00962395
2	0x36041658	1.9682539e-06
3	0x3b63675b	0.0034699056
4	0x3a3c8ef0	0.000719293
5	0x3b8fed55	0.004392306
6	0x3cd6f836	0.026241403
7	0x38471954	4.7468886e-05

exp_avg f4 [4, 8]
0	0xbcb7f616	-0.02245621
1	0xc09445b6	-4.6335096
2	0x3eb34c6d	0.35019246
3	0xbecf087c	-0.4043616
4	0xbf9b1761	-1.211651
5	0xbe643af2	-0.22288111
6	0x40c9e669	6.3093762
7	0xbeb4385a	-0.35199243
8	0xbcefe23a	-0.029282678
9	0xc0c28eef	-6.079948
10	0x3ee715f0	0.45133924
11	0xbf0955de	-0.5364665
12	0xbfce3019	-1.6108428
13	0xbe9c1a5c	-0.3048886
14	0x4101fe24	8.124546
15	0xbef61666	-0.48063964
16	0xbcdb617a	-0.026779879
17	0xc0b0eda8	-5.529011
18	0x3ed5a4f6	0.41727418
19	0xbef7298f	-0.48273894
20	0xbfb93f53	-1.447245
21	0xbe88ce8a	-0.26720077
22	0x40f083e1	7.5160985
23	0xbed7b495	-0.4212996
24	0xbcf92d21	-0.030417027
25	0xc0cd470f	-6.414924
26	0x3ee9b955	0.4564921
27	0xbf141dd1	-0.57857996
28	0xbfdfeaef	-1.7493571
29	0xbeb58ab4	-0.35457385
30	0x4102fc20	8.186554
31	0xbf0d4347	-0.5518078

exp_avg_sq f4 [4, 8]
0	0x374c38b5	1.2172551e-05
1	0x402f2b1c	2.7370062
2	0x3d04008d	0.032227088
3	0x3db2126f	0.08694922
4	0x3f9b4878	1.2131491
5	0x3ead2fcc	0.3382553
6	0x41557e49	13.343331
7	0x3f0b6db2	0.54464257
8	0x37acad26	2.0584626e-05
9	0x4091a8fc	4.551878
10	0x3d59d11a	0.05317793
11	0x3e13b7fc	0.14425653
12	0x4000807d	2.0078423
13	0x3f0ee3a3	0.55816096
14	0x41b01674	22.010963
15	0x3f668367	0.90044254
16	0x37913450	1.7309707e-05
17	0x40780b6b	3.875697
18	0x3d3ac9c5	0.04560258
19	0x3dfc3842	0.12315418
20	0x3fdbc10b	1.7168287
21	0x3ef4e157	0.4782817
22	0x41970a5b	18.880056
23	0x3f4552a8	0.7707925
24	0x37b8998b	2.2006008e-05
25	0x4092b179	4.584164
26	0x3d56c498	0.05243358
27	0x3e142282	0.14466289
28	0x3fff1588	1.9928446
29	0x3f0c2b5d	0.5475367
30	0x41ad5d5c	21.670586
31	0x3f644778	0.8917155

exp_avg f4 [4]
0	0xbd5b365e	-0.053518645
1	0xbd96b7ed	-0.073593
2	0xbd83597c	-0.06413552
3	0xbdb02957	-0.08601635

exp_avg_sq f4 [4]
0	0x3c9f264b	0.01942744
1	0x3d036bfd	0.032085408
2	0x3ce1213f	0.027481673
3	0x3d017f59	0.03161559

exp_avg f4 [1, 4]
0	0xc0ff7497	-7.982982
1	0xc0dbd344	-6.8695393
2	0xc0c997e8	-6.2997932
3	0xc0613890	-3.5190773

exp_avg_sq f4 [1, 4]
0	0x400a3a09	2.1597922
1	0x41911f89	18.140398
2	0x3f4cb86a	0.79968894
3	0x3f86f34c	1.0542998
