deeper_null/lightning_logs/version_9/checkpoints/epoch=17-step=18.ckpt (torch, 13936 bytes, 21 tensors)

model.layers.0.weight f4 [10, 2]
0	0x3f0314ee	0.5120381
1	0xbebb0c7a	-0.36532956
2	0xbea31dfe	-0.3185882
3	0xbe86ee96	-0.26353902
4	0xbeacae43	-0.337267
5	0x3e42d202	0.19025424
6	0x3f1edb0f	0.62053007
7	0xbe3048f7	-0.17215334
8	0xbf0e8f4b	-0.556874
9	0x3f2d6821	0.67737013
10	0xbe644e22	-0.2229543
11	0xbf07630c	-0.5288551
12	0x3ca52839	0.020160781
13	0x3ca08074	0.019592501
14	0xbe19c541	-0.15016653
15	0x3e33579a	0.17513886
16	0xbeeb3361	-0.45937636
17	0x3ea3acbd	0.31967726
18	0x3ee46c9e	0.44614118
19	0x3d04d912	0.032433577

model.layers.0.bias f4 [10]
0	0x3dcb2b65	0.09920386
1	0x3f09f3c6	0.53887594
2	0x3ed18601	0.4092255
3	0x3f018e80	0.5060806
4	0xbe459da5	-0.19298418
5	0xbe5a5481	-0.21321298
6	0xbe86b602	-0.26310736
7	0xbe98c416	-0.29837102
8	0xbeeb6e55	-0.45982614
9	0x3eb130a0	0.3460741

model.layers.3.weight f4 [8, 10]
0	0x3bb109ff	0.005402803
1	0x3e5159c4	0.20444399
2	0xbe9d898e	-0.30769008
3	0xbe92db7b	-0.28683075
4	0xbe332586	-0.17494783
5	0xbe991fdc	-0.2990712
6	0x3d884679	0.066540666
7	0x3e34d35b	0.1765875
8	0xbca1d7b0	-0.019756168
9	0x3d09c8f8	0.033638924
10	0xbe945f2d	-0.28978863
11	0xbe2486ca	-0.16067043
12	0xbe8a0fde	-0.2696523
13	0xbd753128	-0.059861332
14	0x3e8047ae	0.25054687
15	0xbe429525	-0.19002207
16	0x3e7275cb	0.23677747
17	0x3e1a2e49	0.15056719
18	0x3d52e1c5	0.05148484
19	0x3c924c2c	0.017858587
20	0x3d99b9b9	0.07506127
21	0x3e30b360	0.17255926
22	0x3e886ec1	0.26647
23	0x3e4d429d	0.20044942
24	0x3ddbe7db	0.10737582
25	0x3ea18867	0.3154938
26	0x3e322eec	0.17400712
27	0xbd2eafbf	-0.042648073
28	0xbe28bf20	-0.16479158
29	0x3c8d6bc7	0.017263306
30	0xbea18307	-0.31545278
31	0xbd7b5ad1	-0.061365906
32	0xbe2d9caa	-0.16954294
33	0x3e971619	0.29509047
34	0xbd9908fc	-0.07472417
35	0xbe7bc41f	-0.24586533
36	0xbe861322	-0.26186472
37	0xbe46259a	-0.19350281
38	0xbe478605	-0.19484718
39	0x3e889cd1	0.2668214
40	0xbe9d3f9e	-0.307126
41	0xbd68ae01	-0.056806568
42	0xbe9877e7	-0.29778978
43	0xbe2dc890	-0.1697104
44	0x3e25f7a7	0.16207753
45	0xbe945b2c	-0.2897581
46	0x3e37cdb0	0.17949557
47	0xbe8bb615	-0.27287355
48	0x3e28f102	0.16498187
49	0xbe8c35c0	-0.27384758
50	0x3dbd7e8c	0.092526525
51	0x3e65c10f	0.22436927
52	0x3e9f2363	0.31081685
53	0x3d81910a	0.06326492
54	0x3d96177e	0.073286995
55	0xbd6cb145	-0.057786245
56	0xbe9d550e	-0.30728954
57	0x3e9639c1	0.29340938
58	0x3de5b1a5	0.11215524
59	0x3e7a5c47	0.24449264
60	0xbbbdbb4b	-0.0057901493
61	0xbe4435bd	-0.19161125
62	0x3e76e573	0.24110965
63	0x3dacba9e	0.08434032
64	0x3a8f21f2	0.0010920151
65	0x3e27f78b	0.16403024
66	0x3e436256	0.19080481
67	0x3e4a0735	0.19729312
68	0xbdfa694c	-0.12227115
69	0x3d53b30c	0.051684424
70	0x3e5a02dc	0.21290153
71	0xbe5907ef	-0.21194433
72	0xbd6af1e3	-0.057359587
73	0xbdae9d8c	-0.085261434
74	0xbe8b56a9	-0.27214554
75	0x3de7775a	0.113020614
76	0x3e340084	0.17578322
77	0xbdad136c	-0.0845097
78	0x3e18f32f	0.14936517
79	0xbd9e7b1f	-0.07738327

model.layers.3.bias f4 [8]
0	0xbd0ba00d	-0.034088183
1	0xbc69f25b	-0.014278973
2	0xbd566bcd	-0.0523489
3	0xbd8ef650	-0.06980574
4	0xbdba2824	-0.090896875
5	0xbe15a7f6	-0.14614853
6	0xbe39e52f	-0.18153833
7	0x3d3d5d72	0.046231695

model.layers.6.weight f4 [4, 8]
0	0xbe39f8a7	-0.1816126
1	0xbe267fe7	-0.16259728
2	0x3e933049	0.28747776
3	0xbe9d34e6	-0.3070442
4	0x3e45e6ad	0.19326277
5	0x3e89f941	0.26947978
6	0xbc536f13	-0.0129049
7	0xbd9cb061	-0.07650829
8	0x3eb06abf	0.3445644
9	0xbe218031	-0.15771557
10	0x3e2439c0	0.16037655
11	0xbe9177f4	-0.2841183
12	0xbdd56367	-0.1041935
13	0xbea4fb2e	-0.32222885
14	0x3e396e46	0.18108472
15	0x3e5daeb8	0.21648681
16	0xbce71670	-0.028208941
17	0xbe4348b1	-0.19070698
18	0xbe42862c	-0.18996495
19	0x3ea04fbb	0.3131083
20	0xbea358e2	-0.3190375
21	0x3b67423f	0.0035287288
22	0xbe8af33b	-0.27138695
23	0x3e0ba6f4	0.13637906
24	0x3c359063	0.011081788
25	0xbead03a0	-0.33791828
26	0xbdbcbc31	-0.09215582
27	0x3e7f79d4	0.24948817
28	0xbcb1a7cf	-0.021686463
29	0x3e79f3fb	0.24409477
30	0x3d96461e	0.073375925
31	0xbe600591	-0.21877123

model.layers.6.bias f4 [4]
0	0xbd8909f4	-0.066913515
1	0x3de1955c	0.11014816
2	0xbc9f4f2b	-0.01944693
3	0x3ea15e7c	0.31517398

model.layers.7.weight f4 [1, 4]
0	0x3ee776cb	0.4520782
1	0xbeafdeae	-0.3434958
2	0xbed0689a	-0.40704805
3	0xbef09908	-0.46991754

exp_avg f4 [10, 2]
0	0x3f8929ef	1.0715922
1	0x3ce5b043	0.02803815
2	0x00000000	0.0
3	0x00000000	0.0
4	0x00000000	0.0
5	0x00000000	0.0
6	0x40688910	3.6333656
7	0x3cff47b3	0.031162119
8	0x00000000	0.0
9	0x00000000	0.0
10	0x00000000	0.0
11	0x00000000	0.0
12	0xc00992e5	-2.1495907
13	0xbc3c2015	-0.011482258
14	0x00000000	0.0
15	0x00000000	0.0
16	0x00000000	0.0
17	0x00000000	0.0
18	0x4069b174	3.6514559
19	0x3cfbe546	0.030748975

exp_avg_sq f4 [10, 2]
0	0x3ee78e73	0.45225868
1	0x38408d82	4.5908157e-05
2	0x00000000	0.0
3	0x00000000	0.0
4	0x00000000	0.0
5	0x00000000	0.0
6	0x3f272fe2	0.6530744
7	0x385b0304	5.2216477e-05
8	0x00000000	0.0
9	0x00000000	0.0
10	0x00000000	0.0
11	0x00000000	0.0
12	0x3ec86d8b	0.39146075
13	0x37dabb65	2.6074888e-05
14	0x00000000	0.0
15	0x00000000	0.0
16	0x00000000	0.0
17	0x00000000	0.0
18	0x3f394441	0.7236977
19	0x386f5a45	5.706611e-05

exp_avg f4 [10]
0	0x3ca6de4e	0.020369675
1	0x00000000	0.0
2	0x00000000	0.0
3	0x3d907d53	0.07055154
4	0x00000000	0.0
5	0x00000000	0.0
6	0xbd29140a	-0.041278876
7	0x00000000	0.0
8	0x00000000	0.0
9	0x3d9117c3	0.0708461

exp_avg_sq f4 [10]
0	0x3932cc88	0.00017051597
1	0x00000000	0.0
2	0x00000000	0.0
3	0x39816ab5	0.000246843
4	0x00000000	0.0
5	0x00000000	0.0
6	0x39130428	0.00014020561
7	0x00000000	0.0
8	0x00000000	0.0
9	0x398f2117	0.0002729974

exp_avg f4 [8, 10]
0	0xbf09d2a5	-0.53837043
1	0x00000000	0.0
2	0x00000000	0.0
3	0x00000000	0.0
4	0x00000000	0.0
5	0x00000000	0.0
6	0xbbdea098	-0.0067940466
7	0x00000000	0.0
8	0x00000000	0.0
9	0xbeb1e07f	-0.3474159
10	0x00000000	0.0
11	0x00000000	0.0
12	0x00000000	0.0
13	0x00000000	0.0
14	0x00000000	0.0
15	0x00000000	0.0
16	0xbb505c9b	-0.0031793478
17	0x00000000	0.0
18	0x00000000	0.0
19	0xbe23aee7	-0.15984689
20	0x409b0ec5	4.845553
21	0x00000000	0.0
22	0x00000000	0.0
23	0x3ff5fe65	1.921826
24	0x00000000	0.0
25	0x00000000	0.0
26	0x3d7bd57e	0.0614829
27	0x00000000	0.0
28	0x00000000	0.0
29	0x3f52fb8a	0.8241507
30	0xbe8c7b16	-0.27437657
31	0x00000000	0.0
32	0x00000000	0.0
33	0x40bd60a8	5.918049
34	0x00000000	0.0
35	0x00000000	0.0
36	0x3d46f894	0.048576906
37	0x00000000	0.0
38	0x00000000	0.0
39	0x40b7481b	5.727552
40	0x00000000	0.0
41	0x00000000	0.0
42	0x00000000	0.0
43	0x00000000	0.0
44	0x00000000	0.0
45	0x00000000	0.0
46	0xb8de9ec8	-0.0001061536
47	0x00000000	0.0
48	0x00000000	0.0
49	0x00000000	0.0
50	0x401c6530	2.443676
51	0x00000000	0.0
52	0x00000000	0.0
53	0x3f21a7ed	0.6314686
54	0x00000000	0.0
55	0x00000000	0.0
56	0x3ce775af	0.028254358
57	0x00000000	0.0
58	0x00000000	0.0
59	0x3e6c4c00	0.23075867
60	0x3e05ab3e	0.13053605
61	0x00000000	0.0
62	0x00000000	0.0
63	0x3d6d9ca4	0.058010712
64	0x00000000	0.0
65	0x00000000	0.0
66	0x3a98b7ef	0.0011651496
67	0x00000000	0.0
68	0x00000000	0.0
69	0x3ce548be	0.027988788
70	0xbf51c09d	-0.8193453
71	0x00000000	0.0
72	0x00000000	0.0
73	0xbf5361ef	-0.8257131
74	0x00000000	0.0
75	0x00000000	0.0
76	0xbca8099e	-0.020512398
77	0x00000000	0.0
78	0x00000000	0.0
79	0xbef31679	-0.47478083

exp_avg_sq f4 [8, 10]
0	0x3beef502	0.007292391
1	0x00000000	0.0
2	0x00000000	0.0
3	0x00000000	0.0
4	0x00000000	0.0
5	0x00000000	0.0
6	0x35853d02	9.927028e-07
7	0x00000000	0.0
8	0x00000000	0.0
9	0x3b4c3d68	0.003116453
10	0x00000000	0.0
11	0x00000000	0.0
12	0x00000000	0.0
13	0x00000000	0.0
14	0x00000000	0.0
15	0x00000000	0.0
16	0x346fc80b	2.2331385e-07
17	0x00000000	0.0
18	0x00000000	0.0
19	0x3a6754b6	0.00088245736
20	0x3f17a4b0	0.5923567
21	0x00000000	0.0
22	0x00000000	0.0
23	0x3f202676	0.62558687
24	0x00000000	0.0
25	0x00000000	0.0
26	0x38c17eb7	9.2265596e-05
27	0x00000000	0.0
28	0x00000000	0.0
29	0x3ea29b82	0.31759268
30	0x3f82ecb2	1.0228484
31	0x00000000	0.0
32	0x00000000	0.0
33	0x40877eec	4.2342434
34	0x00000000	0.0
35	0x00000000	0.0
36	0x38dd2d45	0.00010546533
37	0x00000000	0.0
38	0x00000000	0.0
39	0x402c6854	2.6938677
40	0x00000000	0.0
41	0x00000000	0.0
42	0x00000000	0.0
43	0x00000000	0.0
44	0x00000000	0.0
45	0x00000000	0.0
46	0x2fc30867	3.5476264e-10
47	0x00000000	0.0
48	0x00000000	0.0
49	0x00000000	0.0
50	0x3e220038	0.15820396
51	0x00000000	0.0
52	0x00000000	0.0
53	0x3e35caca	0.17753139
54	0x00000000	0.0
55	0x00000000	0.0
56	0x37b3cac2	2.143288e-05
57	0x00000000	0.0
58	0x00000000	0.0
59	0x3db70325	0.08936147
60	0x39cac031	0.00038671636
61	0x00000000	0.0
62	0x00000000	0.0
63	0x39bf8cc5	0.0003653524
64	0x00000000	0.0
65	0x00000000	0.0
66	0x33100ace	3.353744e-08
67	0x00000000	0.0
68	0x00000000	0.0
69	0x394155f4	0.00018437934
70	0x3ccb0299	0.024781512
71	0x00000000	0.0
72	0x00000000	0.0
73	0x3d0d84f6	0.03455063
74	0x00000000	0.0
75	0x00000000	0.0
76	0x371abc7d	9.223001e-06
77	0x00000000	0.0
78	0x00000000	0.0
79	0x3c7b19cf	0.0153259775

exp_avg f4 [8]
0	0xbc540ec2	-0.012942972
1	0xbbd07a04	-0.0063622016
2	0x3d906963	0.07051351
3	0x3e3018ae	0.17196915
4	0xb91c5a4c	-0.00014910958
5	0x3ce79e8f	0.028273849
6	0x3b05070e	0.0020298394
7	0xbce559f8	-0.027997002

exp_avg_sq f4 [8]
0	0x3692ca66	4.3747013e-06
1	0x35aeedb7	1.3033194e-06
2	0x3a007169	0.0004899712
3	0x3b5aacdb	0.003336719
4	0x30482316	7.2809436e-10
5	0x390cb7a9	0.00013419859
6	0x3498adab	2.8438566e-07
7	0x37f5bcae	2.9294137e-05

exp_avg f4 [4, 8]
0	0x3ca85ef3	0.020553088
1	0xbbad476f	-0.0052880566
2	0x3fe828cf	1.8137454
3	0xc0a551d1	-5.1662374
4	0xb705fe63	-7.986647e-06
5	0x3f975f51	1.1825963
6	0xbe82c331	-0.25539544
7	0x3f0fa2cd	0.5610779
8	0xbc7ac617	-0.015306017
9	0x3b808a26	0.0039227186
10	0xbfafc214	-1.3731103
11	0x4070b685	3.76114
12	0x36c8d4de	5.9852455e-06
13	0xbf6940f2	-0.91114724
14	0x3e2e706a	0.1703507
15	0xbed5d1a4	-0.41761506
16	0xbc979369	-0.018502908
17	0x3b9c01b6	0.004760946
18	0xbfd0eb07	-1.6321725
19	0x4094e69a	4.6531496
20	0x36f14084	7.1898703e-06
21	0xbf8829cc	-1.0637755
22	0x3e6bff8b	0.230467
23	0xbf014e76	-0.50510347
24	0xbcae2f7f	-0.021262882
25	0x3bb32e8c	0.0054681953
26	0xbff091e4	-1.8794522
27	0x40aa9c7b	5.3316016
28	0x370ac8e5	8.272215e-06
29	0xbf9d26e9	-1.22775
30	0x3e85d01f	0.26135346
31	0xbf1492a2	-0.58036244

exp_avg_sq f4 [4, 8]
0	0x3722273a	9.665086e-06
1	0x3526eb75	6.2182454e-07
2	0x3e7006ec	0.2344014
3	0x3fb89e92	1.4423392
4	0x2c41518f	2.7472224e-12
5	0x3e88dfd9	0.26733282
6	0x3d99f012	0.07516493
7	0x3bf5bba2	0.007499174
8	0x36b25eb4	5.3158383e-06
9	0x34b6eb26	3.4071235e-07
10	0x3dfb3cd4	0.122674614
11	0x3f3ad8c4	0.7298701
12	0x2bd8b014	1.5396595e-12
13	0x3e0bea63	0.1366363
14	0x3d18d028	0.03730789
15	0x3b860309	0.0040897173
16	0x37036ed0	7.834009e-06
17	0x35074d97	5.0404327e-07
18	0x3e42d476	0.1902636
19	0x3f95f2d3	1.1714729
20	0x2c1caa4b	2.2263465e-12
21	0x3e5e57a1	0.21713115
22	0x3d7a38da	0.061089374
23	0x3bc73657	0.006079476
24	0x372d573f	1.0331917e-05
25	0x3532556a	6.643446e-07
26	0x3e7f8e40	0.24956608
27	0x3fc3d56f	1.529951
28	0x2c4f458c	2.9455076e-12
29	0x3e91731c	0.28408134
30	0x3da3225a	0.079655364
31	0x3c03364b	0.00800855

exp_avg f4 [4]
0	0x3acf960c	0.0015837564
1	0xbba55888	-0.005045954
2	0xbaacfa3f	-0.0013197138
3	0xbb1018e6	-0.0021987497

exp_avg_sq f4 [4]
0	0x3b42e4b1	0.0029738361
1	0x3ac29b99	0.0014847397
2	0x3b1e60a4	0.002416649
3	0x3b4ea6e6	0.0031532585

exp_avg f4 [1, 4]
0	0x40aa563c	5.3230267
1	0x404250b4	3.0361757
2	0xc0820dc0	-4.0641785
3	0xc03c41b5	-2.9415104

exp_avg_sq f4 [1, 4]
0	0x3f1c6d6d	0.6110447
1	0x3f0b266c	0.543555
2	0x3ef1f42e	0.47256607
3	0x3f4b612d	0.79445153
