deeper_null/lightning_logs/version_29/checkpoints/epoch=9-step=10.ckpt (torch, 13936 bytes, 21 tensors)

model.layers.0.weight f4 [10, 2]
0.3746917 0.18175319 -0.167192 0.002810689 0.5956766 0.16601144 -0.46906474 0.3367432
-0.5708467 -0.5788986 0.57503825 -0.5090196 0.12062238 0.20570461 -0.06658056 0.394085
-0.22455959 0.038799208 -0.2714085 -0.26755223
00000000: 97d7 bf3e 821d 3a3e 6134 2bbe 8933 383b
00000010: 437e 183f e7fe 293e 4129 f0be 9b69 ac3e
00000020: 0223 12bf b332 14bf b535 133f 1c4f 02bf
00000030: de08 f73d 3ba4 523e 635b 88bd 82c5 c93e
00000040: f3f2 65be ebeb 1e3d 0ef6 8abe 9bfc 88be

model.layers.0.bias f4 [10]
-0.41911972 0.39004126 -0.34208012 -0.6709232 -0.45255026 -0.38450933 -0.59234256 0.33827618
-0.50960004 0.18246803
00000000: dc96 d6be 7db3 c73e 2025 afbe 9fc1 2bbf
00000010: abb4 e7be 68de c4be c3a3 17bf 8932 ad3e
00000020: 2675 02bf e6d8 3a3e

model.layers.3.weight f4 [8, 10]
0.3028888 -0.18490934 0.092363596 -0.2529207 0.22959307 -0.119062565 0.16804023 0.069975816
0.09048269 0.014828831 -0.2937215 -0.2632369 -0.23764034 -0.1318354 -0.16233876 0.31006008
0.294297 -0.01847461 -0.043123584 -0.19909197 0.11238925 0.28550124 -0.14128838 0.08330512
0.028337127 0.15617336 0.18512298 -0.21740568 -0.25495023 0.2747174 -0.07435971 -0.14853281
-0.22923683 -0.0115812095 0.024353428 0.024311785 -0.006470902 -0.24648416 0.20737639 0.03366564
-0.12408615 0.1367699 0.09954059 0.042540334 0.09810644 -0.049179923 0.23680927 -0.23034038
-0.27626148 -0.04382159 -0.02962558 0.081823245 0.04072288 -0.28755927 -0.2097995 0.26194203
-0.09698679 -0.2883706 0.07550586 -0.27323204 0.29271674 -0.2816715 0.022115763 -0.0036362803
0.20891528 0.05606785 0.25020623 -0.0071127997 0.2177102 -0.2942719 -0.20694952 0.15201913
0.09468145 0.25643602 -0.23828267 -0.2657118 -0.1464256 0.044011958 -0.010462731 -0.25796986
00000000: 3e14 9b3e e058 3dbe 2029 bd3d d27e 81be
00000010: 721a 6b3e 13d7 f3bd bd12 2c3e 7b4f 8f3d
00000020: fd4e b93d a0f4 723c aa62 96be fdc6 86be
00000030: fd57 73be dcff 06be 223c 26be 32c0 9e3e
00000040: 19ae 963e 1158 97bc 5ba2 30bd c4de 4bbe
00000050: 562c e63d 382d 923e e7ad 10be e09b aa3d
00000060: 4323 e83c e9eb 1f3e e190 3d3e 989f 5ebe
00000070: d688 82be c2a7 8c3e e749 98bd fc18 18be
00000080: 0fbd 6abe 1dbf 3dbc d780 c73c 8229 c73c
00000090: dc09 d4bb 5866 7cbe 7a5a 543e fbe4 093d
000000a0: e120 febd 690d 0c3e f0db cb3d c63e 2e3d
000000b0: 07ec c83d e370 49bd 217e 723e 59de 6bbe
000000c0: 2572 8dbe 447e 33bd 58b1 f2bc f292 a73d
000000d0: 09cd 263d f83a 93be aed5 56be 441d 863e
000000e0: 03a1 c6bd 50a5 93be d1a2 9a3d 12e5 8bbe
000000f0: f8de 953e 3f37 90be 1e2c b53c a94e 6ebb
00000100: e3ed 553e 67a7 653d 081b 803e 7d12 e9bb
00000110: 6cef 5e3e ceaa 96be 93ea 53be e7aa 1b3e
00000120: 59e8 c13d 954b 833e 5f00 74be 610b 88be
00000130: 98f0 15be e245 343d e06b 2bbc a014 84be

model.layers.3.bias f4 [8]
-0.2260015 -0.11209437 -0.2934059 -0.29850584 0.16797851 -0.093225785 -0.22066292 -0.05471309
00000000: f06c 67be bc91 e5bd 4c39 96be c2d5 98be
00000010: 8f02 2c3e 29ed bebd 76f5 61be d51a 60bd

model.layers.6.weight f4 [4, 8]
0.34070605 0.031987622 -0.10456195 -0.055583157 -0.27303693 0.11111889 0.2064289 0.18816121
0.0635514 0.0507975 0.3123042 -0.3055784 -0.23041557 0.18524073 -0.29057387 -0.19833125
0.0012498159 0.31028536 0.07043357 -0.2985001 -0.042235885 -0.23563829 0.07340021 0.06379401
0.10963225 0.016055025 0.21843664 0.21402746 0.19014278 -0.23811086 0.12954742 0.017268574
00000000: 0671 ae3e 7405 033d 9324 d6bd 2aab 63bd
00000010: 7fcb 8bbe 4d92 e33d 1962 533e 55ad 403e
00000020: 3d27 823d 0a11 503d 56e6 9f3e c674 9cbe
00000030: 0ff2 6bbe bfaf 3d3e 19c6 94be 5917 4bbe
00000040: ddd0 a33a b9dd 9e3e 7a3f 903d 01d5 98be
00000050: 89ff 2cbd 2a4b 71be d952 963d 6fa6 823d
00000060: e086 e03d d485 833c dbad 5f3e 042a 5b3e
00000070: cab4 423e 55d3 73be 14a8 043e d376 8d3c

model.layers.6.bias f4 [4]
0.09231858 0.05374696 -0.22926262 -0.034505468
00000000: 8611 bd3d c625 5c3d d2c3 6abe 9b55 0dbd

model.layers.7.weight f4 [1, 4]
-0.42161638 0.06848083 0.18836819 0.4212168
00000000: 1ade d7be ad3f 8c3d 97e3 403e baa9 d73e

exp_avg f4 [10, 2]
6.004323 0.056225423 0.0 0.0 4.8585234 0.044292018 0.0 0.0
0.0 0.0 3.6814744 0.035284534 -6.8064194 -0.06395954 0.0 0.0
0.0 0.0 0.0 0.0
00000000: 6a23 c040 a14c 663d 0000 0000 0000 0000
00000010: 0679 9b40 8c6b 353d 0000 0000 0000 0000
00000020: 0000 0000 0000 0000 479d 6b40 8486 103d
00000030: 30ce d9c0 38fd 82bd 0000 0000 0000 0000
00000040: 0000 0000 0000 0000 0000 0000 0000 0000

exp_avg_sq f4 [10, 2]
0.9110114 8.252153e-05 0.0 0.0 0.7288125 6.0637754e-05 0.0 0.0
0.0 0.0 0.34564713 3.2550728e-05 1.0626582 9.66248e-05 0.0 0.0
0.0 0.0 0.0 0.0
00000000: 0b38 693f 690f ad38 0000 0000 0000 0000
00000010: 7593 3a3f 4b55 7e38 0000 0000 0000 0000
00000020: 0000 0000 0000 0000 a9f8 b03e 1487 0838
00000030: 2f05 883f 0ba3 ca38 0000 0000 0000 0000
00000040: 0000 0000 0000 0000 0000 0000 0000 0000

exp_avg f4 [10]
0.11583214 0.0 0.093663335 0.0 0.0 0.071078494 -0.13132465 0.0
0.0 0.0
00000000: 6739 ed3d 0000 0000 90d2 bf3d 0000 0000
00000010: 0000 0000 9a91 913d f879 06be 0000 0000
00000020: 0000 0000 0000 0000

exp_avg_sq f4 [10]
0.0003395506 0.0 0.00027060125 0.0 0.0 0.00012896786 0.0003955613 0.0
0.0 0.0
00000000: b605 b239 0000 0000 7cdf 8d39 0000 0000
00000010: 0000 0000 8c3b 0739 5763 cf39 0000 0000
00000020: 0000 0000 0000 0000

exp_avg f4 [8, 10]
5.798144 0.0 9.383182 0.0 0.0 8.721748 1.5574353 0.0
0.0 0.0 -0.09379887 0.0 -0.27827442 0.0 0.0 -0.41632816
-0.06726097 0.0 0.0 0.0 -8.620557 0.0 -14.050084 0.0
0.0 -13.842161 -2.3280716 0.0 0.0 0.0 0.0 0.0
0.0 0.0 0.0 -0.0033724494 -0.0005308592 0.0 0.0 0.0
-6.541251 0.0 -11.304825 0.0 0.0 -10.001946 -1.9972237 0.0
0.0 0.0 11.002203 0.0 18.045965 0.0 0.0 16.976034
2.9731429 0.0 0.0 0.0 2.6568134 0.0 4.3343163 0.0
0.0 4.0527225 0.71419954 0.0 0.0 0.0 0.0 0.0
0.009727286 0.0 0.0 0.0 0.0014870111 0.0 0.0 0.0
00000000: 658a b940 0000 0000 8321 1641 0000 0000
00000010: 0000 0000 488c 0b41 0a5a c73f 0000 0000
00000020: 0000 0000 0000 0000 9f19 c0bd 0000 0000
00000030: fc79 8ebe 0000 0000 0000 0000 f728 d5be
00000040: 1fc0 89bd 0000 0000 0000 0000 0000 0000
00000050: cded 09c1 0000 0000 25cd 60c1 0000 0000
00000060: 0000 0000 7e79 5dc1 20ff 14c0 0000 0000
00000070: 0000 0000 0000 0000 0000 0000 0000 0000
00000080: 0000 0000 0000 0000 0000 0000 5004 5dbb
00000090: 5c29 0bba 0000 0000 0000 0000 0000 0000
000000a0: ee51 d1c0 0000 0000 90e0 34c1 0000 0000
000000b0: 0000 0000 f907 20c1 07a5 ffbf 0000 0000
000000c0: 0000 0000 0000 0000 0609 3041 0000 0000
000000d0: 235e 9041 0000 0000 0000 0000 ebce 8741
000000e0: f947 3e40 0000 0000 0000 0000 0000 0000
000000f0: 3b09 2a40 0000 0000 b8b2 8a40 0000 0000
00000100: 0000 0000 e7af 8140 c8d5 363f 0000 0000
00000110: 0000 0000 0000 0000 0000 0000 0000 0000
00000120: 325f 1f3c 0000 0000 0000 0000 0000 0000
00000130: d0e7 c23a 0000 0000 0000 0000 0000 0000

exp_avg_sq f4 [8, 10]
0.89723253 0.0 2.3340905 0.0 0.0 2.0208225 0.06309026 0.0
0.0 0.0 0.00023979908 0.0 0.0019286794 0.0 0.0 0.004428677
0.000113172515 0.0 0.0 0.0 1.8955745 0.0 5.001909 0.0
0.0 4.879962 0.13500991 0.0 0.0 0.0 0.0 0.0
0.0 0.0 0.0 4.2957916e-07 9.906192e-09 0.0 0.0 0.0
1.0522431 0.0 3.0881019 0.0 0.0 2.4538915 0.09585964 0.0
0.0 0.0 3.1401665 0.0 8.403545 0.0 0.0 7.4457293
0.22412047 0.0 0.0 0.0 0.19799124 0.0 0.5235778 0.0
0.0 0.45908162 0.013929623 0.0 0.0 0.0 0.0 0.0
3.5083567e-06 0.0 0.0 0.0 8.395613e-08 0.0 0.0 0.0
00000000: 08b1 653f 0000 0000 bd61 1540 0000 0000
00000010: 0000 0000 2855 0140 7735 813d 0000 0000
00000020: 0000 0000 0000 0000 9372 7b39 0000 0000
00000030: becb fc3a 0000 0000 0000 0000 6f1e 913b
00000040: 0857 ed38 0000 0000 0000 0000 0000 0000
00000050: 2fa2 f23f 0000 0000 a30f a040 0000 0000
00000060: 0000 0000 a628 9c40 0a40 0a3e 0000 0000
00000070: 0000 0000 0000 0000 0000 0000 0000 0000
00000080: 0000 0000 0000 0000 0000 0000 e9a0 e634
00000090: e52f 2a32 0000 0000 0000 0000 0000 0000
000000a0: e7af 863f 0000 0000 76a3 4540 0000 0000
000000b0: 0000 0000 8f0c 1d40 0f52 c43d 0000 0000
000000c0: 0000 0000 0000 0000 7df8 4840 0000 0000
000000d0: ec74 0641 0000 0000 0000 0000 6a43 ee40
000000e0: d67f 653e 0000 0000 0000 0000 0000 0000
000000f0: 37be 4a3e 0000 0000 3209 063f 0000 0000
00000100: 0000 0000 bf0c eb3e 1339 643c 0000 0000
00000110: 0000 0000 0000 0000 0000 0000 0000 0000
00000120: 1c71 6b36 0000 0000 0000 0000 0000 0000
00000130: 5f4b b433 0000 0000 0000 0000 0000 0000

exp_avg f4 [8]
0.28365088 -0.012661712 -0.42401764 -0.000105750376 -0.33022228 0.5462021 0.1312376 0.00030281363
00000000: b03a 913e 1273 4fbc d718 d9be 4dc6 ddb8
00000010: e512 a9be e7d3 0b3f 2663 063e f5c2 9e39

exp_avg_sq f4 [8]
0.0021323902 4.0882896e-06 0.004555597 3.9904355e-10 0.0026317912 0.0076941117 0.00048044382 3.2896892e-09
00000000: 92bf 0b3b 242e 8936 1e47 953b 6360 db2f
00000010: 217a 2c3b e31e fc3b 14e4 fb39 d310 6231

exp_avg f4 [4, 8]
8.116202 0.41271672 3.2309608 0.00040261034 0.59534335 11.027078 12.033177 0.00393906
-1.3792545 -0.07004861 -0.54730374 -6.875209e-05 -0.09989309 -1.8731781 -2.0439122 -0.00067221647
-3.676996 -0.18691772 -1.462474 -0.0001826777 -0.26876816 -4.9952025 -5.4508395 -0.0017866399
-7.918467 -0.4028812 -3.1569612 -0.00039176203 -0.58430594 -10.760421 -11.742625 -0.0038354946
00000000: f7db 0141 9b4f d33e 10c8 4e40 7215 d339
00000010: 6c68 183f e96e 3041 e587 4041 3b13 813b
00000020: 698b b0bf a575 8fbd 191c 0cbf ff2e 90b8
00000030: c094 ccbd 4dc4 efbf 75cf 02c0 af37 30ba
00000040: e753 6bc0 5c67 3fbe 5932 bbbf 2c8d 3fb9
00000050: fb9b 89be b3d8 9fc0 476d aec0 b02d eaba
00000060: 1564 fdc0 7246 cebe a70b 4ac0 6965 cdb9
00000070: 1395 15bf af2a 2cc1 cbe1 3bc1 ec5c 7bbb

exp_avg_sq f4 [4, 8]
1.7541943 0.0043907147 0.25320762 6.1593988e-09 0.0076826373 3.1982262 3.7967858 5.7415076e-07
0.052042477 0.00012952782 0.007414764 1.8176154e-10 0.00021621407 0.09474767 0.11242512 1.7400211e-08
0.3626627 0.00090637564 0.052162345 1.2717941e-09 0.0015654794 0.66094166 0.7845387 1.193713e-07
1.6497684 0.0041398318 0.23958269 5.8045075e-09 0.0074042724 3.0098736 3.573955 5.34804e-07
00000000: 7089 e03f fcdf 8f3b 6ea4 813e a5a2 d331
00000010: a2be fb3b bdaf 4c40 8afe 7240 571f 1a35
00000020: 7e2a 553d dcd1 0739 8cf7 f23b 53d9 472f
00000030: 86b7 6239 110b c23d 243f e63d 7877 9532
00000040: edae b93e d799 6d3a 2fa8 553d 47cb ae30
00000050: c630 cd3a 7933 293f 87d7 483f 882c 0034
00000060: 9c2b d33f 6da7 873b 2a55 753e fd70 c731
00000070: 8a9f f23b c5a1 4040 aebb 6440 738f 0f35

exp_avg f4 [4]
1.1795853 -0.20024167 -0.5342464 -1.1514214
00000000: a7fc 963f 270c 4dbe 5fc4 08bf c761 93bf

exp_avg_sq f4 [4]
0.035823096 0.0010583425 0.0073976154 0.03375647
00000000: 3dbb 123d 15b8 8a3a b267 f23b 3944 0a3d

exp_avg f4 [1, 4]
-14.711983 0.37403184 4.273755 -1.008143
00000000: 4864 6bc1 1a81 bf3e 9ac2 8840 d40a 81bf

exp_avg_sq f4 [1, 4]
5.8503094 0.008967055 0.5057675 0.02256647
00000000: bc35 bb40 8eea 123c fb79 013f 51dd b83c
