deeper_null/lightning_logs/version_15/checkpoints/epoch=50-step=51.ckpt (torch, 13936 bytes, 21 tensors)

model.layers.0.weight f4 [10, 2]
0	0xbdfa6d65	-0.122278966
1	0x3ec20a02	0.3789826
2	0x3ecd468f	0.40092894
3	0x3ec78177	0.3896596
4	0x3d05b37f	0.032641884
5	0xbea3e42b	-0.32010016
6	0x3f215d36	0.63032854
7	0x3f1993e5	0.59991294
8	0xbd363178	-0.04448077
9	0x3d33f3a7	0.043933537
10	0x3edf9cee	0.43674415
11	0x3f05c224	0.5224936
12	0xbf27ca4e	-0.6554307
13	0xbe3d4a3f	-0.18485354
14	0xbed29bad	-0.41134396
15	0x3eb93a7e	0.36177438
16	0x3e656790	0.22402787
17	0x3ebf5ca4	0.37375367
18	0xbe92934e	-0.2862801
19	0x3f2e5e59	0.68112713

model.layers.0.bias f4 [10]
0	0x3e5f3229	0.21796478
1	0x3ec824b0	0.3909049
2	0x3ebd5b67	0.36983797
3	0xbe2a7481	-0.16646005
4	0x3e28745d	0.16450639
5	0xbe5b68f8	-0.21426761
6	0x3e8117fc	0.2521361
7	0x3e36aa1f	0.17838334
8	0x3ef55ab9	0.47920778
9	0xbea86b43	-0.32894334

model.layers.3.weight f4 [8, 10]
0	0xbcd2233f	-0.025651572
1	0xbdea48ca	-0.11439665
2	0xbc525007	-0.012836463
3	0xbe1faf39	-0.15594186
4	0x3e97f3e9	0.29678276
5	0x3e85831f	0.260766
6	0x3e56712e	0.20941612
7	0xbea013f5	-0.31265226
8	0x3e84daa5	0.25948063
9	0xbe03693d	-0.12833114
10	0xbe5ccf97	-0.21563564
11	0x3c8abdf6	0.016936284
12	0xbe26221f	-0.16223954
13	0x3bd68f5b	0.006547851
14	0xbd21e20b	-0.039522212
15	0x3da35f5d	0.079771735
16	0xbe131241	-0.14362432
17	0x3e22f3ff	0.1591339
18	0x3dd0f2c0	0.10202551
19	0x3c8224a7	0.015886618
20	0x3e1357b0	0.14388919
21	0xbe006bf3	-0.1254118
22	0xbd2f2f59	-0.042769764
23	0xbdb1a7ae	-0.086745605
24	0xbe5beaae	-0.21476242
25	0xbd6977c2	-0.056998976
26	0xbe344a9c	-0.17606586
27	0x3e9c6247	0.3054373
28	0x3b9e8008	0.00483704
29	0x3de4ec00	0.11177826
30	0xbe160054	-0.14648563
31	0x3e6bfba9	0.2304522
32	0x3d3b093b	0.0456631
33	0xbe601bd2	-0.21885613
34	0x3d8622f0	0.065496325
35	0xbe8407ca	-0.25787193
36	0x3e21d149	0.15802492
37	0x3e0c6df5	0.1371382
38	0x3cac31ed	0.0210199
39	0x3e96ddd6	0.29466122
40	0x3e4592b2	0.19294241
41	0x3e86cbdf	0.26327416
42	0xbbc2a168	-0.0059396513
43	0xbda3e832	-0.08003272
44	0x3dda54a0	0.10660672
45	0xbe2eee89	-0.17083181
46	0x3e5667a7	0.20937978
47	0x3e73d451	0.23811461
48	0x3cec4b9d	0.028844649
49	0x39479e68	0.0001903713
50	0x3e03fb3d	0.12888809
51	0xbe8c62c8	-0.27419114
52	0xbdf4059f	-0.11915135
53	0xbd9e9006	-0.07742314
54	0x3e8457b7	0.2584817
55	0x3d6d7411	0.057972018
56	0xbd4acdf5	-0.049512822
57	0xbda466df	-0.080274336
58	0xbe55eb65	-0.20890577
59	0x3caffede	0.021483835
60	0x3e76cc9c	0.2410149
61	0xbdd95e5f	-0.10613703
62	0xbd749a6e	-0.059717588
63	0x3d682cfb	0.05668352
64	0x3e8a8e7d	0.27061835
65	0xbd15cc43	-0.036571752
66	0x3c006e33	0.007838774
67	0x3e65ec7b	0.22453491
68	0xbdbab1ce	-0.09115945
69	0xbd92d80d	-0.07170115
70	0x3e0e3a4e	0.13889429
71	0xbe9e740a	-0.30947906
72	0xbe256895	-0.16153176
73	0xbdca4339	-0.09876103
74	0xbd23414b	-0.03985719
75	0x3e52a3c9	0.20570292
76	0x3d41d718	0.04732427
77	0xbe61ebe7	-0.22062646
78	0xbd4e35c2	-0.050344236
79	0xbe138e42	-0.14409736

model.layers.3.bias f4 [8]
0	0xbda3c876	-0.07997219
1	0x3e799f04	0.24377066
2	0x3e93522e	0.28773636
3	0x3e0130a8	0.12616217
4	0xbe7829f6	-0.24234757
5	0x3e7e4221	0.24829914
6	0xbdd9aa79	-0.10628218
7	0x3e904dd6	0.28184384

model.layers.6.weight f4 [4, 8]
0	0x3eb67f77	0.35644123
1	0xbe171adc	-0.1475634
2	0xbe4b4159	-0.19849147
3	0x3d37eb2b	0.044902008
4	0xbe3785ba	-0.17922106
5	0xbe292fca	-0.16522136
6	0x3e0b4a06	0.13602456
7	0xbdb52519	-0.088449664
8	0xbe69f304	-0.2284661
9	0x3ce66fce	0.028129485
10	0x3d07ffcf	0.033202942
11	0xbda0c544	-0.078501254
12	0xbddac6e2	-0.10682465
13	0xbd9ff005	-0.07809452
14	0x3d5e3acc	0.05425529
15	0x3de30c84	0.110863715
16	0xbc7b6f35	-0.015346338
17	0xbe213dc3	-0.15746216
18	0xbea4c3e3	-0.321807
19	0xbc893daf	-0.016753046
20	0x3e6cb032	0.23114088
21	0xbe94674f	-0.28985068
22	0xbe41429d	-0.18873067
23	0xbe039252	-0.12848786
24	0xbc820d7c	-0.01587557
25	0xbea96c6e	-0.33090538
26	0xbd5049f0	-0.050851762
27	0x3dc3e651	0.09565414
28	0xbd17d866	-0.037071608
29	0x3e6535bd	0.22383781
30	0x3d08e621	0.033422593
31	0x3e2e617e	0.17029378

model.layers.6.bias f4 [4]
0	0x3e4361db	0.19080298
1	0xbe52ae56	-0.20574316
2	0x3e976f32	0.29577023
3	0xbec38053	-0.3818384

model.layers.7.weight f4 [1, 4]
0	0xbe4addf7	-0.19811235
1	0xbebadb49	-0.36495426
2	0xbe81dcaa	-0.25363666
3	0x3ddd2e83	0.10799887

exp_avg f4 [10, 2]
0	0x00000000	0.0
1	0x00000000	0.0
2	0x3ba8631f	0.0051387693
3	0xb883643f	-6.265239e-05
4	0xbc42c9f9	-0.011888974
5	0xba9c0fde	-0.0011906584
6	0xbbf23c31	-0.0073924293
7	0xba2f9875	-0.0006698438
8	0x00000000	0.0
9	0x00000000	0.0
10	0x3cf57f76	0.029968005
11	0x3aff55a0	0.0019480474
12	0x00000000	0.0
13	0x00000000	0.0
14	0x00000000	0.0
15	0x00000000	0.0
16	0x3cfc73c2	0.030816916
17	0x3b00deec	0.0019664122
18	0x00000000	0.0
19	0x00000000	0.0

exp_avg_sq f4 [10, 2]
0	0x00000000	0.0
1	0x00000000	0.0
2	0x3a481d47	0.0007633757
3	0x34335b4f	1.6703892e-07
4	0x3aa943b1	0.001291385
5	0x34c13cfb	3.599342e-07
6	0x3aa6957c	0.0012709345
7	0x34a52787	3.0762405e-07
8	0x00000000	0.0
9	0x00000000	0.0
10	0x3c30ac9c	0.010783341
11	0x3626e06e	2.4866563e-06
12	0x00000000	0.0
13	0x00000000	0.0
14	0x00000000	0.0
15	0x00000000	0.0
16	0x3c8961a8	0.016770199
17	0x367865f2	3.701422e-06
18	0x00000000	0.0
19	0x00000000	0.0

exp_avg f4 [10]
0	0x00000000	0.0
1	0x38b76c2c	8.7462686e-05
2	0xb9a975df	-0.00032322013
3	0xb94f32ac	-0.00019759935
4	0x00000000	0.0
5	0x3a3ef713	0.0007284742
6	0x00000000	0.0
7	0x00000000	0.0
8	0x3a4319ab	0.00074424845
9	0x00000000	0.0

exp_avg_sq f4 [10]
0	0x00000000	0.0
1	0x34a0a2eb	2.992086e-07
2	0x3509b907	5.130573e-07
3	0x3506b45f	5.0181364e-07
4	0x00000000	0.0
5	0x368e82a6	4.2471393e-06
6	0x00000000	0.0
7	0x00000000	0.0
8	0x36dd01c1	6.5865174e-06
9	0x00000000	0.0

exp_avg f4 [8, 10]
0	0x00000000	0.0
1	0x3cd2da4e	0.025738861
2	0x39f99ab2	0.00047608238
3	0x3cf0db1e	0.029401358
4	0x00000000	0.0
5	0x3d167e5e	0.036741607
6	0x00000000	0.0
7	0x00000000	0.0
8	0x3cb14925	0.021641323
9	0x00000000	0.0
10	0x00000000	0.0
11	0x3ca681e2	0.020325605
12	0xba48e53f	-0.0007663555
13	0x3c8dd285	0.017312298
14	0x00000000	0.0
15	0x3d1321fb	0.03592108
16	0x00000000	0.0
17	0x00000000	0.0
18	0x3cb9802a	0.022644121
19	0x00000000	0.0
20	0x00000000	0.0
21	0x00000000	0.0
22	0xb80130e4	-3.080153e-05
23	0x00000000	0.0
24	0x00000000	0.0
25	0x00000000	0.0
26	0x00000000	0.0
27	0x00000000	0.0
28	0x394376ff	0.00018640979
29	0x00000000	0.0
30	0x00000000	0.0
31	0x3bc66db0	0.0060555562
32	0x39a593ad	0.0003158128
33	0x00000000	0.0
34	0x00000000	0.0
35	0x3acc657d	0.0015594211
36	0x00000000	0.0
37	0x00000000	0.0
38	0x3b62b813	0.003459458
39	0x00000000	0.0
40	0x00000000	0.0
41	0x3c1bca5c	0.009508695
42	0x397f1f31	0.00024330315
43	0x3b66c23a	0.0035210983
44	0x00000000	0.0
45	0x3c34ad13	0.011027592
46	0x00000000	0.0
47	0x00000000	0.0
48	0x3bc260fd	0.005931972
49	0x00000000	0.0
50	0x00000000	0.0
51	0x00000000	0.0
52	0x398a345e	0.00026360428
53	0x00000000	0.0
54	0x00000000	0.0
55	0x3b7799ab	0.0037780802
56	0x00000000	0.0
57	0x00000000	0.0
58	0x00000000	0.0
59	0x00000000	0.0
60	0x00000000	0.0
61	0x35800b82	9.540092e-07
62	0x3644ba82	2.9314838e-06
63	0x3aa0ec9c	0.0012277546
64	0x00000000	0.0
65	0x3a9dd3a0	0.0012041219
66	0x00000000	0.0
67	0x00000000	0.0
68	0x3a1416af	0.0005649132
69	0x00000000	0.0
70	0x00000000	0.0
71	0x00000000	0.0
72	0x3a24792e	0.00062741607
73	0x3c664b12	0.014055984
74	0x00000000	0.0
75	0x3c62dd65	0.01384673
76	0x00000000	0.0
77	0x00000000	0.0
78	0x3bf24abf	0.0073941643
79	0x00000000	0.0

exp_avg_sq f4 [8, 10]
0	0x00000000	0.0
1	0x3c698eca	0.014255235
2	0x371b3d4c	9.252992e-06
3	0x3cdd43b5	0.027009824
4	0x00000000	0.0
5	0x3cb16bba	0.021657813
6	0x00000000	0.0
7	0x00000000	0.0
8	0x3bd5b062	0.0065212706
9	0x00000000	0.0
10	0x00000000	0.0
11	0x3c6aefbe	0.014339386
12	0x371ba533	9.277183e-06
13	0x3ce0aebf	0.027427075
14	0x00000000	0.0
15	0x3ca2ec46	0.019888055
16	0x00000000	0.0
17	0x00000000	0.0
18	0x3bd049e3	0.0063564642
19	0x00000000	0.0
20	0x00000000	0.0
21	0x00000000	0.0
22	0x3021f360	5.8917315e-10
23	0x00000000	0.0
24	0x00000000	0.0
25	0x00000000	0.0
26	0x00000000	0.0
27	0x00000000	0.0
28	0x339cf821	7.3094505e-08
29	0x00000000	0.0
30	0x00000000	0.0
31	0x39c5b1ed	0.00037707333
32	0x341b8795	1.4484824e-07
33	0x00000000	0.0
34	0x00000000	0.0
35	0x39b4f1c3	0.00034512402
36	0x00000000	0.0
37	0x00000000	0.0
38	0x3910017b	0.00013733462
39	0x00000000	0.0
40	0x00000000	0.0
41	0x3b17d70f	0.0023168956
42	0x3580d3c1	9.598372e-07
43	0x3b574a7a	0.0032850788
44	0x00000000	0.0
45	0x3b1c5129	0.0023852086
46	0x00000000	0.0
47	0x00000000	0.0
48	0x3a4fa962	0.00079216633
49	0x00000000	0.0
50	0x00000000	0.0
51	0x00000000	0.0
52	0x321607ae	8.732895e-09
53	0x00000000	0.0
54	0x00000000	0.0
55	0x36cc27dc	6.084314e-06
56	0x00000000	0.0
57	0x00000000	0.0
58	0x00000000	0.0
59	0x00000000	0.0
60	0x00000000	0.0
61	0x316810f1	3.3770073e-09
62	0x32ddcdfe	2.582146e-08
63	0x38f7688a	0.0001179735
64	0x00000000	0.0
65	0x3889e6b1	6.575639e-05
66	0x00000000	0.0
67	0x00000000	0.0
68	0x379b8de3	1.8543511e-05
69	0x00000000	0.0
70	0x00000000	0.0
71	0x00000000	0.0
72	0x3448aaa6	1.8688533e-07
73	0x39cc6b25	0.0003898974
74	0x00000000	0.0
75	0x399de8dd	0.0003011887
76	0x00000000	0.0
77	0x00000000	0.0
78	0x38a7c3a3	7.999621e-05
79	0x00000000	0.0

exp_avg f4 [8]
0	0x3ae69f31	0.001759505
1	0x3adcb861	0.0016839617
2	0x36e179b9	6.719693e-06
3	0x39884684	0.0002599248
4	0x39e1c051	0.0004305863
5	0x391573d5	0.00014252898
6	0x38201f34	3.8176033e-05
7	0x3a1a8eb8	0.00058959005

exp_avg_sq f4 [8]
0	0x380b0a98	3.315005e-05
1	0x3809a835	3.282e-05
2	0x2fb61cf3	3.3126177e-10
3	0x352dc492	6.473357e-07
4	0x36864b29	4.002261e-06
5	0x32192c13	8.915793e-09
6	0x33d64176	9.977059e-08
7	0x34f4ce08	4.559845e-07

exp_avg f4 [4, 8]
0	0xbd76e7dd	-0.060279716
1	0xbd18c5bc	-0.03729795
2	0xb71e0223	-9.418031e-06
3	0xbbbfcba2	-0.0058531323
4	0xbc18849e	-0.009308962
5	0xb9970597	-0.0002880513
6	0x39775a6d	0.00023589442
7	0xbc06e4b6	-0.00823324
8	0xbdf5d9ef	-0.12004458
9	0xbda08047	-0.07836967
10	0xb798ab2b	-1.8199518e-05
11	0xbc369c71	-0.011145697
12	0xbc9abad1	-0.01888791
13	0xba107d66	-0.000551185
14	0x39b38c35	0.00034246003
15	0xbc845c3a	-0.016157258
16	0xbdac0c33	-0.08400764
17	0xbd61ce87	-0.0551286
18	0xb754f5ab	-1.2693384e-05
19	0xbbfe6fb7	-0.0077647823
20	0xbc591058	-0.013248526
21	0xb9c965a7	-0.00038413444
22	0x39715f81	0.00023019129
23	0xbc38f6d2	-0.011289315
24	0x3d051253	0.03248818
25	0x3ca25970	0.019818038
26	0x36abf19e	5.124325e-06
27	0x3b50f565	0.0031884548
28	0x3ba31073	0.004976326
29	0x39247c1c	0.00015686493
30	0xb9102176	-0.00013745375
31	0x3b920748	0.0044564344

exp_avg_sq f4 [4, 8]
0	0x3c1b3112	0.0094721485
1	0x3c5f0c28	0.013613738
2	0x2f515856	1.9039822e-10
3	0x370c31a9	8.356213e-06
4	0x3a3b940e	0.0007155546
5	0x33362606	4.240976e-08
6	0x3696701b	4.483399e-06
7	0x38b9f461	8.8670065e-05
8	0x3d4c5e13	0.049894404
9	0x3d9332a7	0.071873955
10	0x30715c18	8.780616e-10
11	0x3832c0ea	4.2618172e-05
12	0x3b7e5893	0.0038810119
13	0x34638136	2.1188029e-07
14	0x37ccc117	2.440861e-05
15	0x39f1d0b8	0.0004612261
16	0x3ccea5cd	0.025225544
17	0x3d14df52	0.036345787
18	0x2ff098fa	4.3764442e-10
19	0x37b4387d	2.1483977e-05
20	0x3b0104cd	0.00196867
21	0x33e4c4c2	1.06528674e-07
22	0x374fd026	1.2386625e-05
23	0x39742d38	0.00023286499
24	0x3b1f885e	0.0024342756
25	0x3b64fd95	0.0034941186
26	0x2e664aff	5.2362555e-11
27	0x36127819	2.1825601e-06
28	0x393d25dd	0.0001803855
29	0x3240c95e	1.12216565e-08
30	0x35974fb0	1.1273569e-06
31	0x37c09cf1	2.2961265e-05

exp_avg f4 [4]
0	0xbb9b234c	-0.0047344323
1	0xbc2a7c67	-0.010405636
2	0xbbf0bd90	-0.0073468164
3	0x3b23519f	0.0024920476

exp_avg_sq f4 [4]
0	0x39b6a247	0.0003483465
1	0x3aed49f0	0.00181037
2	0x3a6f8d74	0.00091382046
3	0x38bd62c5	9.0306195e-05

exp_avg f4 [1, 4]
0	0x3d9168bb	0.07100054
1	0xbda99e8d	-0.08282194
2	0xbcf983b8	-0.030458316
3	0xbd8ccb79	-0.06874747

exp_avg_sq f4 [1, 4]
0	0x3b64e131	0.0034924264
1	0x3d07ff0d	0.03320222
2	0x3c12abe2	0.008952113
3	0x3d660e16	0.056165777
