deeper_null/lightning_logs/version_8/checkpoints/epoch=21-step=22.ckpt (torch, 13936 bytes, 21 tensors)

model.layers.0.weight f4 [10, 2]
00000000: 7b2a b93e 2e3c e6be a54c 15bf e028 be3e
00000010: 20ee 5b3d 74e4 113f 12ca 823e c8f8 c13d
00000020: 3ca4 5dbe 105a 21bf b4fd 25bf e3dc 2cbf
00000030: fe53 24bf 0a77 263f c1f4 1b3f 6c22 21bf
00000040: 6194 283d 3690 e03e f5c4 f7be a483 c83e
0.36165223 -0.44967788 -0.58320075 0.3714056 0.05369389 0.56989217 0.25544792 0.094712794
-0.21644682 -0.6302805 -0.64840245 -0.67524546 -0.6419066 0.6502539 0.6092034 -0.6294315
0.04115713 0.43860024 -0.48392454 0.39162934

model.layers.0.bias f4 [10]
00000000: 8045 1b3e 30cb d6bd 1f02 763e b656 23bf
00000010: a78f 313c 03bf 9bbe 6659 10bf 32b8 223f
00000020: d840 e33e e449 423b
0.15163231 -0.10487974 0.24024247 -0.63804185 0.010837472 -0.30419168 -0.5638641 0.6356231
0.4438541 0.0029646093

model.layers.3.weight f4 [8, 10]
00000000: 5cf1 8fbd cbe2 873d a28a 4a3e 3e15 3a3d
00000010: 2f0c 733e ff25 46be 7ddb 25be e8e7 09be
00000020: d2ca 163e 05ca 94be f9d4 533d 7f68 0e3e
00000030: e45e b83d c9aa 83be 4db5 2bbe 7fa3 793d
00000040: 4909 673e 8618 753e cf6e 88be 3840 f2bc
00000050: a7c9 06bc 2b10 483d 9d1b a83e 4cbf 013e
00000060: e00d 993e 6a0c a83c 3a45 8bbe 79af fcbd
00000070: d75e 793e 66e2 94be 34b7 883e e788 003e
00000080: 0b93 973a 4542 3a3d 22e4 86be 55f8 06be
00000090: 69ef 6cbe 58e7 263d dffa 313c a455 1b3c
000000a0: 6441 5ebe 11f1 213e 27c1 95bd 225c 623e
000000b0: f86f 153a 3ca8 91bd 294f 65be efbd 9e3d
000000c0: e34e c4bd 4bfe 1f3e 9a1d 6bbb bb5d 79be
000000d0: ef5f 07be a59e 2abe b58e 8fbe 9321 64be
000000e0: d36b 8c3d cef9 6cbe 6747 513d 8cb6 6cbe
000000f0: 95e9 e7bd 3d42 663e 1d52 d0bb e11f 2b3e
00000100: d7c0 84bd e9f5 8ebd 6681 bbbd 6285 adbd
00000110: 41e2 70be f08e 11be 1dba 783e 83f9 0c3e
00000120: 7bf0 d3ba f2bc 8bbe ae9c 49be 0773 b43d
00000130: 1477 92be e8c0 073e 8b97 47be b078 5cbe
-0.070284575 0.06635054 0.19779447 0.045430414 0.23735116 -0.19350432 -0.1619701 -0.13467371
0.14725807 -0.2906038 0.05171678 0.1390705 0.09002474 -0.25716236 -0.1676838 0.060946938
0.22562136 0.23935136 -0.2664704 -0.029571638 -0.008226789 0.048843544 0.32833567 0.1267063
0.29893398 0.020513732 -0.27201253 -0.12338156 0.24352585 -0.29078978 0.26702273 0.12552224
0.0011564208 0.045473356 -0.26345927 -0.13180669 -0.23138203 0.04074797 0.010863035 0.009480868
-0.21704632 0.15814616 -0.073122315 0.22105458 0.00057005836 -0.07112166 -0.22393478 0.07751071
-0.09585359 0.15624349 -0.0035875798 -0.24352162 -0.1322019 -0.1666208 -0.28038564 -0.22278433
0.06856503 -0.23142168 0.051093485 -0.23116511 -0.11323849 0.22486205 -0.006357445 0.1671138
-0.06482094 -0.069804974 -0.0915554 -0.084727064 -0.23523809 -0.14214683 0.24289747 0.13767056
-0.0016169691 -0.2729259 -0.19688675 0.08811002 -0.28606474 0.13257182 -0.19491403 -0.21530414

model.layers.3.bias f4 [8]
00000000: 8490 043e 47eb 813d d236 f7bd d965 543e
00000010: f7e3 9fbe eff4 c33d 986d 6bbe f606 a6be
0.12945753 0.06343704 -0.12071003 0.20741977 -0.3122861 0.09568202 -0.22991025 -0.32427186

model.layers.6.weight f4 [4, 8]
00000000: a0f6 88be 1062 83be 2d83 61bd bad5 9e3e
00000010: 92f9 9ebe 1d9b 7c3e f96f 383c bfd3 1bbe
00000020: 45d0 e5bd cef0 883e d294 b33e 4dca 66be
00000030: c88e 9f3e b789 99be 3248 3cbb 4baf 8d3e
00000040: 02d0 6b3d 0cd3 ab3e d195 8d3e ef15 d63d
00000050: 2015 eebd 2f66 a53e 4fb9 a9be 0cc9 b5bd
00000060: 672c f73d ab75 cdbd 3134 3e3e fd81 8e3e
00000070: e43c 403e 6dbf a33e f437 8f3d 8820 293e
-0.2675066 -0.25660753 -0.05505674 0.31022435 -0.31049782 0.24668546 0.011257165 -0.15217493
-0.11221365 0.2674622 0.35074478 -0.22538109 0.3116362 -0.2998788 -0.0028729555 0.276728
0.05757142 0.33559453 0.27653363 0.10453402 -0.11625123 0.32304522 -0.33149192 -0.08876237
0.12069016 -0.10032209 0.18574597 0.27833548 0.18773228 0.31981984 0.06993094 0.16516316

model.layers.6.bias f4 [4]
00000000: 9d92 583e c846 a43e 9e5f 3f3e 4c6a b1be
0.21149679 0.32085252 0.18688819 -0.3465141

model.layers.7.weight f4 [1, 4]
00000000: f631 de3e b334 f83e c9f3 c83d 2461 edbe
0.43397492 0.48477706 0.09812123 -0.46363175

exp_avg f4 [10, 2]
00000000: f34d 9e3e 52f3 c638 0000 0000 0000 0000
00000010: 9cbf f83d e220 6e3b 35da 433d bdd1 0cbc
00000020: 0000 0000 0000 0000 0000 0000 0000 0000
00000030: 0000 0000 0000 0000 68f3 943e ddaa a73b
00000040: 5b3c 32be ac91 aebb 0000 0000 0000 0000
0.30918846 9.486698e-05 0.0 0.0 0.121459216 0.0036335518 0.04781552 -0.008594927
0.0 0.0 0.0 0.0 0.0 0.0 0.29091954 0.005116804
-0.17405836 -0.005327424 0.0 0.0

exp_avg_sq f4 [10, 2]
00000000: c2cd af3c e63c 6135 0000 0000 0000 0000
00000010: 4d25 973a f399 9f34 20aa 393d bca6 5c36
00000020: 0000 0000 0000 0000 0000 0000 0000 0000
00000030: 0000 0000 0000 0000 4d8e ed3a bf61 0c35
00000040: f75a 923b e62a 3d35 0000 0000 0000 0000
0.021460418 8.390765e-07 0.0 0.0 0.0011531502 2.972807e-07 0.04532826 3.2879607e-06
0.0 0.0 0.0 0.0 0.0 0.0 0.0018124074 5.2296303e-07
0.0044664103 7.047041e-07 0.0 0.0

exp_avg f4 [10]
00000000: 378a ad3b 0000 0000 74ac 423b 9790 adba
00000010: 0000 0000 0000 0000 0000 0000 8b98 ca3b
00000020: 90b8 8abb 0000 0000
0.0052960175 0.0 0.002970484 -0.0013241944 0.0 0.0 0.0 0.0061827353
-0.0042334273 0.0

exp_avg_sq f4 [10]
00000000: 88fc f536 0000 0000 b1e2 fa34 ae13 8337
00000010: 0000 0000 0000 0000 0000 0000 9cd5 5635
00000020: 2673 e135 0000 0000
7.3309675e-06 0.0 4.6731068e-07 1.5625581e-05 0.0 0.0 0.0 8.0032055e-07
1.6797319e-06 0.0

exp_avg f4 [8, 10]
00000000: 08b4 ef3d 0000 0000 fe21 923c 7134 b63d
00000010: 0000 0000 0000 0000 0000 0000 0000 0000
00000020: af7d 873c 0000 0000 3ecf 393e 0000 0000
00000030: 1aa6 883d 9e6c 8e3d 0000 0000 0000 0000
00000040: 0000 0000 6a68 f93e fbb8 313d 0000 0000
00000050: da39 05bd 0000 0000 0d13 75bb 1f34 b0bc
00000060: 0000 0000 0000 0000 0000 0000 0000 0000
00000070: a461 75bb 0000 0000 48c3 ec3e 0000 0000
00000080: ff6d 133d d860 b03e 0000 0000 0000 0000
00000090: 0000 0000 0b55 063f 153c 433d 0000 0000
000000a0: 3b5d 2e3e 0000 0000 2a83 cb3a 8556 c93d
000000b0: 0000 0000 0000 0000 0000 0000 701e 4d3e
000000c0: f48e 4d3c 0000 0000 adf8 223b 0000 0000
000000d0: d900 2939 0000 0000 0000 0000 0000 0000
000000e0: 0000 0000 0000 0000 2aab b039 0000 0000
000000f0: e808 423b 0000 0000 de1b 683a 31ac 9c3b
00000100: 0000 0000 0000 0000 0000 0000 0000 0000
00000110: 04fb 033a 0000 0000 f218 823d 0000 0000
00000120: c9de 683b dd29 603d 0000 0000 0000 0000
00000130: 0000 0000 e2b4 943d f6cb e33b 0000 0000
0.1170426 0.0 0.017838474 0.08896721 0.0 0.0 0.0 0.0
0.016539423 0.0 0.18145463 0.0 0.06672306 0.06954311 0.0 0.0
0.0 0.48712474 0.0433893 0.0 -0.032525875 0.0 -0.0037395388 -0.021509228
0.0 0.0 0.0 0.0 -0.0037442232 0.0 0.46242738 0.0
0.035993572 0.34448886 0.0 0.0 0.0 0.52473515 0.04766472 0.0
0.17027752 0.0 0.0015526761 0.098309554 0.0 0.0 0.0 0.20031142
0.01254629 0.0 0.002486746 0.0 0.00016117412 0.0 0.0 0.0
0.0 0.0 0.00033696863 0.0 0.002960736 0.0 0.000885425 0.004781269
0.0 0.0 0.0 0.0 0.00050346577 0.0 0.06352414 0.0
0.003553318 0.054727424 0.0 0.0 0.0 0.07261063 0.0069518043 0.0

exp_avg_sq f4 [8, 10]
00000000: 8c74 093b 0000 0000 e576 4038 1a40 8c3a
00000010: 0000 0000 0000 0000 0000 0000 0000 0000
00000020: 92bd 5038 0000 0000 6f9c b23c 0000 0000
00000030: 22d2 fa39 983e 213c 0000 0000 0000 0000
00000040: 0000 0000 8562 8b3d c05f 013a 0000 0000
00000050: dd6c 0d39 0000 0000 adb1 3336 fa8d 8538
00000060: 0000 0000 0000 0000 0000 0000 0000 0000
00000070: 06ae 3f36 0000 0000 e0b7 a43d 0000 0000
00000080: 0c32 ba3a 26d3 183d 0000 0000 0000 0000
00000090: 0000 0000 f901 4b3e d3b3 e53a 0000 0000
000000a0: 5f67 d83c 0000 0000 e00f fd39 58ca 5f3c
000000b0: 0000 0000 0000 0000 0000 0000 a406 a63d
000000c0: ebb4 1c3a 0000 0000 d931 8e36 0000 0000
000000d0: 1c1f 5033 0000 0000 0000 0000 0000 0000
000000e0: 0000 0000 0000 0000 044c c733 0000 0000
000000f0: 6da7 3336 0000 0000 b1fa 2934 1a9b 8d36
00000100: 0000 0000 0000 0000 0000 0000 0000 0000
00000110: a1c5 5b33 0000 0000 3d07 8d3b 0000 0000
00000120: 0c7c 9938 9aff 003b 0000 0000 0000 0000
00000130: 0000 0000 b1cc 2e3c fe1e c538 0000 0000
0.0020974008 0.0 4.5887096e-05 0.0010700256 0.0 0.0 0.0 0.0
4.9767616e-05 0.0 0.021803109 0.0 0.00047840277 0.009841584 0.0 0.0
0.0 0.068059005 0.00049352273 0.0 0.00013487363 0.0 2.67765e-06 6.3683794e-05
0.0 0.0 0.0 0.0 2.8562513e-06 0.0 0.08042884 0.0
0.0014205589 0.03731074 0.0 0.0 0.0 0.19824971 0.0017524905 0.0
0.026416479 0.0 0.00048267748 0.013659082 0.0 0.0 0.0 0.08106735
0.00059778866 0.0 4.237733e-06 0.0 4.8457068e-08 0.0 0.0 0.0
0.0 0.0 9.280487e-08 0.0 2.6770533e-06 0.0 1.5830553e-07 4.2201837e-06
0.0 0.0 0.0 0.0 5.1169653e-08 0.0 0.0043038414 0.0
7.318714e-05 0.00196836 0.0 0.0 0.0 0.010668919 9.399465e-05 0.0

exp_avg f4 [8]
00000000: 0650 ac3b b700 9b3c 827b 9bba 1263 503c
00000010: b12b c93a 5021 d938 f15c 9639 583f c63a
0.005258563 0.01892124 -0.001186237 0.012718933 0.0015348104 0.00010353571 0.00028679476 0.0015125079

exp_avg_sq f4 [8]
00000000: b653 a236 0590 5738 57ae 9b34 ec14 2e39
00000010: 14b9 6c38 c1d3 0032 44fb 9332 753f 1237
4.8377215e-06 5.1394123e-05 2.899785e-07 0.00016601727 5.6439152e-05 7.498728e-09 1.7227315e-08 8.717053e-06

exp_avg f4 [4, 8]
00000000: 8bcd 0ebc d191 e83e a972 bdbc d40e 1fbf
00000010: ef92 efbc 1584 2cb8 2597 0bbb c411 21bc
00000020: 4d13 25bc c261 023f f62e dbbc 3145 39bf
00000030: 7043 11bd f759 46b8 e499 20bb 157d a8bc
00000040: 4245 faba ce6f da3d 056b a6bb 6086 08be
00000050: 3b04 b3bb c3ad 17b7 d375 f7b9 aeed 133b
00000060: 7203 213c 2638 f5be 618e d53c 9d77 363f
00000070: 4638 173d 6036 4138 26c5 1b3b a415 fe3c
-0.008715997 0.4542375 -0.023125963 -0.62132 -0.029244868 -4.1131007e-05 -0.0021299806 -0.009830896
-0.010075402 0.50930417 -0.026755791 -0.723712 -0.035464704 -4.7290665e-05 -0.0024505788 -0.020567456
-0.0019094127 0.10665856 -0.0050786757 -0.1333251 -0.005463151 -9.040758e-06 -0.00047199297 0.0022572088
0.009827482 -0.478944 0.026068868 0.71276265 0.0369189 4.6065426e-05 0.0023768633 0.031016178

exp_avg_sq f4 [4, 8]
00000000: dc8a 8037 d96d f23c c3e1 c538 cebd 263e
00000010: 9c9e 713b e6cf af30 f402 1335 6523 483d
00000020: 24d6 ac37 1ed8 203d acd7 0439 ad4c 603e
00000030: be83 a23b de5a ec30 272e 4535 335c 863d
00000040: 51ac 3a35 7da2 b63a 18d5 9136 ef02 f13b
00000050: 4dcb 2c39 d074 7b2e 7f85 d832 cdbd 103b
00000060: 90d0 a837 0299 1a3d f0e2 0039 3987 5b3e
00000070: f0d2 9f3b e077 e830 b56c 3f35 ce7c 833d
1.532345e-05 0.029593395 9.4357434e-05 0.16283342 0.003686822 1.2792014e-09 5.4766065e-07 0.04886188
2.0603715e-05 0.039268605 0.00012668845 0.2190425 0.0049595525 1.7197086e-09 7.345538e-07 0.06560554
6.9541153e-07 0.0013933923 4.346144e-06 0.007355086 0.00016478934 5.7174543e-11 2.5206417e-08 0.0022085786
2.012428e-05 0.037743576 0.00012291572 0.21438302 0.0048774406 1.6914292e-09 7.1311234e-07 0.06420289

exp_avg f4 [4]
00000000: 4945 d83c 3391 e83c c493 dd3b 79e0 cebc
0.026400225 0.028389549 0.006762 -0.025253521

exp_avg_sq f4 [4]
00000000: 5944 b43a fe68 f13a 6b8a 8338 5f57 eb3a
0.0013753279 0.0018418131 6.272349e-05 0.0017955116

exp_avg f4 [1, 4]
00000000: 3b33 25bf 3a75 1d3f 649e 723e 0857 1cbf
-0.64531296 0.61507 0.23693234 -0.610703

exp_avg_sq f4 [1, 4]
00000000: a0ca 4c3c 7689 833c caf4 e13c 1dce f93d
0.012499481 0.016056757 0.027582545 0.12197516
