deeper_null/lightning_logs/version_23/checkpoints/epoch=9-step=10.ckpt (torch, 13936 bytes, 21 tensors)

model.layers.0.weight f4 [10, 2]
00000000: 0260 a1be da14 083e ab7d 013e eb95 99be
00000010: d071 a43c 7031 c8bd 4e50 cc3e c3e3 4fbe
00000020: 341e d13e 56fb fbbd 986f 1bbe b552 873e
00000030: 5312 a7bd ba52 253f 89c1 933e c914 93bd
00000040: 323f 043f 8e79 4fbc 44e5 f63e 5f3e 313f
-0.3151856 0.13289204 0.12645595 -0.2999719 0.020073801 -0.097750545 0.39905018 -0.20301728
0.40843356 -0.12303798 -0.15179288 0.26430288 -0.08157792 0.64579356 0.28858593 -0.07181699
0.5165893 -0.012663258 0.4822179 0.69235796

model.layers.0.bias f4 [10]
00000000: 4091 1dbf 8432 fdbe d13b 3fbe 7c86 203d
00000010: aad7 553e e735 c0be 3ada 25be 116d 213c
00000020: daca fabe 9f65 853e
-0.6154976 -0.49452603 -0.18675162 0.039190754 0.2088305 -0.37541124 -0.16196528 0.009852664
-0.48982888 0.26054093

model.layers.3.weight f4 [8, 10]
00000000: bfc0 ff3c f28a 5f3e c807 d7bc 0f97 54bd
00000010: 455c 9d3e dcba 733e d47f fabb cb0e a1bd
00000020: 0354 c63d 5d53 98be 89e9 3ebe 404e f6bd
00000030: ff80 6d3e 4167 78ba 1fd2 9abe 109f 973a
00000040: a284 0d3e 8544 103e 1345 5b3e 2784 e23d
00000050: de8f d53d b3e2 7c3e f012 22be 4192 1fbd
00000060: 19af c1bc 9bea 8e3e ff7d 5e3d 779e 083c
00000070: ff81 59be 6d7d 25bd 2b88 60bd 4dbc 65be
00000080: 41dd 713e 582f 66be 76ef d13d c696 703e
00000090: 16bc 593e f9cb 85bd ebfc 253e 8ed1 74be
000000a0: 6b2d 813e 09db 503e c36b b13d 2eab 68be
000000b0: 85c1 d9bd fab9 4abe 7d39 4d3e eec4 a7bd
000000c0: ec74 17be e62f b93d 070d 8bbe 9e3c 2cbe
000000d0: 52df f63d 5da2 1fbe 3c1e 663e f62a 9dbe
000000e0: 503b 78be aa75 01be 5b1f 89be f50f 953d
000000f0: 4f89 7c3e 2990 8ebe b084 aebd 42a8 e73a
00000100: ebe6 79be 5c86 89be 2cbb 983e 8ea1 77be
00000110: 80a2 183e f548 8a3e f533 97be 3f24 863e
00000120: eaf1 03bd 0415 2d3e b96c 33bd f32e 91be
00000130: be8d 5dbd baf4 9f3d fa46 ff3d aafc 0d3e
0.031219838 0.21830347 -0.026248828 -0.051901873 0.3073446 0.2380175 -0.007644633 -0.0786415
0.09683993 -0.297511 -0.18643774 -0.12026644 0.2319374 -0.0009475835 -0.30238435 0.001156779
0.13820127 0.14088638 0.21413068 0.11060362 0.10427831 0.24695854 -0.15827537 -0.038957838
-0.023643063 0.27913365 0.054319378 0.008338562 -0.21240996 -0.04040282 -0.05481736 -0.22435112
0.23619558 -0.22478998 0.10250752 0.23495016 0.21263155 -0.06533045 0.16209762 -0.23908064
0.25229964 0.20396055 0.08663132 -0.2272155 -0.10632614 -0.19797507 0.20041461 -0.08191858
-0.14790696 0.09042339 -0.27158377 -0.16819999 0.12054314 -0.1558928 0.22472471 -0.3069684
-0.24241376 -0.12642542 -0.26781735 0.07278434 0.24661754 -0.2784436 -0.08521402 0.0017674046
-0.24404494 -0.2686032 0.298303 -0.24182722 0.14905739 0.27008787 -0.29531828 0.2619953
-0.03221313 0.16902548 -0.043804858 -0.28356132 -0.054090254 0.0781035 0.124647096 0.13865915

model.layers.3.bias f4 [8]
00000000: c690 cb3d 5973 2d3e c4bc fa3d 5cab 2f3e
00000010: 369c 26be 120c 94bd cad4 4fbe 0b77 9dbe
0.09939723 0.16938533 0.122430354 0.17155212 -0.16270527 -0.07228865 -0.20296016 -0.30754885

model.layers.6.weight f4 [4, 8]
00000000: 558c 3a3e deac 6cbe b129 22be a1a9 303e
00000010: cb32 a3be 51b7 b83e 90b4 b5bd bc98 8ebe
00000020: 3e5b 57bd 8111 973e d9f5 07be c74b 8dbd
00000030: f1a5 b6be 4b6e 5cbe d3e1 41be fd22 c9bd
00000040: 5c83 3f3e c32d 43be 9f29 6a3e aa81 4a3e
00000050: 2b4f 94be f95e a83e b6be 913e 3236 db3c
00000060: 9869 07be 5159 223d 9f89 3cbe e029 283e
00000070: c19c f03d 675c 81be 0287 a1be e204 62be
0.18217595 -0.23112819 -0.15836217 0.17252208 -0.3187469 0.3607736 -0.0887233 -0.27850902
-0.05257725 0.29505542 -0.13277377 -0.06899219 -0.35673478 -0.21526448 -0.18933801 -0.098211266
0.18702453 -0.19060425 0.2286744 0.19776025 -0.2896665 0.32884958 0.28465813 0.02675924
-0.13223875 0.03963596 -0.18411873 0.16422224 0.117486484 -0.2526581 -0.31548315 -0.22072175

model.layers.6.bias f4 [4]
00000000: c189 42be 397e ae3e fd9d 353e 5d7c ee3c
-0.18997861 0.34080675 0.17736049 0.029112035

model.layers.7.weight f4 [1, 4]
00000000: 329d adbe e6a8 943e 1d57 c8be e956 b7be
-0.33908993 0.2903511 -0.39128962 -0.35808495

exp_avg f4 [10, 2]
00000000: 0000 0000 0000 0000 6018 8e3f e63c 7f3c
00000010: 4830 1441 e8e9 c63d 2409 ae40 a9d8 673d
00000020: 61be 67c1 88a6 17be 0000 0000 0000 0000
00000030: 0000 0000 0000 0000 cee9 1541 ef25 c83d
00000040: e7d8 4941 2b81 073e 4718 2f41 25b5 df3d
0.0 0.0 1.1101189 0.015578484 9.261787 0.09712583 5.438616 0.056603108
-14.483979 -0.1480962 0.0 0.0 0.0 0.0 9.369581 0.0977286
12.615455 0.13232867 10.943427 0.109232225

exp_avg_sq f4 [10, 2]
00000000: 0000 0000 0000 0000 11ca b33d 2d84 4137
00000010: 1568 0e40 925e 7d39 515f 413f 187c aa38
00000020: bbaa a040 98ab 093a 0000 0000 0000 0000
00000030: 0000 0000 0000 0000 13c7 0c40 eca9 7839
00000040: 96e0 8a40 669d f739 294c 3840 7e76 9739
0.0 0.0 0.087787755 1.1534471e-05 2.2251027 0.0002416319 0.75536066 8.129346e-05
5.020841 0.0005251705 0.0 0.0 0.0 0.0 2.1996505 0.00023714424
4.3399153 0.00047228782 2.8796484 0.00028889248

exp_avg f4 [10]
00000000: 0000 0000 1ade b23c f7a9 373e 08ab d73d
00000010: 9a32 8fbe 0000 0000 0000 0000 c4d2 393e
00000020: 3409 7a3e 827e 583e
0.0 0.021834422 0.1793593 0.105306685 -0.27968293 0.0 0.0 0.18146807
0.24417573 0.21142009

exp_avg_sq f4 [10]
00000000: 0000 0000 dd3c 0a38 4099 5a3a 6160 9439
00000010: c74f f53a 0000 0000 0000 0000 e721 583a
00000020: 5bfb d43a 1de6 8c3a
0.0 3.2958447e-05 0.0008338876 0.00028300568 0.0018715792 0.0 0.0 0.0008244798
0.0016249226 0.0010749731

exp_avg f4 [8, 10]
00000000: 0000 0000 9acb 63bf 5ec9 06be 0f28 2cc0
00000010: d19b 44c0 0000 0000 0000 0000 5c95 fdbf
00000020: 49d8 7cc0 3bf0 66c0 0000 0000 0601 9b40
00000030: 8e9c 573f 4b84 8741 d03a 7641 0000 0000
00000040: 0000 0000 c2b6 4641 b39a b841 b1e3 af41
00000050: 0000 0000 0e8b afb7 5c5c c335 5e3a 32b9
00000060: cc3f 4b39 0000 0000 0000 0000 de44 fbb8
00000070: 0000 0000 9f25 62b8 0000 0000 f4cb 893c
00000080: 7681 a13a fa64 efbc f6ce 3c3d 0000 0000
00000090: 0000 0000 1b6a 583c 317e 1a3d 3e42 8dbb
000000a0: 0000 0000 a518 6c3a a94b 1039 0000 0000
000000b0: c0c3 0abb 0000 0000 0000 0000 dd9f 423b
000000c0: 0000 0000 3dc9 983b 0000 0000 aa70 a8bd
000000d0: 0852 5dbc 73fc abbe 7555 a4be 0000 0000
000000e0: 0000 0000 959e 5dbe 0000 0000 97cd cebe
000000f0: 0000 0000 589b f4bd d3e6 b2bc 8c9c fabe
00000100: b1ff b3be 0000 0000 0000 0000 ec4b a6be
00000110: 7662 2abf e7d3 29bf 0000 0000 8cfc 4840
00000120: 12a6 0b3f b134 3041 40e8 2141 0000 0000
00000130: 0000 0000 376f 0041 49aa 6641 1081 6341
0.0 -0.88982546 -0.13162753 -2.689945 -3.0720103 0.0 0.0 -1.9811206
-3.950701 -3.6084125 0.0 4.843875 0.8422326 16.939596 15.3893585 0.0
0.0 12.419619 23.075537 21.986177 0.0 -2.0926378e-05 1.4555512e-06 -0.00016997146
0.00019383355 0.0 0.0 -0.0001198144 0.0 -5.3917636e-05 0.0 0.016820885
0.0012321908 -0.029222954 0.04609581 0.0 0.0 0.013208891 0.037718 -0.004310875
0.0 0.0009006358 0.00013761096 0.0 -0.0021173805 0.0 0.0 0.0029697337
0.0 0.0046626613 0.0 -0.08224614 -0.013508327 -0.3359104 -0.3209645 0.0
0.0 -0.21642525 0.0 -0.40391228 0.0 -0.11943692 -0.021838581 -0.4894756
-0.35156015 0.0 0.0 -0.324798 -0.6655649 -0.6633896 0.0 3.1404142
0.5455028 11.012864 10.119202 0.0 0.0 8.027152 14.416574 14.219009

exp_avg_sq f4 [8, 10]
00000000: 0000 0000 b736 983c 1be2 cf39 895c 3a3e
00000010: c222 673e 0000 0000 0000 0000 0df5 c63d
00000020: caa1 bc3e e7c0 a23e 0000 0000 b970 1e3f
00000030: 1f0f ac3c 30f9 ed40 e6c4 c340 0000 0000
00000040: 0000 0000 83b0 8040 dbe7 5c41 8f2c 4741
00000050: 0000 0000 379e 832f a351 c32c 92e3 1231
00000060: 9fbc dd30 0000 0000 0000 0000 3dfb 1331
00000070: 0000 0000 cbee f430 0000 0000 9666 ef36
00000080: e3ba f033 dc6c 0c38 af32 ad38 0000 0000
00000090: 0000 0000 b222 8037 4e14 e238 9371 c835
000000a0: 0000 0000 30c7 aa33 a4ee 4231 0000 0000
000000b0: 30cd 8534 0000 0000 0000 0000 d08e 0335
000000c0: 0000 0000 ebb6 ca35 0000 0000 fc35 4339
000000d0: 7a24 9c36 7cc8 383b f15b 293b 0000 0000
000000e0: 0000 0000 8dc3 a13a 0000 0000 ebf7 843b
000000f0: 0000 0000 cceb b739 c55d 3337 d111 b73b
00000100: b97c 593b 0000 0000 0000 0000 50e4 273b
00000110: 6943 2a3c 3d95 283c 0000 0000 e792 863e
00000120: 5132 123c b527 4b40 dee4 2a40 0000 0000
00000130: 0000 0000 f025 d93f 93c9 ad40 cd31 a840
0.0 0.018580778 0.00039650578 0.18199362 0.22571853 0.0 0.0 0.097147085
0.36842185 0.31787798 0.0 0.6189075 0.021003304 7.4366684 6.1177855 0.0
0.0 4.021547 13.806605 12.448379 0.0 2.394118e-10 5.551297e-12 2.1375155e-09
1.6133476e-09 0.0 0.0 2.1534128e-09 0.0 1.7821206e-09 0.0 7.1346976e-06
1.12098654e-07 3.3479984e-05 8.2587234e-05 0.0 0.0 1.5274945e-05 0.00010780302 1.4934216e-06
0.0 7.952474e-08 2.8366367e-09 0.0 2.4922474e-07 0.0 0.0 4.900912e-07
0.0 1.5103409e-06 0.0 0.0001861676 4.6534087e-06 0.002819567 0.0025842155 0.0
0.0 0.0012341604 0.0 0.0040578744 0.0 0.00035080162 1.0691064e-05 0.0055868407
0.0033185913 0.0 0.0 0.0025618263 0.010392048 0.010289487 0.0 0.26283953
0.008923129 3.1742985 2.670219 0.0 0.0 1.6964703 5.430856 5.256079

exp_avg f4 [8]
00000000: 2635 09be 8cef 4a3f 7683 7cb6 dbae bb3a
00000010: 4410 3a39 d4ef 63bc f6a0 bfbc 574c 033f
-0.13399181 0.7927177 -3.7627447e-06 0.0014319079 0.00017744402 -0.01391216 -0.023392182 0.5128836

exp_avg_sq f4 [8]
00000000: 595e de39 e8c0 843c 5f36 b32c c9aa 0234
00000010: 161a f730 9bbe a136 1423 5637 8076 e03b
0.00042413434 0.016205266 5.0935224e-12 1.2169325e-07 1.7979029e-09 4.8203633e-06 1.2763561e-05 0.006850064

exp_avg f4 [4, 8]
00000000: 319a c9be 3648 dbc0 aee0 10ba d5a6 ba3c
00000010: 6bbd 27bb 14b5 d7bb 300e acbf 27fc 81c1
00000020: 6cd0 ac3e 1604 bc40 c59c f839 a0f1 9fbc
00000030: 77d2 0f3b 17df b83b 0f7e 933f c9e4 5e41
00000040: b9e5 e7be d421 fcc0 366b 26ba 22cb d63c
00000050: bfe1 40bb 6238 f8bb 7de4 c5bf 3e77 95c1
00000060: b8c4 d4be 5767 e7c0 59d8 18ba c103 c53c
00000070: 9103 31bb 9eac e3bb d994 b5bf 242c 89c1
-0.3937545 -6.852565 -0.0005526644 0.02278463 -0.002559508 -0.0065828655 -1.344183 -16.248121
0.33752763 5.875499 0.00047419048 -0.019524395 0.0021945515 0.0056418288 1.1522845 13.930856
-0.45292452 -7.8791294 -0.0006348373 0.026219908 -0.002943143 -0.0075750807 -1.5460354 -18.683224
-0.41556334 -7.2313647 -0.0005830578 0.024049642 -0.0027010182 -0.006948068 -1.418605 -17.146553

exp_avg_sq f4 [4, 8]
00000000: d08a 6a3b 14a2 a23f 3987 e832 a939 6737
00000010: 6b3f 9c34 f237 9e35 2fc7 2b3d fdea dc40
00000020: 7d70 2c3b 305f 6f3f 1330 ab32 2ad1 2937
00000030: 0f0b 6634 3078 6835 5b9d fc3c bd8d a240
00000040: 560c 9b3b 2fb6 d63f a462 1933 750f 9937
00000050: c833 ce34 217b d135 940d 633d f9db 1141
00000060: e697 823b f709 b53f 8066 0133 2dcc 8037
00000070: 46e9 ad34 7040 b035 2e48 3f3d 37ef f540
0.0035788305 1.2705712 2.7069847e-08 1.3782098e-05 2.9103407e-07 1.17882e-06 0.041938003 6.903685
0.0026312165 0.9350462 1.9928882e-08 1.0121885e-05 2.1424442e-07 8.660163e-07 0.030836752 5.079802
0.004731695 1.6774348 3.57128e-08 1.8246219e-05 3.8408166e-07 1.5607549e-06 0.05543287 9.116204
0.003985393 1.4143666 3.0128376e-08 1.5353866e-05 3.239349e-07 1.3131776e-06 0.046699695 7.685451

exp_avg f4 [4]
00000000: 31f8 92bf b002 7c3f c500 a9bf 1219 9bbf
-1.1481992 0.984416 -1.320336 -1.2117026

exp_avg_sq f4 [4]
00000000: 99ab 093d 7a92 ca3c 47d2 353d 7044 193d
0.033610914 0.024728049 0.04438999 0.037418783

exp_avg f4 [1, 4]
00000000: 9742 97c1 2e33 f83f d2e9 7cbf eaf2 34c1
-18.907515 1.9390619 -0.9879428 -11.309305

exp_avg_sq f4 [1, 4]
00000000: d7ee 1641 5a30 043e b54c 473d 81b7 5340
9.4333105 0.1290907 0.048657138 3.3080752
