deeper_null/lightning_logs/version_24/checkpoints/epoch=9-step=10.ckpt (torch, 13936 bytes, 21 tensors)

model.layers.0.weight f4 [10, 2]
-0.55770785 0.25944823 -0.65766495 0.112961814 0.073792905 -0.12812771 0.17046492 0.45640475
-0.6437722 0.14899366 -0.096981585 0.24186762 -0.27248427 0.2596094 -0.38084853 0.06622146
0.41418362 -0.173184 -0.41775483 0.4754778
00000000: f1c5 0ebf 66d6 843e bb5c 28bf 8658 e73d
00000010: bc20 973d e933 03be 5b8e 2e3e e2ad e93e
00000020: 41ce 24bf cb91 183e 489e c6bd 25ac 773e
00000030: 0f83 8bbe 86eb 843e 94fe c2be 1e9f 873d
00000040: e00f d43e 2657 31be f6e3 d5be d471 f33e

model.layers.0.bias f4 [10]
-0.5525885 -0.011086138 0.55392355 -0.1943453 0.12133622 -0.4045182 -0.25038785 0.6621548
-0.65099466 -0.24296664
00000000: 7176 0dbf a2a2 35bc efcd 0d3f 7402 47be
00000010: 207f f83d 021d cfbe d632 80be fa82 293f
00000020: 96a7 26bf 3fcc 78be

model.layers.3.weight f4 [8, 10]
-0.016400883 -0.13531841 -0.02538522 0.20739903 -0.19196077 0.14975639 -0.10157564 0.15051576
-0.09201252 -0.08592048 0.12248625 -0.028635688 0.28956628 0.033188645 -0.282769 0.057053186
-0.039800797 -0.11814865 0.15098745 0.03681012 0.0556231 -0.25436607 -0.3010432 -0.20479722
0.021407612 -0.16073762 -0.30028376 -0.28032458 -0.28076684 -0.17830145 0.049596585 -0.29162937
0.20296282 -0.019368034 -0.14272751 -0.11141192 0.2003126 -0.00044309392 -0.14244682 -0.096916184
-0.16350941 0.052572485 0.020496717 -0.3131283 -0.05113931 -0.17817284 -0.24966544 -0.057377003
-0.23731807 -0.18334445 0.2580433 0.04635266 0.27407795 -0.21303147 0.11575985 -0.17720982
0.22776957 -0.04749323 0.1251706 0.22935686 -0.20400874 -0.15992463 0.016963784 -0.18576081
-0.03528896 0.13592578 0.2501625 0.15266821 0.13033836 -0.16506782 0.06082103 -0.073929206
0.07757442 0.032014955 -0.31436998 0.07271716 0.16066101 0.053118266 0.08959872 0.27822527
00000000: 255b 86bc e990 0abe aaf4 cfbc 6960 543e
00000010: 5d91 44be bd59 193e e406 d0bd ce20 1a3e
00000020: 0f71 bcbd 14f7 afbd 12da fa3d 6495 eabc
00000030: 0842 943e d1f0 073d 19c7 90be 9ab0 693d
00000040: 2906 23bd ebf7 f1bd 749c 1a3e 35c6 163d
00000050: 0cd5 633d 453c 82be 5622 9abe 5db6 51be
00000060: 045f af3c 6798 24be cbbe 99be b486 8fbe
00000070: acc0 8fbe a894 36be ca25 4b3d 7250 95be
00000080: 7cd5 4f3e b6a9 9ebc 2927 12be ef2b e4bd
00000090: bf1e 4d3e 0f4f e8b9 94dd 11be fe7b c6bd
000000a0: 036f 27be 3f56 573d bbe8 a73c 5a52 a0be
000000b0: 7477 51bd f172 36be 4ca8 7fbe 2604 6bbd
000000c0: 8203 73be a6be 3bbe 401e 843e 49dc 3d3d
000000d0: f253 8c3e ec24 5abe 8013 ed3d 7e76 35be
000000e0: 6d3c 693e 4388 42bd b92c 003e 86dc 6a3e
000000f0: abe7 50be 48c3 23be a2f7 8a3c 1538 3ebe
00000100: 288b 10bd 2130 0b3e 4d15 803e 0e55 1c3e
00000110: 6b77 053e 8a07 29be 791f 793d 3268 97bd
00000120: 56df 9e3d 1d22 033d 1af5 a0be bcec 943d
00000130: 5284 243e 8a92 593d 897f b73d 8b73 8e3e

model.layers.3.bias f4 [8]
-0.1031713 0.19003192 0.061831642 0.022572663 -0.14448467 -0.035743814 -0.067442685 -0.18676658
00000000: 794b d3bd ba97 423e 2d43 7d3d 4eea b83c
00000010: caf3 13be 1b68 12bd 641f 8abd bd3f 3fbe

model.layers.6.weight f4 [4, 8]
0.009166297 0.08258576 0.04117034 0.31451786 0.04635463 0.12093891 0.047407042 -0.32373607
-0.05557007 -0.24514148 -0.041850213 0.2840815 -0.06855146 0.19319399 -0.31535402 0.063142255
-0.12695841 -0.10985718 -0.1709328 0.013532159 -0.22000824 0.29462996 0.06914102 -0.3124048
-0.09871733 -0.25991607 -0.060266275 -0.22429563 -0.25113672 0.11458969 -0.32595193 0.02316843
00000000: 3c2e 163c b922 a93d 3ba2 283d 7c08 a13e
00000010: 5ade 3d3d d2ae f73d e32d 423d bcc0 a5be
00000020: 719d 63bd 5e06 7bbe 216b 2bbd 2173 913e
00000030: b564 8cbd a5d4 453e 1576 a1be ba50 813d
00000040: 6301 02be cdfc e0bd 0209 2fbe fdb5 5d3c
00000050: d749 61be bdd9 963e cf99 8d3d 86f3 9fbe
00000060: 502c cabd b813 85be c5d9 76bd c1ad 65be
00000070: fe94 80be 00ae ea3d 2ce3 a6be b8cb bd3c

model.layers.6.bias f4 [4]
-0.13231012 0.081128255 0.05213872 0.1864393
00000000: 4e7c 07be 9226 a63d 698f 553d f2e9 3e3e

model.layers.7.weight f4 [1, 4]
0.14251108 0.266325 0.1679743 0.18262017
00000000: 6dee 113e c05b 883e 7401 2c3e c800 3b3e

exp_avg f4 [10, 2]
0.0 0.0 0.0 0.0 1.2529761 0.010879754 1.5006421 0.013494987
0.0 0.0 0.0 0.0 0.0 0.0 0.0 0.0
2.9356072 0.024964271 0.0 0.0
00000000: 0000 0000 0000 0000 0000 0000 0000 0000
00000010: 8561 a03f ff40 323c 0a15 c03f 141a 5d3c
00000020: 0000 0000 0000 0000 0000 0000 0000 0000
00000030: 0000 0000 0000 0000 0000 0000 0000 0000
00000040: fde0 3b40 df81 cc3c 0000 0000 0000 0000

exp_avg_sq f4 [10, 2]
0.0 0.0 0.0 0.0 0.04738064 3.5394012e-06 0.06458851 6.067843e-06
0.0 0.0 0.0 0.0 0.0 0.0 0.0 0.0
0.2250392 1.6202825e-05 0.0 0.0
00000000: 0000 0000 0000 0000 0000 0000 0000 0000
00000010: 3412 423d 7386 6d36 fb46 843d 609a cb36
00000020: 0000 0000 0000 0000 0000 0000 0000 0000
00000030: 0000 0000 0000 0000 0000 0000 0000 0000
00000040: ad70 663e 4deb 8737 0000 0000 0000 0000

exp_avg f4 [10]
0.0 0.0 0.024250226 0.02910881 0.0 0.0 0.0 0.0
0.057028115 0.0
00000000: 0000 0000 0000 0000 69a8 c63c 9975 ee3c
00000010: 0000 0000 0000 0000 0000 0000 0000 0000
00000020: 5096 693d 0000 0000

exp_avg_sq f4 [10]
0.0 0.0 1.7777675e-05 2.4276093e-05 0.0 0.0 0.0 0.0
8.4835156e-05 0.0
00000000: 0000 0000 0000 0000 4421 9537 83a4 cb37
00000010: 0000 0000 0000 0000 0000 0000 0000 0000
00000020: 87e9 b138 0000 0000

exp_avg f4 [8, 10]
0.0 0.0 0.061627217 0.1544591 0.0 0.0 0.0 0.0
0.18816146 0.0 0.0 0.0 1.1164492 2.2278435 0.0 0.0
0.0 0.0 5.281846 0.0 0.0 0.0 0.0 0.0
0.0 0.0 0.0 0.0 0.0 0.0 0.0 0.0
-0.046548996 -0.08664725 0.0 0.0 0.0 0.0 0.0 0.0
0.0 0.0 0.00082162634 0.0 0.0 0.0 0.0 0.0
0.0 0.0 0.0 0.0 -1.0741634 -2.147496 0.0 0.0
0.0 0.0 -5.461012 0.0 0.0 0.0 1.0450946 2.081807
0.0 0.0 0.0 0.0 5.3074913 0.0 0.0 0.0
0.7183684 1.4406061 0.0 0.0 0.0 0.0 3.4132638 0.0
00000000: 0000 0000 0000 0000 d26c 7c3d 872a 1e3e
00000010: 0000 0000 0000 0000 0000 0000 0000 0000
00000020: 66ad 403e 0000 0000 0000 0000 0000 0000
00000030: cfe7 8e3f fd94 0e40 0000 0000 0000 0000
00000040: 0000 0000 0000 0000 e204 a940 0000 0000
00000050: 0000 0000 0000 0000 0000 0000 0000 0000
00000060: 0000 0000 0000 0000 0000 0000 0000 0000
00000070: 0000 0000 0000 0000 0000 0000 0000 0000
00000080: 29aa 3ebd 1d74 b1bd 0000 0000 0000 0000
00000090: 0000 0000 0000 0000 0000 0000 0000 0000
000000a0: 0000 0000 0000 0000 6962 573a 0000 0000
000000b0: 0000 0000 0000 0000 0000 0000 0000 0000
000000c0: 0000 0000 0000 0000 0000 0000 0000 0000
000000d0: 307e 89bf 9370 09c0 0000 0000 0000 0000
000000e0: 0000 0000 0000 0000 9cc0 aec0 0000 0000
000000f0: 0000 0000 0000 0000 a9c5 853f 533c 0540
00000100: 0000 0000 0000 0000 0000 0000 0000 0000
00000110: f8d6 a940 0000 0000 0000 0000 0000 0000
00000120: fee6 373f c865 b83f 0000 0000 0000 0000
00000130: 0000 0000 0000 0000 ea72 5a40 0000 0000

exp_avg_sq f4 [8, 10]
0.0 0.0 0.0003668266 0.0021963795 0.0 0.0 0.0 0.0
0.0075795637 0.0 0.0 0.0 0.0321654 0.12587968 0.0 0.0
0.0 0.0 0.70439273 0.0 0.0 0.0 0.0 0.0
0.0 0.0 0.0 0.0 0.0 0.0 0.0 0.0
5.4105156e-05 0.00018439621 0.0 0.0 0.0 0.0 0.0 0.0
0.0 0.0 8.9747275e-08 0.0 0.0 0.0 0.0 0.0
0.0 0.0 0.0 0.0 0.028955968 0.11419465 0.0 0.0
0.0 0.0 0.73340863 0.0 0.0 0.0 0.02825964 0.11011276
0.0 0.0 0.0 0.0 0.71154046 0.0 0.0 0.0
0.0135229025 0.05340778 0.0 0.0 0.0 0.0 0.29841006 0.0
00000000: 0000 0000 0000 0000 a252 c039 22f1 0f3b
00000010: 0000 0000 0000 0000 0000 0000 0000 0000
00000020: fd5d f83b 0000 0000 0000 0000 0000 0000
00000030: debf 033d 9ae6 003e 0000 0000 0000 0000
00000040: 0000 0000 0000 0000 1553 343f 0000 0000
00000050: 0000 0000 0000 0000 0000 0000 0000 0000
00000060: 0000 0000 0000 0000 0000 0000 0000 0000
00000070: 0000 0000 0000 0000 0000 0000 0000 0000
00000080: f8ee 6238 7b5a 4139 0000 0000 0000 0000
00000090: 0000 0000 0000 0000 0000 0000 0000 0000
000000a0: 0000 0000 0000 0000 16bb c033 0000 0000
000000b0: 0000 0000 0000 0000 0000 0000 0000 0000
000000c0: 0000 0000 0000 0000 0000 0000 0000 0000
000000d0: 1135 ed3c e2de e93d 0000 0000 0000 0000
000000e0: 0000 0000 0000 0000 abc0 3b3f 0000 0000
000000f0: 0000 0000 0000 0000 c380 e73c cc82 e13d
00000100: 0000 0000 0000 0000 0000 0000 0000 0000
00000110: 8427 363f 0000 0000 0000 0000 0000 0000
00000120: 2a8f 5d3c 1ec2 5a3d 0000 0000 0000 0000
00000130: 0000 0000 0000 0000 34c9 983e 0000 0000

exp_avg f4 [8]
0.015015313 0.24427037 4.027093e-05 -0.009231331 0.00013898035 -0.23681709 0.23019896 0.15773448
00000000: ca02 763c 0322 7a3e 95e8 2838 023f 17bc
00000010: 41bb 1139 2e80 72be 47b9 6b3e 2685 213e

exp_avg_sq f4 [8]
1.9817691e-05 0.0014965838 1.0112202e-10 2.0774376e-06 2.645938e-09 0.0013715567 0.0013300818 0.0006323037
00000000: 2b3e a637 0529 c43a a35e de2e 1b6a 0b36
00000010: d5d3 3531 cec5 b33a 2456 ae3a 2fc1 253a

exp_avg f4 [4, 8]
-0.034962963 -1.5017823 -7.929011e-06 -0.0134549765 -3.1144366e-06 -0.49696723 -0.39077654 -0.71192163
-0.064437784 -2.7679188 -1.4594801e-05 -0.024814343 -5.6732315e-06 -0.9165185 -0.7200075 -1.3119098
-0.041047174 -1.7631589 -9.305799e-06 -0.015799617 -3.6432932e-06 -0.58357036 -0.45874447 -0.835784
-0.044545233 -1.9134337 -1.0097315e-05 -0.017147657 -3.947327e-06 -0.6333619 -0.49782148 -0.90699667
00000000: 5335 0fbd 673a c0bf d806 05b7 4372 5cbc
00000010: 9d01 51b6 7d72 febe dd13 c8be 7f40 36bf
00000020: f5f7 83bd 9525 31c0 31dc 74b7 7347 cbbc
00000030: b05c beb6 f5a0 6abf 6952 38bf a9ec a7bf
00000040: 1521 28bd 31af e1bf 1a20 1cb7 336e 81bc
00000050: 4d7f 74b6 de64 15bf 8ee0 eabe f1f5 55bf
00000060: 1075 36bd 65eb f4bf a367 29b7 3e79 8cbc
00000070: 4873 84b6 0124 22bf 75e2 febe ef30 68bf

exp_avg_sq f4 [4, 8]
3.281859e-05 0.057649206 3.9221577e-12 4.4621775e-06 2.0755782e-12 0.005962646 0.0040415423 0.013190507
0.000110522764 0.19450955 1.3269723e-11 1.5079616e-05 6.8548635e-12 0.020167582 0.013618086 0.044474345
4.5114604e-05 0.07929738 5.4001903e-12 6.1406067e-06 2.8360725e-12 0.008207865 0.0055569257 0.01813991
5.3067917e-05 0.09330267 6.3566713e-12 7.226666e-06 3.3269065e-12 0.0096608065 0.0065371585 0.021341681
00000000: b1a6 0938 9321 6c3d a8ff 892c d0b9 9536
00000010: 4b0e 122c 4d62 c33b ea6e 843b ff1c 583c
00000020: 75c8 e738 832d 473e 8571 692d 75fe 7c37
00000030: 1f2f f12c 7c36 a53c 651e 5f3c bb2a 363d
00000040: 7039 3d38 aa66 a23d 9700 be2c 690b ce36
00000050: 2492 472c 487a 063c df16 b63b 269a 943c
00000060: 3e95 5e38 7815 bf3d cea7 df2c 977c f236
00000070: 381c 6a2c 5c48 1e3c a935 d63b c0d4 ae3c

exp_avg f4 [4]
-0.2723072 -0.5020351 -0.3197293 -0.34699398
00000000: d96b 8bbe 5f85 00bf 8fb3 a3be 32a9 b1be

exp_avg_sq f4 [4]
0.0018426297 0.0062239394 0.0025354167 0.0029836704
00000000: 6584 f13a 30f2 cb3b 3c29 263b af89 433b

exp_avg f4 [1, 4]
0.51399153 2.3299356 1.4969882 2.8298974
00000000: f394 033f aa1d 1540 4f9d bf3f 0a1d 3540

exp_avg_sq f4 [1, 4]
0.00824349 0.14420915 0.062271006 0.20997013
00000000: b40f 073c 90ab 133e e20f 7f3d 6902 573e
