deeper_null/lightning_logs/version_46/checkpoints/epoch=9-step=10.ckpt (torch, 14192 bytes, 21 tensors)

model.layers.0.weight f4 [10, 2]
000000 bc 63 a2 be db c9 8f bd 43 3a 30 3f 6e fd 20 3f
       -0.31716716 -0.07020923 0.688389 0.62886703
000010 0b 65 d8 3e f4 e6 f4 be 74 04 4c be fc 3c 01 3f
       0.4226459 -0.47832453 -0.19923574 0.5048368
000020 4c 11 a9 bd 33 30 0e 3f 61 38 9e be 57 6c 7d bc
       -0.08255252 0.55542296 -0.3090239 -0.015467725
000030 b3 5a 0a 3e f5 d5 9e 3e b4 0f 0c bf c3 33 26 3f
       0.13511162 0.3102261 -0.5471146 0.6492273
000040 b9 ef 0e 3e 7b 0a ca be f3 ae b4 bd 7d 2c 51 be
       0.13958634 -0.3946112 -0.088224314 -0.20427127

model.layers.0.bias f4 [10]
000000 b3 b9 79 3e d4 45 09 3e 6d 44 20 bf 8d 5a d3 be
       0.24387245 0.13405544 -0.6260441 -0.41280022
000010 9c 1c b6 3e 2c 36 e1 be 1a 24 3e 3e af 08 b1 3e
       0.35568702 -0.43986642 0.18568459 0.34576938
000020 a1 18 22 bf ec 7c c0 3e
       -0.6331883 0.37595308

model.layers.3.weight f4 [8, 10]
000000 34 54 f9 bd af 66 81 3e bb 14 44 3d 6f 77 87 3b
       -0.121742636 0.25273654 0.047871333 0.0041341106
000010 8c db bf 3c 90 03 3f bc d5 67 32 3e 5d 55 1e be
       0.023420118 -0.011658564 0.17422421 -0.15462251
000020 4e 41 41 3e c3 3a 35 3e 83 7b d2 bd c2 c8 7d bd
       0.18872568 0.17698197 -0.10277464 -0.061959036
000030 bf 49 a0 be eb ed 0d be a9 34 39 bb f3 97 86 be
       -0.31306264 -0.1386029 -0.0028260148 -0.26287803
000040 d9 b9 08 3e 6a 70 ba 3c 0a 8b 14 3e 40 09 eb bd
       0.13352145 0.022758681 0.14506164 -0.11476374
000050 60 4b 30 3e 4e ce 7a 3c 09 ce f0 bd f7 24 85 3d
       0.17216253 0.015307976 -0.11758048 0.06501191
000060 a4 3b 7d bc 2a 7a 4e 3e f7 b2 c7 bd 34 96 83 3d
       -0.015456114 0.2016379 -0.09750932 0.06425133
000070 58 a1 c6 3d 00 12 9b 3e 0d 36 80 be 9c ac 43 3e
       0.09698743 0.3028717 -0.25041237 0.19108814
000080 4d e6 e2 bd eb 6c a7 bd a9 c3 88 3e a7 84 80 3d
       -0.11079083 -0.08175071 0.26711777 0.062753014
000090 09 36 84 ba 79 ac 84 be 77 88 8f be a2 fb 40 3c
       -0.0010086905 -0.25912836 -0.28033802 0.011778744
0000a0 74 a2 c0 bc 91 5e 20 be 79 0c 25 3e 79 17 e0 bd
       -0.023514964 -0.15661074 0.16118039 -0.10941977
0000b0 73 8d 3a be e5 39 cf 3d b7 10 0f 3e c4 79 c4 bd
       -0.18218021 0.101184644 0.1397122 -0.095935374
0000c0 10 07 02 be 8d c6 84 be eb 93 28 be 66 91 f5 3d
       -0.12698007 -0.25932732 -0.16462676 0.11990623
0000d0 69 41 5f be b9 15 93 3e 96 2f 3d 3e 18 f7 9e be
       -0.21802296 0.2872751 0.18475184 -0.31047893
0000e0 80 38 22 be 1e 07 91 be b8 28 04 bd 1e 20 a1 bd
       -0.15841866 -0.28325742 -0.032265395 -0.07867454
0000f0 22 a7 5c bd 47 c1 d2 bb f6 fc fb 3d ff d6 ab 3d
       -0.053870328 -0.006431732 0.12304108 0.083906166
000100 00 14 b4 bd 26 20 86 3e a0 1c 10 3e f2 88 0a 3d
       -0.08792877 0.26196402 0.1407342 0.033822007
000110 25 6b 4f bd 62 27 30 be a3 37 f8 bd e1 55 9b 3e
       -0.05063929 -0.17202523 -0.12119987 0.30338958
000120 9c c3 e0 3d 57 46 8f be a4 40 81 3e 4e 56 0d 3e
       0.109748095 -0.27983353 0.2524463 0.13802454
000130 0a fb 91 be ed 63 ee 3d c4 d0 8a 3e ec 65 0a be
       -0.2851184 0.11640153 0.271124 -0.13515443

model.layers.3.bias f4 [8]
000000 8b 32 35 bd 12 24 90 3d d0 0c 90 bd fe 16 44 3e
       -0.044237655 0.0703813 -0.07033694 0.19149396
000010 0f bc 78 be 7a 4b 45 3e 84 62 7a 3e 26 02 44 3e
       -0.24290489 0.19267073 0.24451643 0.19141445

model.layers.6.weight f4 [4, 8]
000000 e9 13 55 3e 6f 33 0d be 21 cf a8 be 3e 9d 98 3e
       0.20808376 -0.13789152 -0.32970527 0.29807466
000010 10 c1 dd bd dc 5d 11 be 6e 4c 46 3e a4 23 8e be
       -0.108278394 -0.14195961 0.19365093 -0.27761567
000020 b2 f6 94 be 29 77 9e be 43 3d 98 be c5 91 62 be
       -0.29094464 -0.30950287 -0.2973424 -0.22125919
000030 d3 d1 be 3d 9e 25 8b be 01 46 3b 3e 57 06 9d 3d
       0.093173645 -0.27177137 0.18288423 0.07667225
000040 98 ac 9b 3e 0c 32 79 be 48 f0 f2 3d c4 4e ba bd
       0.30405116 -0.24335498 0.11862236 -0.090970546
000050 6e 36 a4 be ec 1e c8 bc 96 8e 9a be 83 ea 3c 3d
       -0.32072777 -0.024428807 -0.3018691 0.046122085
000060 65 18 b9 bd 99 3d 2c be 19 0d 14 be 1a 1e 1c 3e
       -0.09037856 -0.16820373 -0.14458121 0.15245858
000070 ec 6b 74 3d 87 e5 5f be 8e a6 d9 3d 80 dd 86 3e
       0.059673235 -0.21864901 0.10627471 0.26340866

model.layers.6.bias f4 [4]
000000 f7 33 82 3e f0 bd 9c bd e3 4f 3f be 74 a6 7c be
       0.2543027 -0.07653415 -0.18682818 -0.24672872

model.layers.7.weight f4 [1, 4]
000000 55 0f ab bd 81 af 14 3e 7c f7 b8 bd 87 d6 88 be
       -0.08352534 0.14520074 -0.09031579 -0.2672617

exp_avg f4 [10, 2]
000000 00 00 00 00 00 00 00 00 21 ef 11 41 a3 d1 ac 3d
       0.0 0.0 9.120881 0.084384225
000010 46 4e b5 be 2c 0e 56 bb 00 00 00 00 00 00 00 00
       -0.3541128 -0.0032662256 0.0 0.0
000020 00 00 00 00 00 00 00 00 00 00 00 00 00 00 00 00
       0.0 0.0 0.0 0.0
000030 db 94 57 3d 6c cd 24 3a 00 00 00 00 00 00 00 00
       0.052632194 0.0006286714 0.0 0.0
000040 86 c7 26 3e 3f 26 9d 3a 00 00 00 00 00 00 00 00
       0.1628705 0.0011989548 0.0 0.0

exp_avg_sq f4 [10, 2]
000000 00 00 00 00 00 00 00 00 7c 2e 07 40 20 34 3e 39
       0.0 0.0 2.1122122 0.0001813923
000010 99 67 32 3b 25 d0 79 34 00 00 00 00 00 00 00 00
       0.0027222394 2.3265655e-07 0.0 0.0
000020 00 00 00 00 00 00 00 00 00 00 00 00 00 00 00 00
       0.0 0.0 0.0 0.0
000030 cd 63 8f 3a 18 73 d6 33 00 00 00 00 00 00 00 00
       0.0010939777 9.986087e-08 0.0 0.0
000040 ef 42 b6 3a 6f a2 ea 33 00 00 00 00 00 00 00 00
       0.0013905446 1.09260206e-07 0.0 0.0

exp_avg f4 [10]
000000 00 00 00 00 0f eb 34 3e 02 5e e0 bb 00 00 00 00
       0.0 0.17667793 -0.006847144 0.0
000010 00 00 00 00 00 00 00 00 e6 12 85 3a 00 00 00 00
       0.0 0.0 0.0010152727 0.0
000020 05 5d 51 3b 00 00 00 00
       0.0031946313 0.0

exp_avg_sq f4 [10]
000000 00 00 00 00 1d d9 4f 3a a9 98 88 35 00 00 00 00
       0.0 0.0007928776 1.017722e-06 0.0
000010 00 00 00 00 00 00 00 00 6d 87 db 34 00 00 00 00
       0.0 0.0 4.0890464e-07 0.0
000020 3c 1a 0e 35 00 00 00 00
       5.29373e-07 0.0

exp_avg f4 [8, 10]
000000 00 00 00 00 0d e7 10 41 70 6c 9b 40 00 00 00 00
       0.0 9.056409 4.856987 0.0
000010 00 00 00 00 00 00 00 00 24 3a df 3f 00 00 00 00
       0.0 0.0 1.7439618 0.0
000020 cb cc c5 3f 00 00 00 00 00 00 00 00 00 00 00 00
       1.5453123 0.0 0.0 0.0
000030 00 00 00 00 00 00 00 00 00 00 00 00 00 00 00 00
       0.0 0.0 0.0 0.0
000040 69 b2 18 bb 00 00 00 00 0b d4 0c bb 00 00 00 00
       -0.00232997 0.0 -0.0021488692 0.0
000050 00 00 00 00 f4 8c c8 bd 00 00 00 00 00 00 00 00
       0.0 -0.0979251 0.0 0.0
000060 00 00 00 00 00 00 00 00 02 39 8e bc 00 00 00 00
       0.0 0.0 -0.017361168 0.0
000070 55 1f 90 bc 00 00 00 00 00 00 00 00 40 96 43 41
       -0.017593065 0.0 0.0 12.224182
000080 16 6c c9 40 00 00 00 00 00 00 00 00 00 00 00 00
       6.294444 0.0 0.0 0.0
000090 9c e4 10 40 00 00 00 00 ad cc ff 3f 00 00 00 00
       2.2639532 0.0 1.9984337 0.0
0000a0 00 00 00 00 00 00 00 00 e9 9b be bd 00 00 00 00
       0.0 0.0 -0.09307081 0.0
0000b0 00 00 00 00 00 00 00 00 e0 65 f2 bc 00 00 00 00
       0.0 0.0 -0.029589593 0.0
0000c0 c1 70 e3 bc 00 00 00 00 00 00 00 00 44 8d c3 be
       -0.027763726 0.0 0.0 -0.38193715
0000d0 ad 7f eb ba 00 00 00 00 00 00 00 00 00 00 00 00
       -0.0017967127 0.0 0.0 0.0
0000e0 59 51 8e bd 00 00 00 00 ad 4f 7e bd 00 00 00 00
       -0.069491096 0.0 -0.062087703 0.0
0000f0 00 00 00 00 cb ca 64 bf 3b 87 f8 be 00 00 00 00
       0.0 -0.8937194 -0.48540673 0.0
000100 00 00 00 00 00 00 00 00 b5 a6 31 be 00 00 00 00
       0.0 0.0 -0.1734875 0.0
000110 56 8a 1b be 00 00 00 00 00 00 00 00 6d 6d b1 40
       -0.1518949 0.0 0.0 5.5446076
000120 d8 4b 3e 40 00 00 00 00 00 00 00 00 00 00 00 00
       2.9733791 0.0 0.0 0.0
000130 80 23 88 3f 00 00 00 00 17 6a 71 3f 00 00 00 00
       1.0635834 0.0 0.94302505 0.0

exp_avg_sq f4 [8, 10]
000000 00 00 00 00 94 7e 05 40 5a 37 18 3f 00 00 00 00
       0.0 2.0858507 0.5945946 0.0
000010 00 00 00 00 00 00 00 00 3c 3f a0 3d 00 00 00 00
       0.0 0.0 0.07824561 0.0
000020 c9 c8 7c 3d 00 00 00 00 00 00 00 00 00 00 00 00
       0.06171492 0.0 0.0 0.0
000030 00 00 00 00 00 00 00 00 00 00 00 00 00 00 00 00
       0.0 0.0 0.0 0.0
000040 36 94 2a 34 00 00 00 00 3e 30 0e 34 00 00 00 00
       1.5886403e-07 0.0 1.3242331e-07 0.0
000050 00 00 00 00 12 c3 63 39 00 00 00 00 00 00 00 00
       0.0 0.00021721076 0.0 0.0
000060 00 00 00 00 00 00 00 00 3e 4d eb 36 00 00 00 00
       0.0 0.0 7.012538e-06 0.0
000070 31 5a eb 36 00 00 00 00 00 00 00 00 c0 95 70 40
       7.0140454e-06 0.0 0.0 3.75914
000080 8c 2f 7d 3f 00 00 00 00 00 00 00 00 00 00 00 00
       0.98900676 0.0 0.0 0.0
000090 26 cd 05 3e 00 00 00 00 89 14 d1 3d 00 00 00 00
       0.13066539 0.0 0.10208995 0.0
0000a0 00 00 00 00 00 00 00 00 48 7f 5b 39 00 00 00 00
       0.0 0.0 0.00020932883 0.0
0000b0 00 00 00 00 00 00 00 00 7f 31 b1 37 00 00 00 00
       0.0 0.0 2.1123093e-05 0.0
0000c0 71 30 9e 37 00 00 00 00 00 00 00 00 b0 08 62 3b
       1.8857625e-05 0.0 0.0 0.0034490041
0000d0 34 89 05 34 00 00 00 00 00 00 00 00 00 00 00 00
       1.2436504e-07 0.0 0.0 0.0
0000e0 f9 89 f1 38 00 00 00 00 1c b1 c0 38 00 00 00 00
       0.00011517475 0.0 9.1882626e-05 0.0
0000f0 00 00 00 00 d9 37 91 3c ee e7 aa 3b 00 00 00 00
       0.0 0.017726826 0.0052156365 0.0
000100 00 00 00 00 00 00 00 00 e5 fb 2f 3a 00 00 00 00
       0.0 0.0 0.00067132554 0.0
000110 c5 f7 06 3a 00 00 00 00 00 00 00 00 09 c3 44 3f
       0.0005148615 0.0 0.0 0.768601
000120 48 51 60 3e 00 00 00 00 00 00 00 00 00 00 00 00
       0.21906006 0.0 0.0 0.0
000130 55 65 ea 3c 00 00 00 00 a1 31 b9 3c 00 00 00 00
       0.028612772 0.0 0.022606673 0.0

exp_avg f4 [8]
000000 86 f7 6f 3e 2e da ac b9 f7 4e 1f bb 84 81 9b 3e
       0.23434266 -0.00032968953 -0.0024308541 0.3037225
000010 ba 6d 86 bb 43 95 1b bc 08 ac bd bc 92 91 12 3e
       -0.004102436 -0.009496036 -0.02315332 0.14313343

exp_avg_sq f4 [8]
000000 66 62 b6 3a a3 b3 50 31 25 c4 0f 34 6e a1 17 3b
       0.0013914823 3.0370095e-09 1.338927e-07 0.002313699
000010 d9 32 da 34 2f a8 0e 36 d5 66 47 37 72 ef 05 3a
       4.064266e-07 2.1257545e-06 1.1885267e-05 0.00051092275

exp_avg f4 [4, 8]
000000 49 1c 82 40 f7 04 e3 3a 01 d3 e8 3b 14 ab 93 3f
       4.065953 0.0017320205 0.0071052318 1.1536584
000010 90 a8 0f 3d cf 75 ba 3d d7 cb 54 3f 3f e4 85 40
       0.035072863 0.091045015 0.83123535 4.184112
000020 9e 40 dd c0 b5 d0 40 bb e1 21 47 bc aa fe fa bf
       -6.914138 -0.0029421274 -0.012154073 -1.9608967
000030 32 75 74 bd ca ac 1e be eb 23 b5 bf 83 b6 e3 c0
       -0.05968208 -0.15495601 -1.4151586 -7.1160293
000040 f3 42 8c 40 07 b1 f4 3a 5e 3a fb 3b 6a 2d 9f 3f
       4.3831725 0.0018668481 0.00766687 1.2435734
000050 98 e2 1a 3d 4d 09 c9 3d fc 70 65 3f 37 57 90 40
       0.037813753 0.09816227 0.89625525 4.5106463
000060 f1 b5 48 41 48 ca ae 3b 32 56 b5 3c cd 9f 63 40
       12.544419 0.0053341724 0.022135828 3.5566285
000070 d4 db dd 3d 1d 06 90 3e 6c 72 24 40 f6 96 4e 41
       0.108329445 0.28129664 2.5694838 12.911856

exp_avg_sq f4 [4, 8]
000000 88 64 d6 3e ac 23 c1 33 b7 dc 98 35 92 6d 0e 3d
       0.41873574 8.9937515e-08 1.1389119e-06 0.034772463
000010 11 73 fa 37 1c 5d 52 39 09 f3 85 3c 7a 42 e1 3e
       2.9855904e-05 0.00020061847 0.01635124 0.4399603
000020 e5 65 99 3f c6 a7 89 34 32 e6 5f 36 8e 6f cb 3d
       1.1984221 2.564031e-07 3.336358e-06 0.09933387
000030 c5 e8 b3 38 27 0c 17 3a 5b a0 40 3d d1 3e a1 3f
       8.578742e-05 0.0005762004 0.047027927 1.2597295
000040 e0 ba f8 3e 02 ef df 33 21 04 b2 35 6b 30 25 3d
       0.48580074 1.0427722e-07 1.3263235e-06 0.040329378
000050 45 61 11 38 b1 32 74 39 02 87 9b 3c 8d ad 02 3f
       3.4661283e-05 0.00023288537 0.018985275 0.5104607
000060 ff d2 7a 40 89 82 60 35 4c d3 39 37 4f 1e a6 3e
       3.9191282 8.3636456e-07 1.1076056e-05 0.32445
000070 5e 76 93 39 d6 8c f7 3a 68 fd 1d 3e e9 dd 83 40
       0.00028126215 0.0018886577 0.15428698 4.1208386

exp_avg f4 [4]
000000 ff 3d 93 3e 7c 74 fa be aa bc 9e 3e 55 3e 63 3f
       0.28758237 -0.48916996 0.31003314 0.88766986

exp_avg_sq f4 [4]
000000 d6 db 06 3b 6f 33 c1 3b 8f 7c 1c 3b fb 11 9e 3c
       0.002057781 0.005896024 0.0023877954 0.019295683

exp_avg f4 [1, 4]
000000 ee dd 54 c0 ea 9b 40 41 67 b7 3f c1 49 2c 2e c1
       -3.3260455 12.038065 -11.982276 -10.885812

exp_avg_sq f4 [1, 4]
000000 56 25 9d 3e 66 80 6e 40 15 85 6b 40 00 7c 3e 40
       0.30692548 3.7265868 3.6799977 2.9763184
