deeper_null/lightning_logs/version_27/checkpoints/epoch=9-step=10.ckpt (torch, 13936 bytes, 21 tensors)

model.layers.0.weight f4 [10, 2]
00000000: cfb6 31bf fbaf cebe 04a2 b83e 26c6 eabe
00000010: c9cf 153f 7da4 10bf 5f56 093f b433 bfbe
00000020: f8c5 b03e bba3 a2be f442 d7bc 1075 2a3f
00000030: 4c47 ddbe e228 933e a409 d1be 3680 acbe
00000040: 03b2 bf3c 0b3a 123f d121 1ebf f8db 8c3d
-0.6941957 -0.40368637 0.36061108 -0.458543 0.5852018 -0.5650099 0.53647417 -0.37344134
0.34526038 -0.3176554 -0.026277043 0.66584873 -0.43218458 0.2874213 -0.40827668 -0.33691567
0.023400312 0.57119817 -0.6177035 0.06877893

model.layers.0.bias f4 [10]
00000000: 512a fcbe 404f 493e a3a6 cbbd b27a 973e
00000010: c473 4e3e bdf9 fdbe 2437 d9be a5fe 09bf
00000020: 07cf e5be 5c96 c8be
-0.49251035 0.19659138 -0.09943893 0.29585797 0.20161349 -0.49604598 -0.4242488 -0.5390418
-0.44884512 -0.39177215

model.layers.3.weight f4 [8, 10]
00000000: 93ca e03d 6eb6 673e e2f1 95be cb7f 903e
00000010: 4722 ea3c edde ef3d d56c f03d 8a2e 6d3e
00000020: 8010 a93d 87f4 453d 05b9 15bd cf30 4d3e
00000030: 5e70 f9bc 7c5f 9e3d 797f 853e afe0 0bbe
00000040: 9e66 2bbe 8108 42be 8d89 0a3d df70 1abe
00000050: 65c1 0e3e af23 d03c 3a23 db3d 03ec 9dbe
00000060: fd92 c6bb a143 d7bd 39b9 863c 9e17 923e
00000070: c67b 52be 692e 7fbe 8ee4 a13e 86ee 2bbe
00000080: 11a4 9d3e ac09 993d 8cf6 90be f4ac 8abd
00000090: 4d47 91be 0bc0 4abd 1141 62bd b37a 45be
000000a0: fad4 343e 6654 32be f980 7a3d 9480 c6bd
000000b0: eb2a 2cbe 5b63 4e3e 4de6 2f3e aef0 81be
000000c0: e80f 59be 3606 15be bf0b 5c3e 4aad 993e
000000d0: 3524 9c3e 150f 74be c286 98be 6c8d 46be
000000e0: 3352 113e b6a1 113e bd91 27be 27e0 8d3e
000000f0: 8e30 8e3e 5c54 ccbc 9fb1 893d bc4c 8f3d
00000100: 4f59 923e 06be 763e 3283 31bd a5a6 5d3e
00000110: e9d2 3cbe 3e49 f43d 73a7 02be d3f9 e8bd
00000120: 7162 2a3d 1268 8d3d 86f2 82be d38f 34be
00000130: 7bf7 933e 7365 273e 491f 8b3e ebc7 28be
0.10976138 0.22628185 -0.29286104 0.28222498 0.028580798 0.117124416 0.11739508 0.23162284
0.082551 0.048328903 -0.0365534 0.2003815 -0.030449089 0.07733056 0.26073816 -0.13659929
-0.16738364 -0.18948556 0.033822585 -0.1508212 0.13940962 0.02540764 0.10700078 -0.30844125
-0.006060003 -0.10510946 0.016445743 0.28533643 -0.20555028 -0.24920048 0.31619686 -0.16790208
0.30789235 0.07472548 -0.283131 -0.067712694 -0.2837471 -0.049499553 -0.055237833 -0.19285087
0.17659369 -0.17415008 0.061158154 -0.09692493 -0.16813247 0.20155089 0.17177697 -0.25378937
-0.21197474 -0.1455315 0.21488856 0.30015022 0.30496374 -0.23833878 -0.29790312 -0.19389886
0.14191513 0.14221844 -0.16364188 0.27710077 0.2777142 -0.02494257 0.06723332 0.06997058
0.28583762 0.24095926 -0.04333801 0.21645601 -0.18439831 0.11928032 -0.1275919 -0.11375775
0.041597787 0.069046155 -0.25575656 -0.1763299 0.2889975 0.16347294 0.27172306 -0.16482513

model.layers.3.bias f4 [8]
00000000: 89f2 0a3e 92f2 5b3e f14d 1fbe 5d33 a53e
00000010: f737 a63d 8fbe 14be 86f2 05be d916 923d
0.13569082 0.21479252 -0.15557076 0.3226575 0.08116143 -0.14525817 -0.13080797 0.07133264

model.layers.6.weight f4 [4, 8]
00000000: 13f0 87bd e354 b2be 11b1 2d3e ce02 78bd
00000010: 2123 4fbe 7a65 8a3e 88d6 69be 154d 4fbe
00000020: ed81 113c 7225 02be 0a36 7fbe d989 ac3d
00000030: 4a92 d53d 4274 abbd 641d 22be c78f 593e
00000040: 2381 023e b64a 67bd ea32 23be f06a e73d
00000050: f68f 1bbd 65eb 8dbe aaa3 0b3e 08e6 753e
00000060: 40ab 803a 194e 7dbe aee8 4e3d a0f6 8fbd
00000070: 6c51 bcbd 2204 9fbd 38ac 2c3e c124 26be
-0.066375874 -0.34830388 0.16962077 -0.06054955 -0.20228244 0.27030545 -0.22835743 -0.20244248
0.008881074 -0.12709597 -0.24922958 0.0842473 0.10428293 -0.08371784 -0.15831524 0.21246253
0.12744574 -0.056467734 -0.15937391 0.112996936 -0.03797909 -0.27718654 0.13636652 0.24013531
0.0009816661 -0.24736823 0.05051487 -0.07029462 -0.091952175 -0.0776446 0.16862571 -0.16224958

model.layers.6.bias f4 [4]
00000000: 6261 483d 581b 833d 6e69 4cbe 4267 e7bd
0.048920996 0.064017 -0.19962093 -0.11298992

model.layers.7.weight f4 [1, 4]
00000000: 5b17 cebe 34c7 dc3e 0cc9 cd3e fd1a c73e
-0.40252194 0.4312073 0.4019245 0.38887778

exp_avg f4 [10, 2]
00000000: 0000 0000 0000 0000 57b9 fb40 9505 823d
00000010: 6880 c740 f56b 4e3d 8ef8 7bc0 f908 cdbc
00000020: 269e 91c0 03cf 07bd 0000 0000 0000 0000
00000030: 0000 0000 0000 0000 0000 0000 0000 0000
00000040: aa6a 5dc0 c8f9 f8bc 0000 0000 0000 0000
0.0 0.0 7.8663745 0.06348721 6.2344246 0.050395925 -3.9370456 -0.025028693
-4.550555 -0.033156406 0.0 0.0 0.0 0.0 0.0 0.0
-3.4596353 -0.030392542 0.0 0.0

exp_avg_sq f4 [10, 2]
00000000: 0000 0000 0000 0000 69ba 0140 df9e 1a39
00000010: 4b99 a43f 4244 c438 2a1e 1e3f 6aa6 1b38
00000020: b2e4 403f b24a 5638 0000 0000 0000 0000
00000030: 0000 0000 0000 0000 0000 0000 0000 0000
00000040: 16db a63e d4b7 de37 0000 0000 0000 0000
0.0 0.0 2.0270026 0.00014745769 1.2859281 9.358722e-05 0.61764777 3.7109865e-05
0.7534896 5.109114e-05 0.0 0.0 0.0 0.0 0.0 0.0
0.32589024 2.6550064e-05 0.0 0.0

exp_avg f4 [10]
00000000: 0000 0000 bcac 1c3e 6b5a f83d 5911 9dbd
00000010: b68c b5bd 0000 0000 0000 0000 0000 0000
00000020: deae 89bd 0000 0000
0.0 0.15300268 0.12126621 -0.076693244 -0.08864729 0.0 0.0 0.0
-0.067228064 0.0

exp_avg_sq f4 [10]
00000000: 0000 0000 c4ed 483a 19a0 fe39 3ec6 7439
00000010: 698b 9539 0000 0000 0000 0000 0000 0000
00000020: a128 0139 0000 0000
0.0 0.00076648244 0.00048565937 0.00023343504 0.00028523363 0.0 0.0 0.0
0.00012317534 0.0

exp_avg f4 [8, 10]
00000000: 0000 0000 03fe 54bf f2f3 c0bf 9327 96bf
00000010: b91b e8be 0000 0000 0000 0000 0000 0000
00000020: a21f b0bc 0000 0000 0000 0000 b845 833f
00000030: 1602 d23f 8e25 4f3f f13d 2e3f 0000 0000
00000040: 0000 0000 0000 0000 e70f f53c 0000 0000
00000050: 0000 0000 b795 0640 399e 5e40 0000 0000
00000060: 65fa e23f 0000 0000 0000 0000 0000 0000
00000070: 7650 aa3d 0000 0000 0000 0000 f10e c4bf
00000080: 9b57 13c0 afeb 8dbf 9f1a 7dbf 0000 0000
00000090: 0000 0000 0000 0000 1824 3dbd 0000 0000
000000a0: 0000 0000 0000 0000 29d2 efbb 0000 0000
000000b0: 0000 0000 0000 0000 0000 0000 0000 0000
000000c0: 14af 71b9 0000 0000 0000 0000 a8dc f540
000000d0: 3cdd 4541 bedd db40 c551 b040 0000 0000
000000e0: 0000 0000 0000 0000 97d9 843e 0000 0000
000000f0: 0000 0000 4ca9 1ec0 3b39 7fc0 3ee1 b9bf
00000100: 63dd b4bf 0000 0000 0000 0000 0000 0000
00000110: fe03 8abd 0000 0000 0000 0000 9513 5bbf
00000120: 8bab acbf a59e 9abf 0000 0000 0000 0000
00000130: 0000 0000 0000 0000 6b18 edbc 0000 0000
0.0 -0.8320009 -1.5074446 -1.1730827 -0.4533365 0.0 0.0 0.0
-0.021499459 0.0 0.0 1.0255651 1.6406887 0.8091668 0.68063265 0.0
0.0 0.0 0.02991481 0.0 0.0 2.1028879 3.4784071 0.0
1.7732664 0.0 0.0 0.0 0.08316128 0.0 0.0 -1.531706
-2.302222 -1.108755 -0.98868746 0.0 0.0 0.0 -0.046177 0.0
0.0 0.0 -0.007318754 0.0 0.0 0.0 0.0 0.0
-0.00023048773 0.0 0.0 7.6831856 12.366512 6.870818 5.5099816 0.0
0.0 0.0 0.25947258 0.0 0.0 -2.479083 -3.987868 -1.4521863
-1.4130062 0.0 0.0 0.0 -0.06739043 0.0 0.0 -0.85576755
-1.3489851 -1.2079664 0.0 0.0 0.0 0.0 -0.028942307 0.0

exp_avg_sq f4 [8, 10]
00000000: 0000 0000 1a07 053d 85f7 bc3d 1fae 853d
00000010: 1392 6e3c 0000 0000 0000 0000 0000 0000
00000020: 0fa6 b637 0000 0000 0000 0000 2fe8 323d
00000030: f69b e23d da32 193d fedd b53c 0000 0000
00000040: 0000 0000 0000 0000 c794 0538 0000 0000
00000050: 0000 0000 165b ee3d 6abf a23e 0000 0000
00000060: a75c ac3d 0000 0000 0000 0000 0000 0000
00000070: e27e 2739 0000 0000 0000 0000 dba2 9b3d
00000080: 8b37 383e 3e43 6d3d 10fd 153d 0000 0000
00000090: 0000 0000 0000 0000 02b7 7f38 0000 0000
000000a0: 0000 0000 0000 0000 fae6 d735 0000 0000
000000b0: 0000 0000 0000 0000 0000 0000 0000 0000
000000c0: a767 da30 0000 0000 0000 0000 8753 f93f
000000d0: de57 a140 25bc e83f ab1a 883f 0000 0000
000000e0: 0000 0000 0000 0000 c11c f03a 0000 0000
000000f0: 0000 0000 8f70 673e 0650 143f 3dd0 1f3e
00000100: 6b67 ce3d 0000 0000 0000 0000 0000 0000
00000110: 0f2a 2439 0000 0000 0000 0000 08f6 a43c
00000120: 628b 4f3d f1f8 253d 0000 0000 0000 0000
00000130: 0000 0000 0000 0000 dcff a637 0000 0000
0.0 0.032477476 0.09226898 0.065273516 0.014561194 0.0 0.0 0.0
2.1773418e-05 0.0 0.0 0.04367846 0.110649034 0.03740201 0.02220058 0.0
0.0 0.0 3.184823e-05 0.0 0.0 0.11638467 0.31786662 0.0
0.084161095 0.0 0.0 0.0 0.00015973629 0.0 0.0 0.075994216
0.17989938 0.057925455 0.036618292 0.0 0.0 0.0 6.0967177e-05 0.0
0.0 0.0 1.6085971e-06 0.0 0.0 0.0 0.0 0.0
1.5891047e-09 0.0 0.0 1.9478616 5.041976 1.8182417 1.0633138 0.0
0.0 0.0 0.0018319116 0.0 0.0 0.22601531 0.57934606 0.1560678
0.10078319 0.0 0.0 0.0 0.00015655927 0.0 0.0 0.020136848
0.050670035 0.040520612 0.0 0.0 0.0 0.0 1.9907886e-05 0.0

exp_avg f4 [8]
00000000: d143 20bd 37f9 3f3d 947c d93d 8a83 8dbd
00000010: b370 73b9 e9f4 be3e 9044 debd b309 24bd
-0.039127175 0.04686853 0.106194645 -0.06909855 -0.0002321627 0.37296227 -0.10852921 -0.040048312

exp_avg_sq f4 [8]
00000000: c394 9738 42e9 c638 c660 9b39 382e 2939
00000010: b605 e330 4e4c 953b 2266 f639 c694 3b38
7.22795e-05 9.4848234e-05 0.00029636006 0.00016134314 1.6518047e-09 0.0045562154 0.0004699687 4.472283e-05

exp_avg f4 [4, 8]
00000000: 9dc0 d33e 3aa3 6a40 3a16 3a3f abcd ae3f
00000010: 67dd 143b 44da 7740 0d28 ef3f a7ae 913d
00000020: a91c ebbe fede 80c0 3f71 4bbf 85ba bfbf
00000030: 1b38 22bb 48aa 87c0 64a2 03c0 37ce 9ebd
00000040: 4bac dbbe b7ae 70c0 4dee 3dbf 9706 b3bf
00000050: bd69 17bb ba53 7dc0 fdde f5bf b33c 94bd
00000060: 347c d4be eecc 68c0 1db5 37bf 4229 adbf
00000070: 7874 12bb 2207 75c0 00d2 edbf b660 8fbd
0.4135789 3.6662126 0.72690165 1.3656515 0.0022714974 3.8726969 1.8684098 0.071133904
-0.45920303 -4.0272207 -0.79469675 -1.4978796 -0.002475268 -4.2395363 -2.0567865 -0.07754176
-0.42904887 -3.7606637 -0.74191743 -1.3986386 -0.0023103796 -3.9582353 -1.9208676 -0.0723814
-0.4150101 -3.637508 -0.7176073 -1.3528216 -0.0022347253 -3.8285604 -1.8579712 -0.07000868

exp_avg_sq f4 [4, 8]
00000000: d0e4 8c3c 08b9 0a3f fe70 693c 842c 853d
00000010: 2032 2c34 eaab e43e 05ad 2e3e 11b4 f138
00000020: c83e ad3c 39e2 293f c827 8d3c 0479 a23d
00000030: c9f5 4d34 3cec 0a3f e959 563e 515d 1039
00000040: 5031 973c 8c3c 143f 0833 763c 87bf 8d3d
00000050: f97f 3334 505b f23e 100e 3b3e ffa6 fb38
00000060: 737a 8d3c 5db4 0a3f 4a58 663c bca0 843d
00000070: 9af1 2734 16c2 e23e 9507 2f3e 156d eb38
0.01719895 0.54188585 0.014248131 0.06502631 1.6036984e-07 0.4466241 0.17058189 0.000115253155
0.0211481 0.66360813 0.017230883 0.07933238 1.9181529e-07 0.54266715 0.20932736 0.00013767673
0.018456131 0.5790489 0.015026815 0.069212966 1.671723e-07 0.4733529 0.18267083 0.00011999718
0.017270302 0.5418146 0.014059136 0.0647597 1.5640981e-07 0.442887 0.17092736 0.00011225991

exp_avg f4 [4]
00000000: fc38 c33e 8a3d d6be fb0c c8be 947f c1be
0.38129413 -0.41843826 -0.39072403 -0.37792647

exp_avg_sq f4 [4]
00000000: f759 af3b 894e d63b bcfb ba3b cef4 ae3b
0.005351301 0.006540124 0.0057062786 0.0053392416

exp_avg f4 [1, 4]
00000000: d233 b93f 3d22 3d40 0a4b 2a40 1896 2c40
1.4468939 2.9552147 2.66083 2.696661

exp_avg_sq f4 [1, 4]
00000000: dfa9 343e a5d6 ab3e e37e 493e e1cc 853e
0.17642926 0.33562198 0.1967731 0.26132873
