deeper_null/lightning_logs/version_30/checkpoints/epoch=9-step=10.ckpt (torch, 13936 bytes, 21 tensors)

model.layers.0.weight f4 [10, 2]
-0.68262774 0.14111254 0.61627084 0.15880214 0.48985553 -0.3705218 0.44034758 0.5540904
-0.37381372 -0.024274055 -0.090691924 -0.5667735 0.57718223 0.015660902 -0.48025018 -0.051163577
-0.5648694 0.2394826 -0.4588804 -0.22330242
00000000: b1c0 2ebf ce7f 103e edc3 1d3f 079d 223e
00000010: 58ce fa3e 09b5 bdbe 3d75 e13e ded8 0d3f
00000020: 8364 bfbe 62da c6bc b0bc b9bd 1118 11bf
00000030: 37c2 133f 4b4b 803c 5ae3 f5be e690 51bd
00000040: 489b 10bf ed3a 753e 5ff2 eabe 64a9 64be

model.layers.0.bias f4 [10]
-0.5168141 0.4927464 0.2159593 0.66526866 -0.0006539505 -0.028631197 0.29020458 -0.5319283
0.25793248 0.7038544
00000000: ee4d 04bf 4249 fc3e 6f24 5d3e 0c4f 2a3f
00000010: e06d 2bba f98b eabc b295 943e 742c 08bf
00000020: ba0f 843e cd2f 343f

model.layers.3.weight f4 [8, 10]
0.07989043 0.2609696 0.2859425 0.20517842 -0.15999588 -0.061874595 -0.25805524 -0.21002162
0.10362946 -0.16433756 -0.20481615 -0.06352683 -0.21554622 0.22676465 -0.16598222 0.23153779
0.13583337 0.0035887063 -0.027241794 0.22557385 0.029599307 -0.061193403 -0.2142205 -0.12888597
0.15267462 0.04592698 -0.15377048 -0.03590448 0.15076132 -0.10592847 0.004778282 -0.08636935
0.22562999 0.19050586 0.18170816 -0.05316652 0.15385543 -0.049325015 -0.033880137 -0.08169703
-0.03052191 0.057129946 -0.22177343 -0.03486478 0.011274354 0.31029233 0.16549279 0.06679997
-0.078052685 -0.12185407 0.30235878 0.0831262 0.0011799479 0.11887545 0.029601116 -0.2909334
-0.26575893 -0.08865618 -0.2612067 -0.028303199 0.11326534 0.02645848 0.11777007 0.2612674
-0.015322062 -0.057908237 -0.19408977 -0.24441089 -0.27942 -0.092464134 -0.14474657 -0.109679215
0.28552616 -0.026097087 -0.13683558 -0.025108203 -0.30825087 -0.26208082 0.08738902 0.16931796
00000000: 989d a33d cf9d 853e 0e67 923e 4b1a 523e
00000010: f6d5 23be 3770 7dbd d11f 84be e80f 57be
00000020: af3b d43d 1b48 28be 53bb 51be 5b1a 82bd
00000030: 26b8 5cbe fe34 683e 3ef7 29be 3e18 6d3e
00000040: e717 0b3e 8030 6b3b 2f2a dfbc d5fc 663e
00000050: 3f7a f23c efa5 7abd 9e5c 5bbe affa 03be
00000060: bc56 1c3e ee1d 3c3d 0276 1dbe 9310 13bd
00000070: 2d61 1a3e 07f1 d8bd 2293 9c3b 6ae2 b0bd
00000080: 8c0b 673e f813 433e b411 3a3e 23c5 59bd
00000090: 478c 1d3e 0709 4abd e6c5 0abd c650 a7bd
000000a0: 1609 fabc 1701 6a3d 9318 63be 5fce 0ebd
000000b0: 11b8 383c a3de 9e3e f176 293e 6cce 883d
000000c0: 16da 9fbd a08e f9bd c5ce 9a3e 123e aa3d
000000d0: 7ba8 9a3a f974 f33d 0a7e f23c 39f5 94be
000000e0: 8e11 88be 5f91 b5bd e2bc 85be 1cdc e7bc
000000f0: a9f7 e73d 74bf d83c 6f31 f13d d7c4 853e
00000100: 6309 7bbc 3031 6dbd 78bf 46be d946 7abe
00000110: 2310 8fbe d65d bdbd 7238 14be 7f9f e0bd
00000120: 7c30 923e 8fc9 d5bc a01e 0cbe b8af cdbc
00000130: 0fd3 9dbe 752f 86be 04f9 b23d b061 2d3e

model.layers.3.bias f4 [8]
0.2618371 0.11082306 -0.26372057 0.08373114 -0.022255937 0.13319516 -0.05719949 -0.22431822
00000000: 830f 863e 33f7 e23d 6206 87be 3b7b ab3d
00000010: 1552 b6bc 5064 083e 034a 6abd adb3 65be

model.layers.6.weight f4 [4, 8]
-0.052351676 0.29280093 0.33057088 0.11677648 -0.18278773 -0.22785628 0.10322711 0.28195047
-0.17608085 -0.28572783 0.30137515 0.08780928 0.15580164 -0.15423305 0.24195309 -0.33967572
-0.26912016 -0.35592765 -0.1357942 -0.13779584 -0.09764972 0.32128063 0.07505586 0.023792388
-0.23658478 0.071019046 -0.0060956143 -0.094657704 -0.054679237 -0.048112307 0.10582982 0.03397327
00000000: b66e 56bd 01ea 953e 9640 a93e 8228 ef3d
00000010: b52c 3bbe 2853 69be bc68 d33d d05b 903e
00000020: 8a4e 34be eb4a 92be d84d 9a3e 5ad5 b33d
00000030: 778a 1f3e 45ef 1dbe 8dc2 773e fae9 adbe
00000040: 1eca 89be 263c b6be a20d 0bbe 5a1a 0dbe
00000050: 94fc c7bd e57e a43e e3b6 993d 41e8 c23c
00000060: 4843 72be 6f72 913d b8bd c7bb e6db c1bd
00000070: 56f7 5fbd 6911 45bd 4ebd d83d 8e27 0b3d

model.layers.6.bias f4 [4]
0.21406625 0.25390074 -0.2906166 0.24100956
00000000: 2f34 5b3e 47ff 813e b3cb 94be 36cb 763e

model.layers.7.weight f4 [1, 4]
-0.2661492 0.45067477 -0.44000205 0.38086697
00000000: b544 88be d8be e63e f347 e1be ff00 c33e

exp_avg f4 [10, 2]
0.0 0.0 0.50989014 0.003835866 1.4566078 0.013067889 -0.046797924 0.0005806598
0.0 0.0 0.0 0.0 -0.16728435 -0.0010370894 0.0 0.0
0.0 0.0 0.0 0.0
00000000: 0000 0000 0000 0000 2988 023f 2763 7b3b
00000010: 2072 ba3f b31a 563c 2eaf 3fbd 6b37 183a
00000020: 0000 0000 0000 0000 0000 0000 0000 0000
00000030: 974c 2bbe f2ee 87ba 0000 0000 0000 0000
00000040: 0000 0000 0000 0000 0000 0000 0000 0000

exp_avg_sq f4 [10, 2]
0.0 0.0 0.011443317 7.263125e-07 0.05828418 4.6494615e-06 0.0012617061 8.4845894e-08
0.0 0.0 0.0 0.0 0.0011987372 6.0051e-08 0.0 0.0
0.0 0.0 0.0 0.0
00000000: 0000 0000 0000 0000 c07c 3b3c d1f7 4235
00000010: 64bb 6e3d 9202 9c36 d55f a53a 8634 b633
00000020: 0000 0000 0000 0000 0000 0000 0000 0000
00000030: f21e 9d3a 63f5 8033 0000 0000 0000 0000
00000040: 0000 0000 0000 0000 0000 0000 0000 0000

exp_avg f4 [10]
0.0 0.009881211 0.02813248 -0.00089091196 0.0 0.0 -0.0032434461 0.0
0.0 0.0
00000000: 0000 0000 cee4 213c 1676 e63c 178c 69ba
00000010: 0000 0000 0000 0000 ff8f 54bb 0000 0000
00000020: 0000 0000 0000 0000

exp_avg_sq f4 [10]
0.0 4.2994056e-06 2.1579159e-05 4.7546158e-07 0.0 0.0 4.5537558e-07 0.0
0.0 0.0
00000000: 0000 0000 9d43 9036 e404 b537 f142 ff34
00000010: 0000 0000 0000 0000 587a f434 0000 0000
00000020: 0000 0000 0000 0000

exp_avg f4 [8, 10]
0.0 1.8683197 1.5214757 1.3120733 0.0 0.0 1.2853255 0.0
0.0 0.0 0.0 0.82484484 0.6736486 0.652733 0.0 0.0
0.7785624 0.0 0.0 0.0 0.0 0.0 0.0 0.0
0.0 0.0 0.0 0.0 0.0 0.0 0.0 -0.8100737
-0.6634098 -0.5654025 0.0 0.0 -0.5248068 0.0 0.0 0.0
0.0 -1.0313895 -0.748741 -0.5139475 0.0 0.0 -0.8621518 0.0
0.0 0.0 0.0 1.941084 1.570622 1.4175532 0.0 0.0
0.0 0.0 0.0 0.0 0.0 -2.598181 -2.1188276 -1.9496412
0.0 0.0 -1.6828027 0.0 0.0 0.0 0.0 2.4896371
2.160712 1.822928 0.0 0.0 0.0 0.0 0.0 0.0
00000000: 0000 0000 1a25 ef3f b7bf c23f 05f2 a73f
00000010: 0000 0000 0000 0000 8c85 a43f 0000 0000
00000020: 0000 0000 0000 0000 0000 0000 0829 533f
00000030: 3c74 2c3f 8319 273f 0000 0000 0000 0000
00000040: de4f 473f 0000 0000 0000 0000 0000 0000
00000050: 0000 0000 0000 0000 0000 0000 0000 0000
00000060: 0000 0000 0000 0000 0000 0000 0000 0000
00000070: 0000 0000 0000 0000 0000 0000 fd60 4fbf
00000080: 3ad5 29bf 38be 10bf 0000 0000 0000 0000
00000090: bd59 06bf 0000 0000 0000 0000 0000 0000
000000a0: 0000 0000 9204 84bf 7dad 3fbf 1092 03bf
000000b0: 0000 0000 0000 0000 fbb5 5cbf 0000 0000
000000c0: 0000 0000 0000 0000 0000 0000 7175 f83f
000000d0: 240a c93f 6272 b53f 0000 0000 0000 0000
000000e0: 0000 0000 0000 0000 0000 0000 0000 0000
000000f0: 0000 0000 9948 26c0 df9a 07c0 d88d f9bf
00000100: 0000 0000 0000 0000 1466 d7bf 0000 0000
00000110: 0000 0000 0000 0000 0000 0000 3756 1f40
00000120: 1b49 0a40 b455 e93f 0000 0000 0000 0000
00000130: 0000 0000 0000 0000 0000 0000 0000 0000

exp_avg_sq f4 [8, 10]
0.0 0.12161415 0.07958628 0.060640384 0.0 0.0 0.060442887 0.0
0.0 0.0 0.0 0.027247068 0.017917305 0.017268416 0.0 0.0
0.02447056 0.0 0.0 0.0 0.0 0.0 0.0 0.0
0.0 0.0 0.0 0.0 0.0 0.0 0.0 0.016729757
0.011114038 0.008247926 0.0 0.0 0.0075313495 0.0 0.0 0.0
0.0 0.027893161 0.015597963 0.00903168 0.0 0.0 0.020234115 0.0
0.0 0.0 0.0 0.10472341 0.06899379 0.05647822 0.0 0.0
0.0 0.0 0.0 0.0 0.0 0.20286818 0.13314757 0.11558273
0.0 0.0 0.09147011 0.0 0.0 0.0 0.0 0.17543033
0.1320701 0.094768055 0.0 0.0 0.0 0.0 0.0 0.0
00000000: 0000 0000 d710 f93d 22fe a23d 0d62 783d
00000010: 0000 0000 0000 0000 f692 773d 0000 0000
00000020: 0000 0000 0000 0000 0000 0000 3e35 df3c
00000030: 50c7 923c 7e76 8d3c 0000 0000 0000 0000
00000040: 7c76 c83c 0000 0000 0000 0000 0000 0000
00000050: 0000 0000 0000 0000 0000 0000 0000 0000
00000060: 0000 0000 0000 0000 0000 0000 0000 0000
00000070: 0000 0000 0000 0000 0000 0000 d80c 893c
00000080: a717 363c 4f22 073c 0000 0000 0000 0000
00000090: 8ac9 f63b 0000 0000 0000 0000 0000 0000
000000a0: 0000 0000 3380 e43c 998e 7f3c 9df9 133c
000000b0: 0000 0000 0000 0000 04c2 a53c 0000 0000
000000c0: 0000 0000 0000 0000 0000 0000 3a79 d63d
000000d0: 9e4c 8d3d b555 673d 0000 0000 0000 0000
000000e0: 0000 0000 0000 0000 0000 0000 0000 0000
000000f0: 0000 0000 adbc 4f3e d657 083e a3b6 ec3d
00000100: 0000 0000 0000 0000 ae54 bb3d 0000 0000
00000110: 0000 0000 0000 0000 0000 0000 02a4 333e
00000120: 623d 073e c115 c23d 0000 0000 0000 0000
00000130: 0000 0000 0000 0000 0000 0000 0000 0000

exp_avg f4 [8]
0.05488569 0.024794871 0.0 -0.023764282 -0.028674413 0.05895399 -0.076615736 0.07576132
00000000: d1cf 603d 9d1e cb3c 0000 0000 50ad c2bc
00000010: 9ae6 eabc bd79 713d b6e8 9cbd c028 9b3d

exp_avg_sq f4 [8]
0.00010469066 2.4809928e-05 0.0 1.4414475e-05 2.1534466e-05 9.589785e-05 0.00017583065 0.00016026189
00000000: 5f8d db38 ea1e d037 0000 0000 b3d5 7137
00000010: eaa4 b437 c41c c938 2e5f 3839 f90b 2839

exp_avg f4 [4, 8]
5.0976577 0.5605388 0.0 2.9479227 0.015905304 0.5650293 1.4858131 0.35762987
-8.567541 -0.94118065 0.0 -4.9538226 -0.026542574 -0.94993097 -2.497742 -0.60118645
8.178445 0.89583796 0.0 4.7268414 0.024794912 0.9076387 2.3859172 0.5742397
-7.2574587 -0.79748833 0.0 -4.1965013 -0.022530876 -0.8045991 -2.1156676 -0.5092252
00000000: 0320 a340 797f 0f3f 0000 0000 c4aa 3c40
00000010: d74b 823c c3a5 103f 202f be3f 431b b73e
00000020: a614 09c1 37f1 70bf 0000 0000 b785 9ec0
00000030: d06f d9bc ad2e 73bf 01db 1fc0 5be7 19bf
00000040: e9da 0241 a355 653f 0000 0000 4942 9740
00000050: b31e cb3c 035b 683f deb2 1840 5f01 133f
00000060: 1a3d e8c0 3228 4cbf 0000 0000 bd49 86c0
00000070: ac92 b8bc 35fa 4dbf 1967 07c0 955c 02bf

exp_avg_sq f4 [4, 8]
0.79326177 0.012445043 0.0 0.27330795 4.5371962e-05 0.009194771 0.06361116 0.0037926862
2.2305255 0.034919098 0.0 0.768335 0.00012715915 0.02587352 0.17899859 0.010667381
2.0051112 0.031186469 0.0 0.6902349 0.00011316306 0.023311904 0.16127667 0.009597603
1.6026322 0.025104724 0.0 0.55208445 9.1448885e-05 0.018585978 0.1285828 0.0076638246
00000000: 3413 4b3f 4be6 4b3c 0000 0000 05ef 8b3e
00000010: c64d 3e38 aaa5 163c 9146 823d b78e 783b
00000020: eec0 0e40 5407 0f3d 0000 0000 9ab1 443f
00000030: 0656 0539 b4f4 d33c 684b 373e 3dc6 2e3c
00000040: be53 0040 c47a ff3c 0000 0000 3cb3 303f
00000050: f551 ed38 9bf8 be3c b625 253e 443f 1d3c
00000060: 0d23 cd3f 6ca8 cd3c 0000 0000 6855 0d3f
00000070: 3fc8 bf38 9f41 983c 36ab 033e d220 fb3b

exp_avg f4 [4]
0.28422007 -0.47764665 0.45584846 -0.40461805
00000000: 4b85 913e 1a8e f4be f864 e93e 192a cfbe

exp_avg_sq f4 [4]
0.002505405 0.0070439433 0.00632971 0.0050612595
00000000: b931 243b e1d0 e63b 7569 cf3b ecd8 a53b

exp_avg f4 [1, 4]
-1.7792978 2.3277955 6.275565 4.77074
00000000: 08c0 e3bf 9afa 1440 6ed1 c840 e7a9 9840

exp_avg_sq f4 [1, 4]
0.11285373 0.18439867 1.2238393 0.70985544
00000000: db1f e73d 01d3 3c3e c4a6 9c3f 16b9 353f
