deeper_null/lightning_logs/version_26/checkpoints/epoch=9-step=10.ckpt (torch, 13936 bytes, 21 tensors)

model.layers.0.weight f4 [10, 2]
00000000: dd96 623e 182b 1fbf 655f c83e a133 7ebe
00000010: 5026 b83e 3f0b 063f 80f7 22bf aa8e 0e3e
00000020: 054c d1be e167 b53e 101f 79be f245 f7be
00000030: 0373 16bf 3696 cf3e 326e 68be 355a 0c3f
00000040: 8aad 09bf 47ee 41be cf84 62be 95de 22bf
0.22127862 -0.6217513 0.3913528 -0.24824382 0.3596673 0.5236091 -0.63658905 0.1392161
-0.4087831 0.35430816 -0.24328256 -0.48295552 -0.58769244 0.4054429 -0.22698286 0.54825145
-0.53780425 -0.18938552 -0.22120975 -0.63620883

model.layers.0.bias f4 [10]
00000000: e3b0 babe 00ef 04be f142 c23e 8b12 0cbf
00000010: ef57 f2be 7c8e 28bf 1f35 203e 3d6d 11bf
00000020: e961 c6be 9843 7d3e
-0.3646308 -0.12981796 0.37941697 -0.54715794 -0.47332713 -0.65842414 0.15645264 -0.5680731
-0.38746575 0.24732816

model.layers.3.weight f4 [8, 10]
00000000: 44bb 2ebd 9788 5d3e 0626 a1bd a7c0 463d
00000010: ea48 38bd be17 523e 9cdc e83d aabe 173e
00000020: dd3b 61bd ed51 0e3e 33e7 493e bca8 b83d
00000030: 1dd3 acbc e64c 953e 25a9 483e 9e53 67be
00000040: 6f23 c4bd 7e46 93bd 9066 95be 499b febd
00000050: 799b 04be 3e6a 633e eefa 35be 37d9 a5bc
00000060: 974b 913e 2dfc 72be 9f7e 093e 328b 473e
00000070: f5af 473e 6829 143e aa95 fd3d 054d c03d
00000080: 60ad 8d3e 3c39 573d 577c 9ebe 3287 d93d
00000090: b475 05be ea1e 45bd 9c96 79bd dcce 69be
000000a0: ff5d 8c3e 6835 60bd eba9 80be a68d 9a3e
000000b0: 9a80 713e d22e 24be b622 a83d 3207 143e
000000c0: bd16 8fbe 8736 92be c511 e13c 8e0e 87be
000000d0: 6a80 6cbe d927 7f3e 0b0e 703d 8f77 b8bd
000000e0: b36f 863b 668b 9b3e d4e9 0abe 9391 263e
000000f0: 60e4 87bd dc02 96bc 9f6d 97be 53c7 db3d
00000100: cbd7 15be 7f51 123d cfb7 683d d8db 4c3e
00000110: 87fc 91be 6de1 1abe 52c6 92be 56a1 8f3e
00000120: ebb4 0bbc 5e8b 60be 3d21 da3d 5284 24bd
00000130: ab1e 9bbe b8e2 d23c 1f82 86bd 3370 713e
-0.04265906 0.21634136 -0.078685805 0.04852357 -0.04499141 0.2051687 0.11370203 0.14818826
-0.05498873 0.1389844 0.19717102 0.090165585 -0.02109676 0.2916023 0.19595774 -0.22590491
-0.09577071 -0.0719118 -0.2917981 -0.12431962 -0.12949933 0.22208497 -0.17771503 -0.020245178
0.28377983 -0.2372901 0.13427208 0.19486693 0.19500716 0.1446892 0.12382062 0.0938969
0.27671337 0.052544817 -0.3095424 0.106214896 -0.13033181 -0.048125185 -0.060934648 -0.22832817
0.27415463 -0.054738432 -0.25129637 0.30186194 0.23584214 -0.16033486 0.082097456 0.1445587
-0.27947035 -0.28557226 0.027474293 -0.26378292 -0.23095861 0.24917544 0.058607142 -0.09007179
0.004102671 0.3037979 -0.13565761 0.1626647 -0.06635356 -0.01831191 -0.29575822 0.107313775
-0.146331 0.035722252 0.05681592 0.20005739 -0.28512976 -0.15125056 -0.2866693 0.28052777
-0.008527021 -0.21928164 0.10650871 -0.040165253 -0.30296835 0.025742874 -0.065677874 0.23577957

model.layers.3.bias f4 [8]
00000000: 0382 44bd 850e 77be 1267 453c 9d96 4a3d
00000010: 6691 8a3e 6c8b af3d cc00 92be 939f 883e
-0.04797555 -0.24126633 0.0120485 0.049460042 0.27064055 0.085715145 -0.28516233 0.26684245

model.layers.6.weight f4 [4, 8]
00000000: 760e 953e e0e7 9a3d 5cc6 84bc c9d0 323e
00000010: d1c4 3e3d a324 8fbe cda7 3abd 2b14 25bd
00000020: fc1f 103d f34c 833d 0723 18bd 0033 11be
00000030: ea8e 9cbe 4ef4 e33d a170 5f3e 8f0e 6c3d
00000040: b9d1 9cbd aeaa 3abc 667f a83e 03b0 9d3c
00000050: 67b6 4d3e 0725 853a a341 093e a5f7 76be
00000060: bc04 703e 3c66 123e 3773 ecbd f249 4ebe
00000070: 0db1 7dbe 6ffc 7bbe b881 33bd 456a 23be
0.29112595 0.07563758 -0.016207866 0.17462458 0.046574418 -0.2795764 -0.045570184 -0.040302437
0.035186753 0.06411161 -0.03714278 -0.14179611 -0.30577785 0.11130582 0.21820308 0.05763107
-0.07657189 -0.011393232 0.32909697 0.019248968 0.20089112 0.001015813 0.13403945 -0.24117906
0.23439306 0.14296812 -0.11545413 -0.20145395 -0.24774571 -0.24608015 -0.04382488 -0.15958507

model.layers.6.bias f4 [4]
00000000: 560b 913e a451 00be 895d 883e 7ed2 d2bb
0.2832896 -0.12531143 0.26633862 -0.006433784

model.layers.7.weight f4 [1, 4]
00000000: 9da8 81be 3a78 c4be f320 b8be ccab a6be
-0.25323954 -0.38372976 -0.35962638 -0.32552946

exp_avg f4 [10, 2]
00000000: 7d8f 62bf 605e 63bc 88f8 093f f662 dd3b
00000010: 09fa 913f 4342 8a3c 0000 0000 0000 0000
00000020: 0000 0000 0000 0000 0000 0000 0000 0000
00000030: 0000 0000 0000 0000 0000 0000 0000 0000
00000040: 0000 0000 0000 0000 0000 0000 0000 0000
-0.88500196 -0.013877481 0.53894854 0.006756182 1.140443 0.0168773 0.0 0.0
0.0 0.0 0.0 0.0 0.0 0.0 0.0 0.0
0.0 0.0 0.0 0.0

exp_avg_sq f4 [10, 2]
00000000: 1a20 cb3c 9f56 b236 31e5 283c 4cc6 d935
00000010: a0f9 313d d8b0 0e37 0000 0000 0000 0000
00000020: 0000 0000 0000 0000 0000 0000 0000 0000
00000030: 0000 0000 0000 0000 0000 0000 0000 0000
00000040: 0000 0000 0000 0000 0000 0000 0000 0000
0.02479558 5.3148974e-06 0.01030855 1.6225472e-06 0.04345095 8.505034e-06 0.0 0.0
0.0 0.0 0.0 0.0 0.0 0.0 0.0 0.0
0.0 0.0 0.0 0.0

exp_avg f4 [10]
00000000: f56b 90bc b9e3 2c3c 5227 b93c 0000 0000
00000010: 0000 0000 0000 0000 0000 0000 0000 0000
00000020: 0000 0000 0000 0000
-0.017629603 0.01055234 0.022601757 0.0 0.0 0.0 0.0 0.0
0.0 0.0

exp_avg_sq f4 [10]
00000000: a5d2 2237 0976 8436 2485 8d37 0000 0000
00000010: 0000 0000 0000 0000 0000 0000 0000 0000
00000020: 0000 0000 0000 0000
9.704997e-06 3.9476477e-06 1.6870508e-05 0.0 0.0 0.0 0.0 0.0
0.0 0.0

exp_avg f4 [8, 10]
00000000: 8be5 f6be df84 96bf a07b 9ebf 0000 0000
00000010: 0000 0000 0000 0000 0000 0000 0000 0000
00000020: 0000 0000 0000 0000 f54d adbe 373b 42bf
00000030: e91c 58bf 0000 0000 0000 0000 0000 0000
00000040: 0000 0000 0000 0000 0000 0000 0000 0000
00000050: 5eed a53c d369 a2bd 58c4 edbd 0000 0000
00000060: 0000 0000 0000 0000 0000 0000 0000 0000
00000070: 0000 0000 0000 0000 aa74 e03e f70c 743f
00000080: 9869 843f 0000 0000 0000 0000 0000 0000
00000090: 0000 0000 0000 0000 0000 0000 0000 0000
000000a0: a431 e0bc 090f 69bd 0000 0000 0000 0000
000000b0: 0000 0000 0000 0000 0000 0000 0000 0000
000000c0: 0000 0000 0000 0000 282b 403b 0000 0000
000000d0: 0000 0000 0000 0000 0000 0000 0000 0000
000000e0: 0000 0000 0000 0000 0000 0000 0000 0000
000000f0: 0000 0000 0000 0000 0000 0000 0000 0000
00000100: 0000 0000 0000 0000 0000 0000 0000 0000
00000110: 0000 0000 0000 0000 6fab 243f 4d3f c63f
00000120: f43f ca3f 0000 0000 0000 0000 0000 0000
00000130: 0000 0000 0000 0000 0000 0000 0000 0000
-0.48222002 -1.1759299 -1.2381477 0.0 0.0 0.0 0.0 0.0
0.0 0.0 -0.3384854 -0.75871605 -0.84419113 0.0 0.0 0.0
0.0 0.0 0.0 0.0 0.020254787 -0.079303406 -0.11609715 0.0
0.0 0.0 0.0 0.0 0.0 0.0 0.43839008 0.9533228
1.0344725 0.0 0.0 0.0 0.0 0.0 0.0 0.0
-0.02736742 -0.056899104 0.0 0.0 0.0 0.0 0.0 0.0
0.0 0.0 0.0029322598 0.0 0.0 0.0 0.0 0.0
0.0 0.0 0.0 0.0 0.0 0.0 0.0 0.0
0.0 0.0 0.0 0.0 0.0 0.0 0.64324087 1.5488068
1.5800767 0.0 0.0 0.0 0.0 0.0 0.0 0.0

exp_avg_sq f4 [8, 10]
00000000: f2ef 063c 3977 413d 4479 4a3d 0000 0000
00000010: 0000 0000 0000 0000 0000 0000 0000 0000
00000020: 0000 0000 0000 0000 d3c6 7b3b 8c14 9d3c
00000030: 9a6f b63c 0000 0000 0000 0000 0000 0000
00000040: 0000 0000 0000 0000 0000 0000 0000 0000
00000050: b26b 1937 8be7 7539 2cf8 ca39 0000 0000
00000060: 0000 0000 0000 0000 0000 0000 0000 0000
00000070: 0000 0000 0000 0000 15cb d53b e12f 003d
00000080: 1d7f 103d 0000 0000 0000 0000 0000 0000
00000090: 0000 0000 0000 0000 0000 0000 0000 0000
000000a0: 431e 8e37 fb39 9638 0000 0000 0000 0000
000000b0: 0000 0000 0000 0000 0000 0000 0000 0000
000000c0: 0000 0000 0000 0000 e79e c134 0000 0000
000000d0: 0000 0000 0000 0000 0000 0000 0000 0000
000000e0: 0000 0000 0000 0000 0000 0000 0000 0000
000000f0: 0000 0000 0000 0000 0000 0000 0000 0000
00000100: 0000 0000 0000 0000 0000 0000 0000 0000
00000110: 0000 0000 0000 0000 357d 683c 1135 a63d
00000120: e5d8 a63d 0000 0000 0000 0000 0000 0000
00000130: 0000 0000 0000 0000 0000 0000 0000 0000
0.008235918 0.04723284 0.049432054 0.0 0.0 0.0 0.0 0.0
0.0 0.0 0.003841807 0.019174837 0.022270013 0.0 0.0 0.0
0.0 0.0 0.0 0.0 9.144585e-06 0.00023451277 0.00038713345 0.0
0.0 0.0 0.0 0.0 0.0 0.0 0.0065244534 0.03129566
0.035277475 0.0 0.0 0.0 0.0 0.0 0.0 0.0
1.694181e-05 7.163357e-05 0.0 0.0 0.0 0.0 0.0 0.0
0.0 0.0 3.6064668e-07 0.0 0.0 0.0 0.0 0.0
0.0 0.0 0.0 0.0 0.0 0.0 0.0 0.0
0.0 0.0 0.0 0.0 0.0 0.0 0.014190008 0.0811559
0.08146838 0.0 0.0 0.0 0.0 0.0 0.0 0.0

exp_avg f4 [8]
00000000: 95ac 5ebd 907d 1abd 3e0e 72bb 8771 403d
00000010: ced1 0bbb e381 9039 0000 0000 6a7a 923d
-0.054363806 -0.037717402 -0.0036934759 0.046983268 -0.002133477 0.00027562593 0.0 0.07152255

exp_avg_sq f4 [8]
00000000: f87e cd38 82fe 3d38 ad5d 0135 5b4b 9a38
00000010: 22d9 dd33 4fbe 5131 0000 0000 ed1f 3139
9.7988115e-05 4.529814e-05 4.819256e-07 7.357328e-05 1.0330611e-07 3.052168e-09 0.0 0.00016891929

exp_avg f4 [4, 8]
00000000: 349a 69be 9eb5 9bbe 937e b73b e87d b4bf
00000010: bc86 2b3c 6f40 89b9 0000 0000 9362 01bf
00000020: 0761 b7be 0465 f4be addd 0b3c 347c 0dc0
00000030: f78a 843c 4dc4 d7b9 0000 0000 320b 4bbf
00000040: 33f7 abbe a22e e5be 8914 033c efac 04c0
00000050: fb81 783c 1058 cab9 0000 0000 af67 3ebf
00000060: b6f2 9bbe 22d5 cfbe a368 ed3b 6e9e f0bf
00000070: fb30 613c d381 b7b9 0000 0000 80aa 2cbf
-0.2281273 -0.30412 0.0055998056 -1.4100924 0.010469135 -0.00026178683 0.0 -0.5054104
-0.35816213 -0.4773332 0.008536738 -2.2107058 0.016179545 -0.0004115425 0.0 -0.7931396
-0.33587036 -0.4476214 0.008000501 -2.073055 0.0151677085 -0.00038594054 0.0 -0.7437696
-0.3045861 -0.40592295 0.0072451397 -1.8798349 0.013744588 -0.00035001207 0.0 -0.6744766

exp_avg_sq f4 [4, 8]
00000000: 98b5 e63a 37f8 483b 76c5 1736 83d8 7d3d
00000010: 9a02 2e36 40b2 4931 0000 0000 0126 0b3c
00000020: 9d17 913b ed86 fc3b 05bc b936 8431 1f3e
00000030: 8643 cf36 4ec2 fd31 0000 0000 4d17 af3c
00000040: 2e4c 7f3b 9c29 de3b a151 a336 fc0b 0c3e
00000050: 2924 b636 ce40 df31 0000 0000 140b 9a3c
00000060: 0827 523b 6bde b63b d843 8636 b388 e63d
00000070: 568c 9536 b5c6 b731 0000 0000 3e9c 7d3c
0.0017601727 0.0030665526 2.261569e-06 0.06197406 2.5929535e-06 2.9350673e-09 0.0 0.008492948
0.0044278638 0.007706514 5.535318e-06 0.15546232 6.1769415e-06 7.385359e-09 0.0 0.021373415
0.0038955319 0.0067798626 4.8672814e-06 0.13676447 5.4282323e-06 6.4975216e-09 0.0 0.01880411
0.0032066721 0.0055807135 4.0014093e-06 0.11256542 4.4568833e-06 5.3485913e-09 0.0 0.015479146

exp_avg f4 [4]
00000000: be6c 00be 3a6e 49be d9e3 3cbe c249 2bbe
-0.12541482 -0.19670954 -0.18446292 -0.16727355

exp_avg_sq f4 [4]
00000000: 1bbe 033a 2e65 a53a 6781 913a af87 6f3a
0.00050255813 0.0012618655 0.0011101187 0.0009137345

exp_avg f4 [1, 4]
00000000: 60d8 ad3f 227b 2ebf 53e2 cdbe 67ec 8fbf
1.3581657 -0.68156636 -0.40211734 -1.1244019

exp_avg_sq f4 [1, 4]
00000000: c436 6d3d 9826 7c3c 6a2d bd3b a583 293d
0.057913557 0.015390061 0.005773236 0.04138531
