deeper_null/lightning_logs/version_11/checkpoints/epoch=40-step=41.ckpt (torch, 13936 bytes, 21 tensors)

model.layers.0.weight f4 [10, 2]
0	0x3f06f883	0.5272295
1	0x3e8a43de	0.27004904
2	0xbe15dfa8	-0.146361
3	0xbe2de908	-0.16983426
4	0xbe9d62a8	-0.3073933
5	0xbe5d0633	-0.21584396
6	0x3f03093a	0.51185954
7	0xbf0d602f	-0.5522489
8	0xbecf19d4	-0.40449393
9	0x3ea6518d	0.32484093
10	0x3f052cf8	0.5202174
11	0xbf001d19	-0.500444
12	0xbe0f9588	-0.14021885
13	0x3d8c59c6	0.068530604
14	0x3f0da720	0.5533314
15	0xbe68e118	-0.22742116
16	0xbe252809	-0.16128553
17	0x3ee415df	0.44547936
18	0x3f238bea	0.63885367
19	0x3f045834	0.5169709

model.layers.0.bias f4 [10]
0	0x3f097ce0	0.5370617
1	0x3a89ff0e	0.0010528283
2	0x3e946b80	0.28988266
3	0xbf0a2ed1	-0.53977686
4	0x3f2d5e8d	0.677224
5	0x3ec0b170	0.37635374
6	0x3e6c6aba	0.23087588
7	0x3df7ebb6	0.12105505
8	0xbf0f0838	-0.55871916
9	0x3f065676	0.5247568

model.layers.3.weight f4 [8, 10]
0	0xbe20ae43	-0.15691476
1	0x3e63bdf2	0.22240427
2	0xbe36dd50	-0.17857862
3	0xbe9e664b	-0.30937418
4	0x3e41190a	0.18857208
5	0x3e2e1fa6	0.1700426
6	0x3e68db86	0.22739992
7	0x3d96bcc7	0.07360225
8	0xbe8b5b28	-0.27217984
9	0xbe202ae7	-0.15641366
10	0xbe09a6b4	-0.13442498
11	0xbe9cf92d	-0.30658856
12	0xbe842796	-0.25811452
13	0xbe90722d	-0.2821211
14	0x3e3453a9	0.17610039
15	0x3e93ed9b	0.28892216
16	0x3e1f8246	0.15577039
17	0x3e917a96	0.28413838
18	0x3e785ee4	0.24254948
19	0x3e7522f3	0.23939113
20	0xbe2175a8	-0.15767539
21	0x3c430f36	0.011905482
22	0xbe166ffa	-0.14691153
23	0xbe12af74	-0.14324743
24	0xbd717e0e	-0.058958106
25	0xbe6649a6	-0.22489032
26	0xbdca8a67	-0.098896794
27	0xbe9acba3	-0.30233487
28	0xbd8618e5	-0.06547717
29	0xbbc4b4be	-0.0060029915
30	0xbe86a3cd	-0.26296845
31	0xbe13e57a	-0.14443007
32	0xbd8bb6d3	-0.0682198
33	0x3ea55a58	0.3229549
34	0xbe99e472	-0.30057102
35	0x3e83905e	0.2569608
36	0x3e738eb5	0.23784907
37	0x3e8e2651	0.27763608
38	0xbe5d9740	-0.21639729
39	0x3e909590	0.28239107
40	0x3e81b3ff	0.2533264
41	0x3e4d3899	0.20041122
42	0xbe71c20b	-0.23609178
43	0xbd4427ef	-0.047889646
44	0x3d8ebb72	0.06969346
45	0x3e9cc7f3	0.306213
46	0xbd4d05bf	-0.050054308
47	0x3e11e431	0.14247204
48	0xbe4c5698	-0.19954908
49	0x3ea3b1cf	0.31971595
50	0x3e77dd89	0.24205603
51	0xbe9b7ca3	-0.30368528
52	0xbe883ba7	-0.2660801
53	0x3e0eca9b	0.13944475
54	0xbe2b0c00	-0.16703796
55	0xbdc5d619	-0.096599765
56	0xbea13090	-0.31482363
57	0xbe00a185	-0.12561615
58	0x3e78a100	0.24280167
59	0x3e822d15	0.2542502
60	0xbe89cc31	-0.26913598
61	0x3e6dd46b	0.23225562
62	0x3e2c1449	0.16804613
63	0x3de69459	0.11258764
64	0x3e718a21	0.23587848
65	0x3e7ce64f	0.24697231
66	0xbe0c1ee7	-0.13683663
67	0xbe8a119e	-0.26966566
68	0x3e324413	0.17408781
69	0x3dbaf491	0.091286786
70	0x3e2a3582	0.16621974
71	0xbdc062e5	-0.09393863
72	0x3e8a60a8	0.27026868
73	0xbd9e8963	-0.07741048
74	0x3da546cd	0.08070145
75	0x3e1eab37	0.15495001
76	0x3dc7f7b4	0.097640425
77	0x3e2048c0	0.15652752
78	0x3e542018	0.20715368
79	0xbe1879fd	-0.14890285

model.layers.3.bias f4 [8]
0	0x3e385953	0.18002824
1	0xbe4348f4	-0.19070798
2	0xbe5099f0	-0.20371222
3	0x3e72f8bc	0.23727697
4	0x3e179482	0.14802745
5	0xbe5e634c	-0.21717566
6	0xbe949687	-0.29021093
7	0xbda6015e	-0.081057295

model.layers.6.weight f4 [4, 8]
0	0xbe4772eb	-0.19477431
1	0xbe8b8c6e	-0.27255577
2	0xbe8abe0d	-0.27098122
3	0xbe7f9267	-0.24958192
4	0xbd96230b	-0.07330903
5	0x3e4bb698	0.19893873
6	0x3e1d4043	0.15356545
7	0x3dca7e63	0.098873876
8	0x3e938d0c	0.28818548
9	0xbe8922d7	-0.26784393
10	0x3de9a7aa	0.114089325
11	0xbda83945	-0.08214048
12	0x3e960cc2	0.29306608
13	0xbea2d725	-0.31804767
14	0xbe812432	-0.25222927
15	0x3eb9501f	0.3619394
16	0x3e702f07	0.2345544
17	0xbea7960e	-0.3273167
18	0xbea9e0e6	-0.33179396
19	0x3dbf616a	0.09344752
20	0xbea4bdb9	-0.32175997
21	0xbe594af5	-0.2122
22	0xbe85cace	-0.2613129
23	0x3e519c72	0.20469835
24	0xbe1c529a	-0.15265885
25	0xbe707c15	-0.23484834
26	0xbe35a396	-0.17738184
27	0xbe3fa705	-0.18716057
28	0xbe83c8fc	-0.25739276
29	0xbceb4b40	-0.028722405
30	0xbde1cfc2	-0.11025955
31	0x3eb538fc	0.35395038

model.layers.6.bias f4 [4]
0	0xbe3905e0	-0.18068647
1	0xbe0b110f	-0.13580726
2	0xbc24aa6b	-0.010050396
3	0x3eb48b7d	0.3526267

model.layers.7.weight f4 [1, 4]
0	0xbec5cd20	-0.3863306
1	0x3ebe6738	0.37188125
2	0x3d56ecb3	0.052471828
3	0x3e497572	0.19673708

exp_avg f4 [10, 2]
0	0x3fdd346d	1.7281624
1	0x3c8fc92a	0.017551977
2	0x00000000	0.0
3	0x00000000	0.0
4	0x00000000	0.0
5	0x00000000	0.0
6	0x402f86fa	2.7426133
7	0x3cb88d02	0.022528175
8	0x00000000	0.0
9	0x00000000	0.0
10	0x400d6114	2.2090502
11	0x3cf73d1a	0.030180503
12	0x00000000	0.0
13	0x00000000	0.0
14	0xbe7cabe1	-0.24674942
15	0x3c0b3c6e	0.008498294
16	0x00000000	0.0
17	0x00000000	0.0
18	0x41064826	8.392614
19	0x3d8f661c	0.07001898

exp_avg_sq f4 [10, 2]
0	0x3f99c85b	1.2014269
1	0x38fea227	0.00012141867
2	0x00000000	0.0
3	0x00000000	0.0
4	0x00000000	0.0
5	0x00000000	0.0
6	0x40c3d6dd	6.1199784
7	0x3a0a36c3	0.00052724424
8	0x00000000	0.0
9	0x00000000	0.0
10	0x400379d3	2.0543106
11	0x3931be59	0.00016950945
12	0x00000000	0.0
13	0x00000000	0.0
14	0x40918415	4.5473733
15	0x39c0befb	0.00036763385
16	0x00000000	0.0
17	0x00000000	0.0
18	0x425f5b3d	55.8391
19	0x3ba3fb93	0.005004355

exp_avg f4 [10]
0	0x3d097719	0.033560846
1	0x00000000	0.0
2	0x00000000	0.0
3	0x3d574009	0.052551303
4	0x00000000	0.0
5	0x3d332eab	0.043745678
6	0x00000000	0.0
7	0xbb60e643	-0.0034316934
8	0x00000000	0.0
9	0x3e24ec20	0.161057

exp_avg_sq f4 [10]
0	0x39ebbb32	0.00044962164
1	0x00000000	0.0
2	0x00000000	0.0
3	0x3b152072	0.0022754935
4	0x00000000	0.0
5	0x3a45889b	0.00075353094
6	0x00000000	0.0
7	0x3adbe422	0.0016776363
8	0x00000000	0.0
9	0x3caada13	0.020855939

exp_avg f4 [8, 10]
0	0x3e9642e2	0.29347903
1	0x00000000	0.0
2	0x00000000	0.0
3	0x00000000	0.0
4	0x00000000	0.0
5	0x3eb46248	0.35231233
6	0x00000000	0.0
7	0x3eb679df	0.35639855
8	0x00000000	0.0
9	0x3d51b2fe	0.05119609
10	0x3ff43cfe	1.9081113
11	0x00000000	0.0
12	0x00000000	0.0
13	0x400d5f24	2.208932
14	0x00000000	0.0
15	0x3fd26feb	1.6440405
16	0x00000000	0.0
17	0x3fa7cddb	1.3109697
18	0x00000000	0.0
19	0x4073bc9b	3.8083866
20	0x00000000	0.0
21	0x00000000	0.0
22	0x00000000	0.0
23	0x00000000	0.0
24	0x00000000	0.0
25	0x00000000	0.0
26	0x00000000	0.0
27	0x00000000	0.0
28	0x00000000	0.0
29	0x00000000	0.0
30	0x3c5d9cf6	0.013526192
31	0x00000000	0.0
32	0x00000000	0.0
33	0xbe3678e1	-0.17819549
34	0x00000000	0.0
35	0x3e31c63e	0.1736078
36	0x00000000	0.0
37	0x3eb6fb9b	0.35738835
38	0x00000000	0.0
39	0xbf18083c	-0.59387565
40	0xbc0a57bc	-0.008443769
41	0x00000000	0.0
42	0x00000000	0.0
43	0xbef8961e	-0.4855203
44	0x00000000	0.0
45	0x3ea87d08	0.3290789
46	0x00000000	0.0
47	0x3f39f598	0.7264037
48	0x00000000	0.0
49	0xbfb684ae	-1.4259241
50	0x4103b7d7	8.232383
51	0x00000000	0.0
52	0x00000000	0.0
53	0x4112a330	9.164841
54	0x00000000	0.0
55	0x40d6545b	6.6977973
56	0x00000000	0.0
57	0x40b66aa9	5.70052
58	0x00000000	0.0
59	0x416d4ebb	14.831721
60	0x403324e7	2.7991273
61	0x00000000	0.0
62	0x00000000	0.0
63	0x4064d05b	3.575217
64	0x00000000	0.0
65	0x40756936	3.8345466
66	0x00000000	0.0
67	0x3f811bca	1.0086606
68	0x00000000	0.0
69	0x40a10bca	5.032689
70	0xbf97a135	-1.1846071
71	0x00000000	0.0
72	0x00000000	0.0
73	0xbff2c046	-1.8964927
74	0x00000000	0.0
75	0xbe2269c7	-0.15860663
76	0x00000000	0.0
77	0x3f19b464	0.6004088
78	0x00000000	0.0
79	0xc09ad232	-4.8381586

exp_avg_sq f4 [8, 10]
0	0x3b531798	0.0032210108
1	0x00000000	0.0
2	0x00000000	0.0
3	0x00000000	0.0
4	0x00000000	0.0
5	0x3b8c0cf8	0.004274007
6	0x00000000	0.0
7	0x3b902049	0.00439838
8	0x00000000	0.0
9	0x3b586ca5	0.0033023742
10	0x4122c4bc	10.173031
11	0x00000000	0.0
12	0x00000000	0.0
13	0x411653f7	9.395499
14	0x00000000	0.0
15	0x4117fcb8	9.499199
16	0x00000000	0.0
17	0x4111d80d	9.115247
18	0x00000000	0.0
19	0x41987126	19.055248
20	0x00000000	0.0
21	0x00000000	0.0
22	0x00000000	0.0
23	0x00000000	0.0
24	0x00000000	0.0
25	0x00000000	0.0
26	0x00000000	0.0
27	0x00000000	0.0
28	0x00000000	0.0
29	0x00000000	0.0
30	0x3d87fefd	0.06640432
31	0x00000000	0.0
32	0x00000000	0.0
33	0x3d83ea31	0.06441153
34	0x00000000	0.0
35	0x3d71d863	0.059044253
36	0x00000000	0.0
37	0x3d7293d1	0.059223
38	0x00000000	0.0
39	0x3e0ca7f7	0.13735949
40	0x3fbaa070	1.4580212
41	0x00000000	0.0
42	0x00000000	0.0
43	0x3fb01658	1.3756819
44	0x00000000	0.0
45	0x3fa7409a	1.306659
46	0x00000000	0.0
47	0x3fa20d9c	1.2660403
48	0x00000000	0.0
49	0x4031d79b	2.7787845
50	0x4287b198	67.84686
51	0x00000000	0.0
52	0x00000000	0.0
53	0x427a2178	62.532684
54	0x00000000	0.0
55	0x42700df4	60.013626
56	0x00000000	0.0
57	0x4266b5b2	57.677437
58	0x00000000	0.0
59	0x42f990a1	124.78248
60	0x4106d1e5	8.426244
61	0x00000000	0.0
62	0x00000000	0.0
63	0x412b1bd9	10.694299
64	0x00000000	0.0
65	0x4135d89b	11.365382
66	0x00000000	0.0
67	0x40e6e9e1	7.2160497
68	0x00000000	0.0
69	0x41979607	18.948256
70	0x4195f14f	18.742826
71	0x00000000	0.0
72	0x00000000	0.0
73	0x415b37c8	13.701118
74	0x00000000	0.0
75	0x417f1f20	15.945099
76	0x00000000	0.0
77	0x41838f9c	16.445122
78	0x00000000	0.0
79	0x41e81008	29.007828

exp_avg f4 [8]
0	0x3c42b7cc	0.011884641
1	0x3d972248	0.073795855
2	0x00000000	0.0
3	0xbb0973b3	-0.0020973503
4	0xbbd47cb9	-0.0064845947
5	0x3e9ecf80	0.31017685
6	0x3e029450	0.12751889
7	0xbd2ad7be	-0.041709654

exp_avg_sq f4 [8]
0	0x369cf12d	4.677239e-06
1	0x3c4eb0ec	0.012615424
2	0x00000000	0.0
3	0x38b1cf39	8.478616e-05
4	0x3aeea010	0.0018205661
5	0x3daa3380	0.08310604
6	0x3c4be486	0.012444621
7	0x3c9b3967	0.01894827

exp_avg f4 [4, 8]
0	0xbdc1835f	-0.09448885
1	0x40812dcb	4.03684
2	0x00000000	0.0
3	0x40a1d263	5.056932
4	0x402f34bd	2.737594
5	0x41241d81	10.257203
6	0x3fcb7955	1.5896403
7	0xc00aba0f	-2.167606
8	0x3dbd546d	0.092446186
9	0xc0884916	-4.2589216
10	0x00000000	0.0
11	0xc0adc294	-5.430002
12	0xc04e3d2a	-3.2224832
13	0xc1262237	-10.383353
14	0xbfcacbdc	-1.5843463
15	0x4003693d	2.0532982
16	0x3c5e9d69	0.013587334
17	0xbf41b316	-0.7566389
18	0x00000000	0.0
19	0xbf8022fc	-1.0010676
20	0xbf33d566	-0.70247495
21	0xbfd62ec4	-1.6733022
22	0xbe7b0a37	-0.24515615
23	0x3e8c2e26	0.27378958
24	0x3d48eec0	0.049055815
25	0xc01517bc	-2.3295736
26	0x00000000	0.0
27	0xc03f4474	-2.988553
28	0xbfea551b	-1.8307222
29	0xc0b2d52e	-5.588523
30	0xbf58e74f	-0.8472795
31	0x3f89a1a3	1.0752453

exp_avg_sq f4 [4, 8]
0	0x39930917	0.00028044797
1	0x42245840	41.08618
2	0x00000000	0.0
3	0x42afdb9c	87.928925
4	0x42cfa258	103.81708
5	0x426d19a4	59.27504
6	0x3f03dd00	0.51509094
7	0x3f602a94	0.8756497
8	0x3990d43f	0.00027623956
9	0x423fa558	47.91147
10	0x00000000	0.0
11	0x42cc222b	102.066734
12	0x42f0739a	120.225784
13	0x42894974	68.64346
14	0x3f16d861	0.5892392
15	0x3f788f06	0.97093236
16	0x36d9b06a	6.4876413e-06
17	0x3fd89436	1.692023
18	0x00000000	0.0
19	0x40649d89	3.5721152
20	0x4085f98f	4.1867137
21	0x401909e1	2.391228
22	0x3ca450ac	0.020057999
23	0x3cfe5ce9	0.031050162
24	0x38a4f578	7.8658515e-05
25	0x416a94a5	14.66129
26	0x00000000	0.0
27	0x41f96a06	31.17677
28	0x4212c27c	36.689926
29	0x41a794bf	20.94763
30	0x3e3741a1	0.17896129
31	0x3e953b59	0.2914684

exp_avg f4 [4]
0	0x3e84ce16	0.2593848
1	0xbe8c0315	-0.273461
2	0xbd469916	-0.048485838
3	0xbe191707	-0.1495019

exp_avg_sq f4 [4]
0	0x3e1b1b62	0.15147164
1	0x3e33cab5	0.17557795
2	0x3bc8b83f	0.0061254795
3	0x3d5b8b8a	0.05359987

exp_avg f4 [1, 4]
0	0x3ee76b9a	0.4519928
1	0x416ba403	14.727542
2	0x415e4564	13.891941
3	0x4132c36a	11.1727085

exp_avg_sq f4 [1, 4]
0	0x42318df9	44.388645
1	0x425a4f21	54.577274
2	0x43aff542	351.91608
3	0x439da8fb	315.32016
