deeper_null/lightning_logs/version_47/checkpoints/epoch=9-step=10.ckpt (torch, 14192 bytes, 21 tensors)

model.layers.0.weight f4 [10, 2]
0	0xbedd91f1	-0.43275407
1	0x3f0e66de	0.5562571
2	0x3f10d9cf	0.5658235
3	0x3ec5a969	0.38605812
4	0x3ea93d8e	0.33054775
5	0xbe400bda	-0.18754521
6	0xbeb51849	-0.3537009
7	0xbe1c1333	-0.15241699
8	0xbf2ab8e6	-0.6668838
9	0xbea3d067	-0.31994936
10	0x3f0cd51d	0.55012685
11	0x3f182eac	0.59446216
12	0xbf2f8b00	-0.6857147
13	0x3f15710a	0.5837561
14	0x3f04aa12	0.51822007
15	0xbe04dd3a	-0.12975016
16	0xbf14aa41	-0.58072287
17	0x3eb8dcc7	0.3610594
18	0xbeba94bb	-0.36441597
19	0xbecd3c44	-0.40085042

model.layers.0.bias f4 [10]
0	0xbe1c03b0	-0.15235782
1	0xbee71d20	-0.45139408
2	0xbdbdb16c	-0.09262356
3	0x3f2f77f4	0.6854241
4	0xbba30133	-0.004974508
5	0xbf2cbf17	-0.6747908
6	0x3f22cb48	0.6359143
7	0x3ef6307f	0.48083875
8	0xbf1e38b9	-0.618053
9	0x3e2fe265	0.17176206

model.layers.3.weight f4 [8, 10]
0	0x3da08cd6	0.07839362
1	0xbda9afee	-0.08285509
2	0xbe0b0fa8	-0.13580191
3	0x3d8a54f7	0.06754487
4	0xbe52a9c2	-0.2057257
5	0x3d10a1a0	0.035310388
6	0xbe700392	-0.23438862
7	0xbe4be813	-0.19912748
8	0xbe8d8975	-0.27643934
9	0x3e03190e	0.12802526
10	0xbd183e34	-0.037168697
11	0xbe13f414	-0.14448577
12	0x3e887d4b	0.2665809
13	0x3e7aeb26	0.24503765
14	0x3e191843	0.14950661
15	0x3e90a18e	0.28248256
16	0x3e7c9618	0.24666631
17	0xbadcd710	-0.0016848762
18	0xbe4ccf92	-0.20001057
19	0xbd02d8be	-0.031944983
20	0xbe33eaf8	-0.17570102
21	0xbe5c4f6c	-0.21514672
22	0xbd26fb04	-0.04076673
23	0xbe7cc0dd	-0.24682947
24	0xbe950f4b	-0.2911323
25	0x3dccbee9	0.09997351
26	0xbe650126	-0.2236372
27	0x3e7c158c	0.24617594
28	0xbda7f383	-0.08200743
29	0x3e57618d	0.21033306
30	0xbd246fb0	-0.040145576
31	0xbe1b149c	-0.1514458
32	0xbc7b28d3	-0.0153295575
33	0xbe410454	-0.18849307
34	0xbc0044c6	-0.007828897
35	0x3e6688a6	0.22513065
36	0x3d973520	0.0738318
37	0x3cbf1662	0.023326103
38	0x3e91a978	0.28449607
39	0xbd48d1c8	-0.049028188
40	0x3e18096f	0.14847349
41	0xbe5c9eb8	-0.21544921
42	0x3d3d7990	0.04625851
43	0x3e516dde	0.20452067
44	0xbe2c2a58	-0.16813028
45	0x3e911d7d	0.2834281
46	0x3e7b3724	0.24532753
47	0x3de2fa4c	0.110828966
48	0xbe5a71b8	-0.21332443
49	0xbe88e8d1	-0.26740125
50	0xbe646d09	-0.22307219
51	0x3e51dbf0	0.20494056
52	0xbe127da5	-0.14305742
53	0xbc8ec63d	-0.017428512
54	0xbe98d05e	-0.29846472
55	0x3e24f0ee	0.16107532
56	0x3ceb4c7d	0.028722996
57	0x3e98db4f	0.2985482
58	0xbdfe902e	-0.12429844
59	0x3e3fcc22	0.18730214
60	0xbe1acabd	-0.15116401
61	0xbd943522	-0.07236697
62	0x3e04680e	0.12930319
63	0xbe09fdce	-0.13475725
64	0x3e77573c	0.24154371
65	0x3d0d5779	0.03450725
66	0xbd42abc2	-0.047527082
67	0x3e41e7ce	0.18936083
68	0xbd3dde80	-0.04635477
69	0xbea05b19	-0.31319502
70	0x3c3c8936	0.011507323
71	0xbe13fd85	-0.14452179
72	0x3e27713a	0.16351786
73	0xbe5f4b12	-0.21805981
74	0xbdc8bb91	-0.098014005
75	0x3d36c02e	0.04461687
76	0xbd309e7c	-0.043119892
77	0xbe134691	-0.14382388
78	0x3e9f031c	0.3105706
79	0x3e9050df	0.281867

model.layers.3.bias f4 [8]
0	0xbdacf5b5	-0.084453024
1	0x3d88cd65	0.06679801
2	0x3e317c0e	0.1733248
3	0x3e87f216	0.26551884
4	0xbccd17df	-0.025035797
5	0x3e9c134e	0.30483478
6	0xbde15ed8	-0.11004418
7	0x3e7c57b1	0.24642827

model.layers.6.weight f4 [4, 8]
0	0xbeb5e6ce	-0.35527653
1	0x3e7488f9	0.23880376
2	0xbe82088f	-0.25397155
3	0xbdb2b9e6	-0.087268636
4	0x3ea1daff	0.31612393
5	0xbdd0b4d4	-0.1019074
6	0x3d6b94e5	0.057515044
7	0xbc8a330c	-0.016870044
8	0xbe81c339	-0.25344256
9	0xbe5fb799	-0.2184738
10	0x3e1c770f	0.15279792
11	0xbeb59ee4	-0.35472786
12	0x3daa378b	0.08311375
13	0x3e4ef12c	0.20209187
14	0xbda94f2b	-0.08267053
15	0x3d9db17d	0.07699869
16	0xbdc82ef3	-0.0977458
17	0xbe4724f4	-0.1944769
18	0x3e538352	0.20655563
19	0xbd4c0dda	-0.049817897
20	0x3e52e5b6	0.2059544
21	0x3d64f7d0	0.055900395
22	0xbeaa4a4f	-0.33259818
23	0xbe91677a	-0.2839926
24	0x3e8ec57f	0.27885053
25	0x3e97df2e	0.2966246
26	0xbe27f372	-0.16401461
27	0x3e1c4e25	0.15264185
28	0xbd104983	-0.035226356
29	0xbe543fe2	-0.20727494
30	0x3e461925	0.1934553
31	0x3ea6bc55	0.3256556

model.layers.6.bias f4 [4]
0	0xbe993eb2	-0.29930645
1	0x3d5a3d4c	0.053281114
2	0xbd0be613	-0.034154963
3	0x3e6567f3	0.22402935

model.layers.7.weight f4 [1, 4]
0	0x3ebbabd3	0.3665453
1	0x3ec4ccc3	0.3843747
2	0x3ef09002	0.4698487
3	0x3eb02618	0.34404063

exp_avg f4 [10, 2]
0	0x00000000	0.0
1	0x00000000	0.0
2	0xbfec77ca	-1.8474057
3	0xbcb6ff6d	-0.022338593
4	0x3f362f27	0.711657
5	0x3c079fc5	0.008277838
6	0x00000000	0.0
7	0x00000000	0.0
8	0x00000000	0.0
9	0x00000000	0.0
10	0x4063b18a	3.5577111
11	0x3d2dfc37	0.04247686
12	0x00000000	0.0
13	0x00000000	0.0
14	0x3f90d7b8	1.1315832
15	0x3c50f12d	0.012752813
16	0x00000000	0.0
17	0x00000000	0.0
18	0x00000000	0.0
19	0x00000000	0.0

exp_avg_sq f4 [10, 2]
0	0x00000000	0.0
1	0x00000000	0.0
2	0x3de53a2c	0.11192736
3	0x37808341	1.5319909e-05
4	0x3ca16527	0.019701554
5	0x362c4154	2.5668023e-06
6	0x00000000	0.0
7	0x00000000	0.0
8	0x00000000	0.0
9	0x00000000	0.0
10	0x3ee548be	0.4478206
11	0x387c71c8	6.018745e-05
12	0x00000000	0.0
13	0x00000000	0.0
14	0x3d495bfe	0.049159996
15	0x36d1895c	6.244676e-06
16	0x00000000	0.0
17	0x00000000	0.0
18	0x00000000	0.0
19	0x00000000	0.0

exp_avg f4 [10]
0	0x00000000	0.0
1	0xbd13cc8b	-0.03608374
2	0x3c635fc0	0.013877809
3	0x00000000	0.0
4	0x00000000	0.0
5	0x3d8e4a3c	0.06947753
6	0x00000000	0.0
7	0x3cb498f3	0.022045588
8	0x00000000	0.0
9	0x00000000	0.0

exp_avg_sq f4 [10]
0	0x00000000	0.0
1	0x3832a909	4.2595933e-05
2	0x36fac3a0	7.4733543e-06
3	0x00000000	0.0
4	0x00000000	0.0
5	0x39325c65	0.00017009822
6	0x00000000	0.0
7	0x379c69f7	1.8645993e-05
8	0x00000000	0.0
9	0x00000000	0.0

exp_avg f4 [8, 10]
0	0x00000000	0.0
1	0x00000000	0.0
2	0x00000000	0.0
3	0x00000000	0.0
4	0x00000000	0.0
5	0xbb8ffb62	-0.004393981
6	0x00000000	0.0
7	0x00000000	0.0
8	0x00000000	0.0
9	0x00000000	0.0
10	0x00000000	0.0
11	0x3f1039e1	0.56338316
12	0x3ec6a04b	0.3879417
13	0x00000000	0.0
14	0x00000000	0.0
15	0x3f3dcc68	0.74140024
16	0x00000000	0.0
17	0x3f226bbd	0.63445646
18	0x00000000	0.0
19	0x00000000	0.0
20	0x00000000	0.0
21	0x3e96e6c0	0.29472923
22	0x3e52a3ef	0.20570348
23	0x00000000	0.0
24	0x00000000	0.0
25	0x3ec9061d	0.39262477
26	0x00000000	0.0
27	0x3eb5b30f	0.35488173
28	0x00000000	0.0
29	0x00000000	0.0
30	0x00000000	0.0
31	0xc0448b1d	-3.0709908
32	0xc0085df3	-2.1307342
33	0x00000000	0.0
34	0x00000000	0.0
35	0xc075645f	-3.8342512
36	0x00000000	0.0
37	0xc05e35eb	-3.472041
38	0x00000000	0.0
39	0x00000000	0.0
40	0x00000000	0.0
41	0x40e8e1c5	7.2775598
42	0x409fd159	4.994305
43	0x00000000	0.0
44	0x00000000	0.0
45	0x4110095d	9.002286
46	0x00000000	0.0
47	0x4102a802	8.166018
48	0x00000000	0.0
49	0x00000000	0.0
50	0x00000000	0.0
51	0x3d9e0ddc	0.07717487
52	0x3d50993d	0.05092739
53	0x00000000	0.0
54	0x00000000	0.0
55	0x3dbf087e	0.09327792
56	0x00000000	0.0
57	0x3daca51b	0.08429929
58	0x00000000	0.0
59	0x00000000	0.0
60	0x00000000	0.0
61	0xbfefe05a	-1.8740342
62	0xbfa9cc69	-1.3265506
63	0x00000000	0.0
64	0x00000000	0.0
65	0xc025edaa	-2.5926309
66	0x00000000	0.0
67	0xc00937be	-2.1440272
68	0x00000000	0.0
69	0x00000000	0.0
70	0x00000000	0.0
71	0x3c8ee0f7	0.017441256
72	0x3d401502	0.046895035
73	0x00000000	0.0
74	0x00000000	0.0
75	0x3d9f5f03	0.07781794
76	0x00000000	0.0
77	0x3d5b3c8f	0.05352455
78	0x00000000	0.0
79	0x00000000	0.0

exp_avg_sq f4 [8, 10]
0	0x00000000	0.0
1	0x00000000	0.0
2	0x00000000	0.0
3	0x00000000	0.0
4	0x00000000	0.0
5	0x36327da6	2.6597204e-06
6	0x00000000	0.0
7	0x00000000	0.0
8	0x00000000	0.0
9	0x00000000	0.0
10	0x00000000	0.0
11	0x3c79c2b7	0.015244178
12	0x3be290af	0.0069142203
13	0x00000000	0.0
14	0x00000000	0.0
15	0x3cc5f4f8	0.024164662
16	0x00000000	0.0
17	0x3c9851d2	0.018593702
18	0x00000000	0.0
19	0x00000000	0.0
20	0x00000000	0.0
21	0x3b9a9803	0.0047178282
22	0x3b0f4030	0.0021858327
23	0x00000000	0.0
24	0x00000000	0.0
25	0x3bfbec21	0.007688061
26	0x00000000	0.0
27	0x3bd7afc0	0.0065822303
28	0x00000000	0.0
29	0x00000000	0.0
30	0x00000000	0.0
31	0x3eb05057	0.34436294
32	0x3e22258a	0.15834633
33	0x00000000	0.0
34	0x00000000	0.0
35	0x3f040ac5	0.51578933
36	0x00000000	0.0
37	0x3eda9c0f	0.42697188
38	0x00000000	0.0
39	0x00000000	0.0
40	0x00000000	0.0
41	0x3fe99a6e	1.8250253
42	0x3f560ead	0.83616143
43	0x00000000	0.0
44	0x00000000	0.0
45	0x402e1fe8	2.7206974
46	0x00000000	0.0
47	0x400fd25b	2.247214
48	0x00000000	0.0
49	0x00000000	0.0
50	0x00000000	0.0
51	0x3a615368	0.00085954973
52	0x39d05c5d	0.00039741668
53	0x00000000	0.0
54	0x00000000	0.0
55	0x3ab2e91e	0.0013649797
56	0x00000000	0.0
57	0x3a8c1062	0.0010686035
58	0x00000000	0.0
59	0x00000000	0.0
60	0x00000000	0.0
61	0x3e0daf5b	0.13836424
62	0x3d84bb81	0.06481076
63	0x00000000	0.0
64	0x00000000	0.0
65	0x3e6e6d43	0.23283868
66	0x00000000	0.0
67	0x3e30197e	0.17197224
68	0x00000000	0.0
69	0x00000000	0.0
70	0x00000000	0.0
71	0x379caddf	1.8677614e-05
72	0x38eb7c11	0.000112287824
73	0x00000000	0.0
74	0x00000000	0.0
75	0x39a12f0c	0.00030743366
76	0x00000000	0.0
77	0x39133823	0.00014039925
78	0x00000000	0.0
79	0x00000000	0.0

exp_avg f4 [8]
0	0xb90c75ff	-0.00013395397
1	0x3cb94256	0.02261464
2	0x3c443b11	0.011976973
3	0xbdfc457f	-0.12317943
4	0x3e940e6d	0.28917256
5	0x3b3fe75e	0.0029282193
6	0xbd9dc83e	-0.07704209
7	0x3b22a204	0.0024815807

exp_avg_sq f4 [8]
0	0x310f9ba6	2.0897715e-09
1	0x37c242bf	2.3157683e-05
2	0x36f61538	7.3338415e-06
3	0x3a0a40b9	0.00052739267
4	0x3b365687	0.002782257
5	0x35af7a44	1.30741e-06
6	0x3961ef5d	0.00021546842
7	0x34a67177	3.1002466e-07

exp_avg f4 [4, 8]
0	0x398ce3d0	0.00026872614
1	0x4072c904	3.793519
2	0x3fdf1ec0	1.7431259
3	0x3f93d630	1.154974
4	0x405e15a8	3.4700718
5	0x40b9b6f5	5.8035836
6	0x3ff8ed35	1.944739
7	0x3dac4215	0.08411042
8	0x399367d8	0.00028115395
9	0x407e1737	3.970167
10	0x3fe98249	1.8242885
11	0x3f9abab0	1.2088223
12	0x40686ed6	3.631765
13	0x40c25a4c	6.0735226
14	0x40024153	2.035237
15	0x3db447ce	0.08802758
16	0x39b29c62	0.0003406732
17	0x409a2a8d	4.817694
18	0x400dacef	2.21368
19	0x3fbbcef8	1.4672537
20	0x408d0b7e	4.407653
21	0x40ebc937	7.3683124
22	0x401e0a51	2.4693797
23	0x3ddac5d9	0.10682268
24	0x39846e32	0.00025259104
25	0x40642877	3.5649698
26	0x3fd1adc5	1.6381155
27	0x3f8aec8f	1.0853442
28	0x4050b340	3.2609406
29	0x40ae8847	5.4541354
30	0x3fe9ef23	1.8276104
31	0x3da1e148	0.07904297

exp_avg_sq f4 [4, 8]
0	0x322d6c67	1.0094573e-08
1	0x3f024234	0.5088227
2	0x3de11652	0.109905854
3	0x3d2db174	0.04240556
4	0x3ed06495	0.40701738
5	0x3fa54165	1.2910582
6	0x3e0d84d3	0.138202
7	0x39874c85	0.00025806218
8	0x323dd4b9	1.10496154e-08
9	0x3f0e9308	0.556931
10	0x3df65c82	0.12029363
11	0x3d3e245a	0.046421386
12	0x3ee41b92	0.44552284
13	0x3fb4ddc4	1.4130177
14	0x3e1ae52c	0.15126485
15	0x3994161e	0.00028245238
16	0x328b5621	1.6220897e-08
17	0x3f5143e4	0.8174422
18	0x3e34c64f	0.17653774
19	0x3d8ba27a	0.06818099
20	0x3f2771d2	0.6540805
21	0x4004afa1	2.0732195
22	0x3e635283	0.22199444
23	0x39d953c2	0.0004145187
24	0x32193983	8.918849e-09
25	0x3ee6332f	0.44960925
26	0x3dc6e62f	0.09711873
27	0x3d19762d	0.037466217
28	0x3eb82259	0.35963705
29	0x3f920867	1.1408814
30	0x3dfa1a8c	0.12212095
31	0x396f1e20	0.00022804039

exp_avg f4 [4]
0	0x3eae3aef	0.34029338
1	0x3eb656d9	0.35613135
2	0x3edd3db8	0.4321115
3	0x3ea3bc65	0.3197967

exp_avg_sq f4 [4]
0	0x3b8a6580	0.0042235255
1	0x3b977a23	0.004622714
2	0x3bde4d30	0.006784104
3	0x3b74964b	0.0037321027

exp_avg f4 [1, 4]
0	0x4027c085	2.6211255
1	0x3f9ad189	1.2095195
2	0x3d55d9a8	0.052209526
3	0x3f38f86a	0.7225405

exp_avg_sq f4 [1, 4]
0	0x3e6e05f2	0.23244455
1	0x3da14284	0.07874015
2	0x3a9a730a	0.0011783552
3	0x3c82c1f6	0.015961628
