deeper_null/lightning_logs/version_21/checkpoints/epoch=9-step=10.ckpt (torch, 13936 bytes, 21 tensors)

model.layers.0.weight f4 [10, 2]
0.2700051 -0.30187124 0.5013926 -0.3941108 0.5631831 0.09378497 -0.11626882 -0.09103112
-0.6759077 -0.30957738 0.27810946 -0.28663832 0.33435333 0.46054378 0.25533497 0.29047826
0.30104658 -0.1534976 -0.48496556 -0.32473725
00000000: 1c3e 8a3e de8e 9abe 445b 003f e4c8 c9be
00000010: c52c 103f 5612 c03d 591e eebd 866e babd
00000020: 4908 2dbf ed80 9ebe 5d64 8e3e 42c2 92be
00000030: 5c30 ab3e 65cc eb3e 44bb 823e 91b9 943e
00000040: c722 9a3e 7a2e 1dbe 684d f8be f643 a6be

model.layers.0.bias f4 [10]
0.19518898 -0.022250785 0.083982244 0.51282954 -0.32726386 -0.60753095 -0.5820728 -0.29066387
-0.3253696 -0.66340184
00000000: 9fdf 473e 4747 b6bc e2fe ab3d cc48 033f
00000010: 218f a7be 2687 1bbf b902 15bf e5d1 94be
00000020: d896 a6be b4d4 29bf

model.layers.3.weight f4 [8, 10]
-0.22715706 0.2579491 0.1538073 -0.31393412 -0.1786522 0.22441055 -0.15263145 0.016095405
0.18471351 -0.2605518 0.212532 -0.02251838 0.23198672 0.032554474 -0.003119752 -0.034246992
0.17135608 0.063013546 0.08393698 -0.10797468 0.13598482 -0.04041435 0.0853629 0.13497122
-0.09965851 0.31939042 0.07435999 0.20027834 0.04896648 0.15573353 -0.18730134 -0.12966384
-0.10326804 -0.20773965 -0.2736648 0.018769853 -0.14511368 0.32410687 0.28682923 -0.019842796
-0.2764339 0.07054254 0.25895476 0.0867781 -0.20172067 0.2940544 -0.05428573 0.07733197
0.22032943 0.12382684 -0.2731432 0.011685936 0.058493495 0.08594559 0.17997657 -0.20235634
-0.298923 0.18130705 -0.26039505 -0.073983565 0.29197907 -0.08963333 -0.16638061 -0.21702456
-0.2336646 0.08811263 -0.064282626 0.13757588 0.30183673 -0.30585957 0.038037438 -0.026513215
0.17984909 0.103516676 -0.14948724 0.0040383823 -0.12479327 -0.27348658 0.23543648 0.27631366
00000000: dc9b 68be e811 843e a97f 1d3e f9bb a0be
00000010: 9af0 36be e1cb 653e 6b4b 1cbe 83da 833c
00000020: 8a25 3d3e 0c67 85be fda1 593e 7778 b8bc
00000030: ed8d 6d3e d757 053d c174 4cbb 9346 0cbd
00000040: f877 2f3e 3f0d 813d 27e7 ab3d d421 ddbd
00000050: 9b3f 0b3e 8489 25bd bed2 ae3d e535 0a3e
00000060: c319 ccbd 2487 a33e 0d4a 983d c415 4d3e
00000070: 1391 483d 9c78 1f3e eccb 3fbe 99c6 04be
00000080: 327e d3bd b4b9 54be cb1d 8cbe 3cc3 993c
00000090: ae98 14be 56f1 a53e 48db 923e 5c8d a2bc
000000a0: bf88 8dbe 9b78 903d b895 843e b7b8 b13d
000000b0: dd8f 4ebe 4c8e 963e b75a 5ebd 3960 9e3d
000000c0: 0a9e 613e ed98 fd3d 6dd9 8bbe 5e76 3f3c
000000d0: e096 6f3d 3e04 b03d c74b 383e 8036 4fbe
000000e0: 6f0c 99be 8ea8 393e 8052 85be b284 97bd
000000f0: 487e 953e ae91 b7bd ae5f 2abe b03b 5ebe
00000100: c645 6fbe 6574 b43d 9ca6 83bd b1e0 0c3e
00000110: 588a 9a3e a099 9cbe 25cd 1b3d 3e32 d9bc
00000120: 5c2a 383e 8d00 d43d 2f13 19be 6854 843b
00000130: 9d93 ffbd 6f06 8cbe 4316 713e fc78 8d3e

model.layers.3.bias f4 [8]
0.08337493 -0.19429237 -0.25878736 -0.11010914 -0.32247105 0.23335065 -0.21285856 0.20860623
00000000: 7ac0 aa3d 94f4 46be c77f 84be e780 e1bd
00000010: ed1a a5be 79f3 6e3e 98f7 59be df9c 553e

model.layers.6.weight f4 [4, 8]
-0.013454787 -0.24843168 0.2664624 0.06019588 -0.34123436 0.18314482 -0.2996293 -0.10206341
0.100126095 -0.10378759 -0.32518888 0.118744366 0.28522402 0.12646063 -0.18893266 0.18406333
-0.32067758 -0.12775363 0.037084576 -0.14702713 -0.28761488 -0.1694815 -0.35484663 -0.09496985
0.33212796 -0.3239819 0.26905972 0.036137808 0.25052735 0.17648844 0.042648043 0.26696035
00000000: 7871 5cbc e064 7ebe c26d 883e f48f 763d
00000010: 45b6 aebe 518a 3b3e 0369 99be 9f06 d1bd
00000020: e90e cd3d 978e d4bd 287f a6be 3f30 f33d
00000030: e208 923e e57e 013e 9077 41be 197b 3c3e
00000040: da2f a4be d9d1 02be ffe5 173d 488e 16be
00000050: 4242 93be 8f8c 2dbe 75ae b5be 8d7f c2bd
00000060: ad0c aa3e f5e0 a5be 32c2 893e 3d05 143d
00000070: 1f45 803e 63b9 343e b7af 2e3d 07af 883e

model.layers.6.bias f4 [4]
-0.328728 -0.3264673 0.21095808 -0.30293915
00000000: 094f a8be b926 a7be 6505 583e d71a 9bbe

model.layers.7.weight f4 [1, 4]
0.48806062 -0.21622778 -0.34659708 0.004843477
00000000: 15e3 f93e d16a 5dbe 2c75 b1be 08b6 9e3b

exp_avg f4 [10, 2]
-1.4924885 -0.011348246 0.058657214 0.0007683479 3.1130023 0.026962647 0.0 0.0
0.0 0.0 0.14165062 0.005924175 -0.10395727 -0.00074488163 -1.031799 -0.005680839
2.1811638 0.019348923 0.0 0.0
00000000: dd09 bfbf feed 39bc 8c42 703d f46a 493a
00000010: 6e3b 4740 c5e0 dc3c 0000 0000 0000 0000
00000020: 0000 0000 0000 0000 dc0c 113e 951f c23b
00000030: 8de7 d4bd 2944 43ba fd11 84bf 5526 babb
00000040: 3098 0b40 a281 9e3c 0000 0000 0000 0000

exp_avg_sq f4 [10, 2]
0.090894505 6.5870136e-06 0.00059077714 6.185295e-08 0.34828293 2.7730983e-05 0.0 0.0
0.0 0.0 0.010923403 1.5097803e-06 0.00067324785 5.4350906e-08 0.06527354 4.3523446e-06
0.18466808 1.5056563e-05 0.0 0.0
00000000: e626 ba3d 0406 dd36 62de 1a3a 05d4 8433
00000010: 2452 b23e d59f e837 0000 0000 0000 0000
00000020: 0000 0000 0000 0000 13f8 323c a8a3 ca35
00000030: e67c 303a 746f 6933 22ae 853d 5b0a 9236
00000040: a119 3d3e 729b 7c37 0000 0000 0000 0000

exp_avg f4 [10]
-0.029648794 0.001104243 0.061021462 0.0 0.0 0.0020201004 -0.0021255976 -0.020795107
0.042733885 0.0
00000000: 07e2 f2bc 3fbc 903a a4f1 793d 0000 0000
00000010: 0000 0000 a963 043b 9c4d 0bbb 805a aabc
00000020: ba09 2f3d 0000 0000

exp_avg_sq f4 [10]
3.524422e-05 2.1913807e-07 0.00013327676 0.0 0.0 4.1461176e-06 2.6290846e-07 2.5594809e-05
7.0560985e-05 0.0
00000000: 31d3 1338 374c 6b34 35c0 0b39 0000 0000
00000010: 0000 0000 e11e 8b36 dd25 8d34 6fb4 d637
00000020: 24fa 9338 0000 0000

exp_avg f4 [8, 10]
-0.76329684 -1.515001 -2.0532143 0.0 0.0 -0.7235237 -0.9862052 -0.67976975
-0.9750306 0.0 0.83850664 1.6605844 2.1604297 0.0 0.0 0.8074487
1.06781 0.756335 1.0449876 0.0 -1.4148912 -2.9607491 -4.1156054 0.0
0.0 -1.3200037 -1.868838 -1.2401288 -1.9276035 0.0 -0.009011795 0.028336652
-0.10768698 0.0 0.0 -0.017955609 -0.018351773 -0.022231067 -0.027893787 0.0
2.1530576 4.2849493 5.505937 0.0 0.0 2.1095173 2.7308147 1.9669839
2.677926 0.0 -0.0019517061 -0.0072630816 -0.009721237 0.0 0.0 -8.500833e-05
0.0 -0.0042196508 -0.0025350812 0.0 -0.10038286 -0.16572334 -0.23535056 0.0
0.0 -0.08170057 -0.11040039 -0.07610114 -0.114480235 0.0 0.8382906 1.656596
2.1077645 0.0 0.0 0.8102277 1.0635679 0.7518412 1.049222 0.0
00000000: 6c67 43bf 8eeb c1bf dd67 03c0 0000 0000
00000010: 0000 0000 d938 39bf f277 7cbf 6405 2ebf
00000020: 9b9b 79bf 0000 0000 5fa8 563f 088e d43f
00000030: 7b44 0a40 0000 0000 0000 0000 f5b4 4e3f
00000040: 00ae 883f 2c9f 413f 27c2 853f 0000 0000
00000050: 281b b5bf ea7c 3dc0 0ab3 83c0 0000 0000
00000060: 0000 0000 e2f5 a8bf 1536 efbf 8abc 9ebf
00000070: b6bb f6bf 0000 0000 35a6 13bc 4422 e83c
00000080: fe8a dcbd 0000 0000 0000 0000 a417 93bc
00000090: 7556 96bc ed1d b6bc 8381 e4bc 0000 0000
000000a0: b2cb 0940 4e1e 8940 a330 b040 0000 0000
000000b0: 0000 0000 5502 0740 abc5 2e40 21c6 fb3f
000000c0: 2463 2b40 0000 0000 64d0 ffba 25ff edbb
000000d0: d345 1fbc 0000 0000 0000 0000 8046 b2b8
000000e0: 0000 0000 ff44 8abb 9b23 26bb 0000 0000
000000f0: 8795 cdbd 61b3 29be bdff 70be 0000 0000
00000100: 0000 0000 a152 a7bd 9a19 e2bd eada 9bbd
00000110: 9d74 eabd 0000 0000 369a 563f 560b d43f
00000120: 9de5 0640 0000 0000 0000 0000 156b 4f3f
00000130: fe22 883f aa78 403f e84c 863f 0000 0000

exp_avg_sq f4 [8, 10]
0.025089761 0.097306356 0.16065177 0.0 0.0 0.023167057 0.039592367 0.02034742
0.038710386 0.0 0.028719341 0.11198087 0.17823975 0.0 0.0 0.026811961
0.045120537 0.023592334 0.04369183 0.0 0.12018951 0.48596755 0.81097835 0.0
0.0 0.110237546 0.19348869 0.09737554 0.19520412 0.0 1.114993e-05 4.1958752e-05
0.0002901922 0.0 0.0 2.1024149e-05 1.7681281e-05 2.5369009e-05 3.8252503e-05 0.0
0.1784623 0.702662 1.1009009 0.0 0.0 0.17157522 0.279544 0.14978044
0.27131978 0.0 1.8393726e-07 2.3174193e-06 4.011413e-06 0.0 0.0 3.881427e-08
0.0 7.385889e-07 3.2081044e-07 0.0 0.0002770501 0.0007842985 0.0014353179 0.0
0.0 0.00019624346 0.00033267646 0.00017010479 0.0003609784 0.0 0.029349538 0.11459065
0.18116903 0.0 0.0 0.027606323 0.045866985 0.023990946 0.045014285 0.0
00000000: 0b89 cd3c 8e48 c73d e681 243e 0000 0000
00000010: 0000 0000 d7c8 bd3c 9b2b 223d a2af a63c
00000020: c88e 1e3d 0000 0000 d344 eb3c 3a56 e53d
00000030: 7b84 363e 0000 0000 0000 0000 c2a4 db3c
00000040: 50d0 383d b644 c13c 34f6 323d 0000 0000
00000050: eb25 f63d bdd0 f83e 479c 4f3f 0000 0000
00000060: 0000 0000 39c4 e13d e621 463e d46c c73d
00000070: 97e3 473e 0000 0000 9610 3b37 defc 2f38
00000080: f024 9839 0000 0000 0000 0000 045d b037
00000090: 4352 9437 88cf d437 5071 2038 0000 0000
000000a0: d2be 363e a8e1 333f 52ea 8c3f 0000 0000
000000b0: 0000 0000 6ab1 2f3e 6420 8f3e 0b60 193e
000000c0: 6dea 8a3e 0000 0000 4a80 4534 f684 1b36
000000d0: c699 8636 0000 0000 0000 0000 beb4 2633
000000e0: 0000 0000 7143 4635 da3b ac34 0000 0000
000000f0: 0941 9139 6299 4d3a 4721 bc3a 0000 0000
00000100: 0000 0000 b4c6 4d39 146b ae39 285e 3239
00000110: b341 bd39 0000 0000 716e f03c 81ae ea3d
00000120: 6084 393e 0000 0000 0000 0000 a826 e23c
00000130: 05df 3b3d a988 c43c e660 383d 0000 0000

exp_avg f4 [8]
-0.06097022 0.06541802 -0.11853835 -0.0015888303 0.1678866 -0.00030597276 -0.006872532 0.0653925
00000000: e9bb 79bd e2f9 853d 3cc4 f2bd 4c40 d0ba
00000010: 77ea 2b3e f86a a0b9 fa32 e1bb 81ec 853d

exp_avg_sq f4 [8]
0.00015038117 0.00016918844 0.0007423732 1.2532544e-07 0.0010536814 3.985006e-09 1.28305e-06 0.00017352795
00000000: a3af 1d39 2d68 3139 d29b 423a 3291 0634
00000010: ae1b 8a3a 7cec 8831 4335 ac35 0ef5 3539

exp_avg f4 [4, 8]
-4.63905 -7.7395935 -3.2309527 -0.025754789 -8.539231 -0.0006825653 -0.8094069 -2.580895
2.0872474 3.4799519 1.4562789 0.01159203 3.8384035 0.00030728534 0.3642775 1.1606979
3.2024584 5.349761 2.2227108 0.017766517 5.905767 0.00047060812 0.55846375 1.7832109
0.006232297 0.0063970694 0.008804877 4.2022548e-05 0.005146956 1.2738868e-06 0.0012524051 0.0025732506
00000000: 1973 94c0 c0aa f7c0 eec7 4ec0 b5fb d2bc
00000010: b1a0 08c1 2fee 32ba 4a35 4fbf 622d 25c0
00000020: 7695 0540 88b7 5e40 5967 ba3f 7fec 3d3c
00000030: 67a8 7540 241b a139 9582 ba3e c091 943f
00000040: 14f5 4c40 3e31 ab40 e540 0e40 168b 913c
00000050: 0bfc bc40 f4bb f639 7bf7 0e3f 4140 e43f
00000060: 4c38 cc3b 829e d13b 5542 103c 5e41 3038
00000070: cca7 a83b 6bfa aa35 be27 a43a fba3 283b

exp_avg_sq f4 [4, 8]
0.9162373 2.2993221 0.59423065 3.2960976e-05 2.6598973 8.416158e-08 0.02873108 0.26637915
0.18688211 0.4686748 0.12138939 6.720425e-06 0.541798 1.7240355e-08 0.0058567766 0.054324668
0.43020773 1.0810626 0.2781466 1.5487754e-05 1.2523338 3.9169436e-08 0.0135062635 0.12511127
3.087248e-05 7.8860256e-05 2.1473132e-05 1.0494473e-09 8.864631e-05 3.4623916e-12 8.994101e-07 9.37573e-06
00000000: 878e 6a3f 1828 1340 801f 183f 943f 0a38
00000010: c23b 2a40 51bc b433 715d eb3c d962 883e
00000020: 065e 3f3e 25f6 ef3e 009b f83d 0380 e136
00000030: 46b3 0a3f f117 9432 34ea bf3b 8b83 5e3d
00000040: 3044 dc3e 4260 8a3f 3b69 8e3e b3eb 8137
00000050: 794c a03f 403b 2833 6049 5d3c 2b1d 003e
00000060: 137d 0138 c761 a538 3321 b437 253c 9030
00000070: a0e7 b938 e7a4 732c fe6e 7135 744c 1d37

exp_avg f4 [4]
-0.46952215 0.21116008 0.3243982 0.00047165013
00000000: 3565 f0be 593a 583e 8517 a63e cf47 f739

exp_avg_sq f4 [4]
0.00875635 0.0017852113 0.004115135 2.9834547e-07
00000000: cb76 0f3c c0fd e93a 41d8 863b 4a2c a034

exp_avg f4 [1, 4]
9.832676 -2.7845178 10.322943 -5.482862
00000000: a452 1d41 8a35 32c0 c62a 2541 9b73 afc0

exp_avg_sq f4 [1, 4]
3.4391341 0.22500452 4.0083976 1.3770543
00000000: c61a 5c40 9667 663e cb44 8040 5143 b03f
