deeper_null/lightning_logs/version_33/checkpoints/epoch=9-step=10.ckpt (torch, 13936 bytes, 21 tensors)

model.layers.0.weight f4 [10, 2]
-0.12930839 0.605704 0.24821676 0.35738534 -0.13828364 -0.18082431 0.1734191 -0.068927065
-0.6974076 0.48846394 0.6960669 -0.5521807 -0.017589903 0.33564502 -0.36815912 0.5478416
0.6457038 0.38587984 -0.5556875 -0.46536848
00000000: 6b69 04be 6b0f 1b3f 892c 7e3e 36fb b63e
00000010: 3a9a 0dbe 022a 39be c794 313e a229 8dbd
00000020: 4e89 32bf f217 fa3e 7131 323f b75b 0dbf
00000030: b318 90bc aad9 ab3e 5a7f bcbe 593f 0c3f
00000040: d84c 253f 0b92 c53e 8941 0ebf c744 eebe

model.layers.0.bias f4 [10]
0.057837445 0.12811182 0.23875077 -0.60532486 -0.39503786 0.39818773 -0.05233138 -0.40922245
0.36829624 0.41093227
00000000: f5e6 6c3d bf2f 033e 157b 743e 92f6 1abf
00000010: 6742 cabe 43df cb3e 6e59 56bd 9b85 d1be
00000020: 5391 bc3e b765 d23e

model.layers.3.weight f4 [8, 10]
0.056951176 -0.12717666 0.145162 -0.028425334 0.124074064 0.2621025 -0.17668885 -0.017702647
0.25558782 0.23016478 -0.12060199 -0.23155437 0.01236931 0.2726858 0.18816541 -0.21420315
-0.04065185 0.28679606 -0.23646286 0.29709163 0.24481983 0.10454496 -0.20222725 0.053393412
-0.20195402 -0.051828798 -0.025646294 -0.19318774 0.16492896 0.019773131 -0.099515036 0.17119728
0.2484877 -0.04106783 -0.31095353 0.0857609 -0.039810296 0.23973349 0.2658324 0.29133648
0.026166515 -0.29941925 0.19233488 -0.29174307 -0.12586264 0.32064295 0.3137521 0.017786786
-0.17932458 0.042799614 0.21085992 -0.26276302 -0.22588387 0.30288947 0.24151567 0.2738817
0.30543572 -0.093511365 0.013554701 0.0451517 -0.23448165 0.18419868 -0.11860991 0.21468683
0.27919137 -0.16970566 -0.23594016 -0.104461595 0.10906752 -0.21408674 0.15412687 -0.028453939
0.26153103 0.24939321 0.15834904 0.06363004 0.29162592 0.17082036 0.25533438 0.19039913
00000000: a345 693d 993a 02be 59a5 143e 3fdc e8bc
00000010: 8b1a fe3d 4d32 863e eced 34be 2405 91bc
00000020: 68dc 823e 51b0 6b3e 2dfe f6bd 971c 6dbe
00000030: a5a8 4a3c 799d 8b3e 6fae 403e 1258 5bbe
00000040: 8e82 26bd efd6 923e 5223 72be 651c 983e
00000050: 0db2 7a3e ab1b d63d a914 4fbe 0db3 5a3d
00000060: 09cd 4ebe 6f4a 54bd 2d18 d2bc 02d3 45be
00000070: 23e3 283e 43fb a13c 8ace cbbd 574e 2f3e
00000080: 8f73 7e3e be36 28bd 4d35 9fbe 69a3 af3d
00000090: 1f10 23bd b27c 753e 2f1b 883e 0e2a 953e
000000a0: 295b d63c 7b4d 99be 6ff3 443e 595f 95be
000000b0: 23e2 00be 502b a43e 1ea4 a03e 98b5 913c
000000c0: dda0 37be a64e 2f3d aaeb 573e e088 86be
000000d0: 1a4e 67be 5414 9b3e e24f 773e 393a 8c3e
000000e0: 1262 9c3e e382 bfbd 8914 5e3c fdf0 383d
000000f0: f51b 70be 949e 3c3e c1e9 f2bd ddd6 5b3e
00000100: 2cf2 8e3e 52c7 2dbe 4c9a 71be f6ef d5bd
00000110: cb5e df3d 8e39 5bbe 6fd3 1d3e 3c18 e9bc
00000120: 65e7 853e ef60 7f3e 4026 223e 7750 823d
00000130: fe4f 953e 88eb 2e3e 30bb 823e fdf7 423e

model.layers.3.bias f4 [8]
-0.32262108 0.14413658 -0.26375768 0.2419021 -0.203087 -0.23294456 -0.0207906 0.26836145
00000000: 972e a5be 8a98 133e 3f0b 87be 2fb5 773e
00000010: 0af6 4fbe 0589 6ebe 0c51 aabc ac66 893e

model.layers.6.weight f4 [4, 8]
0.33733076 -0.22959346 0.27370048 -0.31925815 -0.2673449 0.06001241 0.21525583 -0.07412327
-0.2627759 -0.15016493 0.20403968 -0.13923153 0.30928266 -0.16317055 0.17445916 0.14749151
-0.016297787 -0.10040381 0.17892921 -0.26003206 -0.0035480566 0.33495954 -0.20356742 0.08932152
0.06861989 -0.11237514 -0.17733502 -0.3546449 0.15988043 -0.28274444 0.23371239 0.0018788922
00000000: 9eb6 ac3e 8c1a 6bbe 7822 8c3e ce75 a3be
00000010: 6ee1 88be 93cf 753d 066c 5c3e f1cd 97bd
00000020: 908a 86be d6c4 19be c7ef 503e b692 0ebe
00000030: 4c5a 9e3e 2e16 27be 6ca5 323e 0408 173e
00000040: f082 85bc 83a0 cdbd 3839 373e ec22 85be
00000050: 8386 68bb d17f ab3e fa73 50be 33ee b63d
00000060: 9688 8c3d f024 e6bd 5097 35be 0494 b5be
00000070: b2b7 233e e1c3 90be 4d52 6f3e 2945 f63a

model.layers.6.bias f4 [4]
-0.16534239 0.15893911 -0.28850552 -0.043896545
00000000: 844f 29be efc0 223e ffb6 93be ddcc 33bd

model.layers.7.weight f4 [1, 4]
0.19242734 -0.21408837 -0.06877126 0.0794989
00000000: ac0b 453e fb39 5bbe f2d7 8cbd 52d0 a23d

exp_avg f4 [10, 2]
0.0 0.0 -0.80965734 -0.00975485 0.0 0.0 -0.075950965 -0.000632566
0.0 0.0 1.5611496 0.017967291 0.0 0.0 0.0 0.0
1.4140095 0.016625142 0.0 0.0
00000000: 0000 0000 0000 0000 b445 4fbf ced2 1fbc
00000010: 0000 0000 0000 0000 2e8c 9bbd c9d2 25ba
00000020: 0000 0000 0000 0000 c0d3 c73f 2430 933c
00000030: 0000 0000 0000 0000 0000 0000 0000 0000
00000040: 43fe b43f 7331 883c 0000 0000 0000 0000

exp_avg_sq f4 [10, 2]
0.0 0.0 0.019146342 2.7433755e-06 0.0 0.0 0.0002593888 4.0676117e-08
0.0 0.0 0.07299502 9.715029e-06 0.0 0.0 0.0 0.0
0.059673645 8.116558e-06 0.0 0.0
00000000: 0000 0000 0000 0000 cad8 9c3c d51a 3836
00000010: 0000 0000 0000 0000 93fe 8739 ddb3 2e33
00000020: 0000 0000 0000 0000 6a7e 953d bbfd 2237
00000030: 0000 0000 0000 0000 0000 0000 0000 0000
00000040: 5a6c 743d 5a2c 0837 0000 0000 0000 0000

exp_avg f4 [10]
0.0 -0.015609736 0.0 -0.001416696 0.0 0.030155031 0.0 0.0
0.027347155 0.0
00000000: 0000 0000 fabf 7fbc 0000 0000 6eb0 b9ba
00000010: 0000 0000 af07 f73c 0000 0000 0000 0000
00000020: 2407 e03c 0000 0000

exp_avg_sq f4 [10]
0.0 7.102507e-06 0.0 9.415275e-08 0.0 2.7181013e-05 0.0 0.0
2.2336879e-05 0.0
00000000: 0000 0000 1252 ee36 0000 0000 0631 ca33
00000010: 0000 0000 c802 e437 0000 0000 0000 0000
00000020: 1560 bb37 0000 0000

exp_avg f4 [8, 10]
0.0 1.7134656 0.0 1.1020668 0.0 5.372602 0.0 0.0
5.1222963 0.0 0.0 0.0 0.0 9.6996955e-05 0.0 0.0
0.0 0.0 0.0 0.0 0.0 -0.112041876 0.0 -0.071723685
0.0 -0.36341903 0.0 0.0 -0.327885 0.0 0.0 -0.30749136
0.0 -0.19674356 0.0 -1.007382 0.0 0.0 -0.96005136 0.0
0.0 -0.029012974 0.0 -0.018482823 0.0 -0.31384537 0.0 0.0
-0.47117034 0.0 0.0 0.07841482 0.0 0.050119013 0.0 0.24086669
0.0 0.0 0.23524529 0.0 0.0 0.35636273 0.0 0.21198966
0.0 1.0556723 0.0 0.0 0.96624786 0.0 0.0 -0.38070932
0.0 -0.24452294 0.0 -1.2496072 0.0 0.0 -1.1904348 0.0
00000000: 0000 0000 d752 db3f 0000 0000 8610 8d3f
00000010: 0000 0000 5bec ab40 0000 0000 0000 0000
00000020: dae9 a340 0000 0000 0000 0000 0000 0000
00000030: 0000 0000 d86a cb38 0000 0000 0000 0000
00000040: 0000 0000 0000 0000 0000 0000 0000 0000
00000050: 0000 0000 3676 e5bd 0000 0000 dee3 92bd
00000060: 0000 0000 0f12 babe 0000 0000 0000 0000
00000070: 8be0 a7be 0000 0000 0000 0000 826f 9dbe
00000080: 0000 0000 2577 49be 0000 0000 e5f1 80bf
00000090: 0000 0000 0000 0000 edc5 75bf 0000 0000
000000a0: 0000 0000 9eac edbc 0000 0000 4a69 97bc
000000b0: 0000 0000 57b0 a0be 0000 0000 0000 0000
000000c0: 3d3d f1be 0000 0000 0000 0000 f397 a03d
000000d0: 0000 0000 9849 4d3d 0000 0000 c2a5 763e
000000e0: 0000 0000 0000 0000 24e4 703e 0000 0000
000000f0: 0000 0000 2d75 b63e 0000 0000 d113 593e
00000100: 0000 0000 4520 873f 0000 0000 0000 0000
00000110: 055c 773f 0000 0000 0000 0000 55ec c2be
00000120: 0000 0000 3964 7abe 0000 0000 21f3 9fbf
00000130: 0000 0000 0000 0000 2b60 98bf 0000 0000

exp_avg_sq f4 [8, 10]
0.0 0.08849061 0.0 0.037110154 0.0 0.8646044 0.0 0.0
0.7839057 0.0 0.0 0.0 0.0 4.3415618e-10 0.0 0.0
0.0 0.0 0.0 0.0 0.0 0.0003219552 0.0 0.0001318487
0.0 0.0033030573 0.0 0.0 0.002764419 0.0 0.0 0.0032083276
0.0 0.001319384 0.0 0.0327614 0.0 0.0 0.029886225 0.0
0.0 8.783656e-05 0.0 2.8838233e-05 0.0 0.0043484536 0.0 0.0
0.006937002 0.0 0.0 0.00033710184 0.0 0.0001405883 0.0 0.0032428817
0.0 0.0 0.0030080043 0.0 0.0 0.004006805 0.0 0.0014820804
0.0 0.035406955 0.0 0.0 0.030753093 0.0 0.0 0.0050175637
0.0 0.002084499 0.0 0.051666476 0.0 0.0 0.047116082 0.0
00000000: 0000 0000 913a b53d 0000 0000 d100 183d
00000010: 0000 0000 b756 5d3f 0000 0000 0000 0000
00000020: 0bae 483f 0000 0000 0000 0000 0000 0000
00000030: 0000 0000 0dae ee2f 0000 0000 0000 0000
00000040: 0000 0000 0000 0000 0000 0000 0000 0000
00000050: 0000 0000 18cc a839 0000 0000 de40 0a39
00000060: 0000 0000 1b78 583b 0000 0000 0000 0000
00000070: 412b 353b 0000 0000 0000 0000 ce42 523b
00000080: 0000 0000 2eef ac3a 0000 0000 d130 063d
00000090: 0000 0000 0000 0000 f5d3 f43c 0000 0000
000000a0: 0000 0000 e534 b838 0000 0000 a2e9 f137
000000b0: 0000 0000 797d 8e3b 0000 0000 0000 0000
000000c0: ca4f e33b 0000 0000 0000 0000 0bbd b039
000000d0: 0000 0000 e26a 1339 0000 0000 8786 543b
000000e0: 0000 0000 0000 0000 f021 453b 0000 0000
000000f0: 0000 0000 844b 833b 0000 0000 5e42 c23a
00000100: 0000 0000 e206 113d 0000 0000 0000 0000
00000110: e9ed fb3c 0000 0000 0000 0000 606a a43b
00000120: 0000 0000 179c 083b 0000 0000 3aa0 533d
00000130: 0000 0000 0000 0000 cbfc 403d 0000 0000

exp_avg f4 [8]
0.13090988 1.2605889e-05 -0.008479106 -0.023278533 -0.007830805 0.0059387423 0.025006073 -0.02872689
00000000: 3d0d 063e e27d 5337 f3eb 0abc 9fb2 bebc
00000010: c74c 00bc c899 c23b 89d9 cc3c a854 ebbc

exp_avg_sq f4 [8]
0.0005219966 6.3417015e-12 1.8538508e-06 1.8541745e-05 2.7744052e-06 1.968941e-06 2.0599977e-05 2.9081226e-05
00000000: 99d6 083a f820 df2c d4d1 f835 188a 9b37
00000010: eb2f 3a36 2622 0436 1dce ac37 75f3 f337

exp_avg f4 [4, 8]
3.699768 -0.0003536393 0.7105958 1.8928199 -0.0074724294 1.5431361 0.26804793 1.6950177
-4.1045856 0.00039267467 -0.7883142 -2.09962 0.008328135 -1.7117534 -0.29725704 -1.8801866
-1.1876187 0.000117509655 -0.22770412 -0.6039175 0.0028540005 -0.492604 -0.084604 -0.5405573
1.3947366 -0.00013731999 0.26747409 0.7097895 -0.0032834227 0.57891613 0.09957051 0.6353519
00000000: 00c9 6c40 aa68 b9b9 9be9 353f ec47 f23f
00000010: 48db f4bb 7c85 c53f 943d 893e 57f6 d83f
00000020: c458 83c0 e7df cd39 f6ce 49bf 2d60 06c0
00000030: bb72 083c bc1a dbbf 1332 98be f4a9 f0bf
00000040: e403 98bf 846f f638 452b 69be 569a 1abf
00000050: 2f0a 3b3b 9736 fcbe dd44 adbd f761 0abf
00000060: bb86 b23f 8efd 0fb9 5df2 883e c4b4 353f
00000070: b12e 57bb d933 143f a0eb cb3d 6ca6 223f

exp_avg_sq f4 [4, 8]
0.41202503 5.6449405e-09 0.015661405 0.12040563 1.4096482e-05 0.07974009 0.0030266338 0.09798712
0.50634795 6.9606223e-09 0.019245328 0.14792007 1.7345728e-05 0.09795792 0.0037160765 0.12036928
0.039923396 6.2860656e-10 0.001512606 0.011495339 1.4448644e-06 0.0076003685 0.0002814979 0.009323923
0.055473976 8.566732e-10 0.0021027278 0.016004069 1.991265e-06 0.010583155 0.00039321987 0.012986064
00000000: f2f4 d23e 6cf5 c131 594c 803c 3a97 f63d
00000010: ee7f 6c37 c64e a33d 7d5a 463b 79ad c83d
00000020: 05a0 013f 482a ef31 61a8 9d3c 5c78 173e
00000030: ab81 9137 299e c83d 6b89 733b 2b84 f63d
00000040: b786 233d 41ca 2c30 a342 c63a f256 3c3c
00000050: 2aed c135 830c f93b 0296 9339 5ec3 183c
00000060: ae38 633d 047b 6b30 ebcd 093b f71a 833c
00000070: aca1 0536 f864 2d3c 1429 ce39 80c3 543c

exp_avg f4 [4]
0.13316704 -0.1477156 -0.042480633 0.049928673
00000000: f15c 083e c242 17be 2c00 2ebd 0282 4c3d

exp_avg_sq f4 [4]
0.00059944653 0.00073639443 5.7115263e-05 7.953615e-05
00000000: 2d24 1d3a 980a 413a 0c8f 6f38 a5cc a638

exp_avg f4 [1, 4]
4.531532 -5.45913 0.49467272 -4.390899
00000000: 4f02 9140 31b1 aec0 be45 fd3e 3f82 8cc0

exp_avg_sq f4 [1, 4]
0.59496456 0.90686107 0.005739034 0.6161826
00000000: 994f 183f 0c28 683f 820e bc3b 25be 1d3f
