deeper_null/lightning_logs/version_38/checkpoints/epoch=9-step=20.ckpt (torch, 99907 bytes, 30 tensors)

model.dense_nn.layers.0.weight f4 [64, 2]
0	0x3ee0b1cf	0.43885657
1	0x3ef0c141	0.4702244
2	0x3f031fc7	0.51220363
3	0x3e927909	0.28607967
4	0xbe9f1225	-0.3106853
5	0xbed0bb43	-0.4076787
6	0xbeed8a19	-0.46394423
7	0x3e733794	0.2375167
8	0xbf33c920	-0.7022877
9	0x3ebcd59f	0.3688173
10	0xbefa20d4	-0.4885317
11	0x3e803216	0.25038213
12	0xbf30da39	-0.6908298
13	0x3eb6bcfe	0.35691065
14	0x3f088397	0.5332579
15	0x3ec3cc88	0.38241982
16	0x3f1d0116	0.6132978
17	0x3ec2b756	0.380305
18	0x3e7fddfd	0.24987026
19	0xbe022546	-0.12709531
20	0x3eef330a	0.46718627
21	0x3ea5d99f	0.32392594
22	0x3e0ec221	0.13941242
23	0x3ed18a1d	0.40925685
24	0xbf0372f5	-0.51347286
25	0x3eead49b	0.4586533
26	0x3f2111d2	0.62917817
27	0x3e4c5234	0.19953233
28	0xbef990d8	-0.4874332
29	0x3e64692e	0.22305748
30	0x3ea2441e	0.31692594
31	0xbf33a3d8	-0.7017188
32	0xbee10f53	-0.43957004
33	0xbf214c3b	-0.63006943
34	0xbf0e42f3	-0.55570906
35	0x3f13674b	0.5757949
36	0x3edbb602	0.42912298
37	0x3e163f49	0.14672579
38	0x3f2c5480	0.67316437
39	0xbde05b4e	-0.10954915
40	0x3e8086bc	0.25102794
41	0x3e83852a	0.25687534
42	0x3c009fd7	0.007850609
43	0xbe32e803	-0.17471318
44	0x3e924f75	0.28576246
45	0x3ec46f31	0.38366082
46	0x3efab8fb	0.48969254
47	0x3cce3dce	0.025175955
48	0x3f077279	0.52909046
49	0xbea8d6f9	-0.3297651
50	0xbee727fa	-0.45147687
51	0x3df7e078	0.12103361
52	0xbf1178ea	-0.56825125
53	0xbe24bb0d	-0.16086979
54	0xbe919d8b	-0.28440508
55	0x3ef08c8f	0.46982238
56	0xbf06773d	-0.52525693
57	0x3f089fec	0.5336902
58	0xbeed39dd	-0.4633321
59	0x3df490bc	0.119416684
60	0x3e1bcbed	0.1521451
61	0x3ec46b55	0.38363138
62	0xbf283dd7	-0.6571936
63	0xbe95c8b3	-0.29254684
64	0xbe5c7489	-0.2152883
65	0xbf304c0a	-0.68866026
66	0x3f1156e7	0.5677323
67	0x3f209244	0.62723184
68	0x3f002cab	0.5006816
69	0xbeac3544	-0.33634388
70	0xbeceed86	-0.4041559
71	0x3e7fd8bd	0.24985023
72	0x3d905f1d	0.070493914
73	0xbd8b1186	-0.06790452
74	0xbe13a254	-0.14417392
75	0xbf24c474	-0.64362264
76	0xbf27b92e	-0.65516937
77	0xbed27874	-0.41107523
78	0xbefb7f38	-0.49120498
79	0x3f097098	0.5368743
80	0x3e71fc2a	0.23631349
81	0xbe040ad9	-0.12894763
82	0x3f2ae1dd	0.6675089
83	0xbe73c224	-0.23804528
84	0xbe8d4c61	-0.27597335
85	0xbf0650d3	-0.5246708
86	0xbf1a78ef	-0.6034078
87	0x3d636874	0.055519536
88	0x3ed04b70	0.40682554
89	0xbede0722	-0.43364817
90	0xbf2ae6da	-0.667585
91	0xbf024cfa	-0.50898707
92	0x3ed610fe	0.4180984
93	0xbda5bc18	-0.08092517
94	0xbd592b36	-0.053019725
95	0xbf103937	-0.563373
96	0xbec8a5d9	-0.39189032
97	0xbefeabd2	-0.49740463
98	0xbee25021	-0.44201759
99	0x3e8fc94e	0.2808327
100	0x3e1bb001	0.15203859
101	0xbee57136	-0.44812936
102	0x3f1058ef	0.563857
103	0x3e6c69bd	0.23087211
104	0xbe3a7dba	-0.18212023
105	0x3f10cb77	0.5656046
106	0xbe88e7f2	-0.2673946
107	0xbec6ee1e	-0.38853544
108	0xbef4282c	-0.476869
109	0xbf011245	-0.504185
110	0x3e34fca4	0.176745
111	0xbcfdc4ef	-0.030977694
112	0x3f33cd77	0.7023539
113	0x3eb1b993	0.34711894
114	0xbf1186b7	-0.56846184
115	0x3e867606	0.2626192
116	0x3f1ef2b7	0.62089103
117	0x3ec05433	0.3756424
118	0x3eab75b9	0.33488253
119	0xbdd5eaa1	-0.104451425
120	0xbe88b1cf	-0.26698157
121	0x3eb9cd54	0.36289465
122	0x3ef8919a	0.48548585
123	0xbd03fc5f	-0.0322231
124	0xbf2a6475	-0.66559535
125	0xbf1fb19f	-0.62380403
126	0xbeffa96d	-0.4993395
127	0xbeefa967	-0.4680893

model.dense_nn.layers.0.bias f4 [64]
0	0xbf1663b2	-0.5874587
1	0x3eeb93da	0.4601124
2	0x3e96ae9e	0.29430097
3	0xbf202095	-0.62549716
4	0x3e32ef87	0.17474185
5	0xbf1c7197	-0.61110824
6	0xbf34ffa3	-0.7070257
7	0xbeecc2f5	-0.4624249
8	0x3f03529b	0.5129792
9	0x3f0dea88	0.5543599
10	0xbee2c93c	-0.44294155
11	0xbe936927	-0.28791162
12	0xbef3a9a5	-0.47590366
13	0x3de0d89e	0.109788164
14	0x3bbca326	0.0057567535
15	0x3ef428ed	0.47687474
16	0xbefc2dbe	-0.4925365
17	0x3e82ccff	0.25547025
18	0xbe8e64d9	-0.27811316
19	0x3af0344b	0.0018326131
20	0x3d00d720	0.03145516
21	0xbf2643c6	-0.64947164
22	0xb8b38b6a	-8.561353e-05
23	0xbf183de0	-0.59469414
24	0x3e95fa0b	0.2929233
25	0xbb1bdf73	-0.002378431
26	0xbdd43281	-0.10361195
27	0xbf1f8902	-0.6231843
28	0xbde1d184	-0.1102629
29	0x3f2301aa	0.63674414
30	0x3d951558	0.072794616
31	0x3d1f3e4c	0.03887777
32	0x3edfda30	0.4372115
33	0x3cd924df	0.02650684
34	0xbf224484	-0.63385797
35	0x3f2e78aa	0.6815287
36	0xbe85d502	-0.26139075
37	0xbe2cb59e	-0.16866156
38	0x3eab96bb	0.33513436
39	0x3e83eab6	0.25765008
40	0x3d7f0d52	0.062268563
41	0xbdb5e601	-0.088817604
42	0xbf2ab7ac	-0.6668651
43	0xbee7bd82	-0.4526177
44	0xbe0511f3	-0.12995128
45	0x3ec7bb28	0.39009976
46	0xbf243621	-0.64145094
47	0xbf1d7b95	-0.61516696
48	0xbf00e833	-0.5035431
49	0xbf02816a	-0.5097872
50	0xbe4aa357	-0.19788872
51	0x3e594f23	0.21221595
52	0xbf2fd5f1	-0.68685824
53	0xbf19c2d8	-0.6006293
54	0x3db20645	0.08692602
55	0x3e04a7e8	0.12954676
56	0x3e5de4bf	0.21669291
57	0x3e4ac1b4	0.19800454
58	0xbf2c3e95	-0.6728299
59	0xbf2ad44f	-0.6673021
60	0xbeb9633d	-0.36208525
61	0x3d691dbf	0.056913134
62	0xbe41f2df	-0.18940304
63	0xbe73b375	-0.23798926

model.dense_nn.layers.2.weight f4 [64, 64]
0	0xbd9ad3e6	-0.07559948
1	0x3d86e317	0.06586283
2	0xbd25f0a0	-0.04051268
3	0xbd89caa4	-0.06728104
4	0x3bc64a40	0.0060513318
5	0xbc1702e0	-0.009216994
6	0x3ca27f70	0.019836158
7	0x3d784eb9	0.06062195
8	0xbdbf4dbd	-0.09340999
9	0xbd21413d	-0.039368857
10	0x3d1c55f2	0.0381679
11	0xbc22e8bd	-0.009943184
12	0x3c70df60	0.014701694
13	0x3dfb5bde	0.12273382
14	0xbd0ade80	-0.0339036
15	0xbddba7ba	-0.10725351
16	0x3d49c778	0.049262494
17	0xbb32f300	-0.0027305484
18	0x3dc0dbb3	0.09416904
19	0xbdc66216	-0.09686677
20	0x3de0703f	0.10958909
21	0x3dcb527c	0.09927842
22	0xbd899224	-0.06717327
23	0x3dc7125b	0.09720298
24	0x3d9b96a5	0.075970925
25	0x3d8462ac	0.06464133
26	0x3d36f3e0	0.04466617
27	0x3dc90974	0.09816256
28	0x3cef7b00	0.029233456
29	0x3d9eb534	0.077494055
30	0xbd1bf117	-0.038071718
31	0x3ca83d20	0.02053696
32	0x3db2f8d0	0.087388635
33	0x3dddb342	0.10825206
34	0xbc10fded	-0.008849603
35	0xbd9f3918	-0.07774562
36	0xbd0981c4	-0.03357102
37	0x3c764fa0	0.0150336325
38	0x3d3035b8	0.04301998
39	0x3da9d5f8	0.082927644
40	0x3d2d41f6	0.042299233
41	0x3c94a3eb	0.018144568
42	0xbdad1b44	-0.08452466
43	0xbc0e2c40	-0.008677542
44	0xbdb2941a	-0.087196544
45	0xbcfbcaf0	-0.030736417
46	0x3dd0eefb	0.10201832
47	0x3b3c2180	0.002870649
48	0x3bde3500	0.0067812204
49	0xbdc3e9a4	-0.09566048
50	0xbdd218c9	-0.10258634
51	0x3c2a0c7e	0.010378955
52	0x3c29ab80	0.01035583
53	0xbd4b02a8	-0.04956308
54	0xbdaa24d0	-0.08307803
55	0x3ccb1f8b	0.024795314
56	0xbdb33144	-0.08749631
57	0xbc4c1b60	-0.012457699
58	0xbdf9706c	-0.12179646
59	0xbddbaacd	-0.10725937
60	0x3dfa99a4	0.12236336
61	0x3de21cbc	0.11040637
62	0xbb100580	-0.0021975935
63	0x3da12558	0.07868451
64	0xbbadc8c0	-0.0053034723
65	0x3c0a2380	0.008431315
66	0xbd1f9ee8	-0.038969904
67	0x3dd60d10	0.1045171
68	0x3dc167d0	0.09443629
69	0xbd91e384	-0.07123473
70	0x3d9d0db0	0.07668626
71	0x3de65c58	0.11248082
72	0xbde76cd4	-0.11300054
73	0xbd498970	-0.049203336
74	0xbdbd3f04	-0.09240535
75	0x3c6a0220	0.014282733
76	0x3ded8a98	0.115987
77	0xbd024cf0	-0.031811655
78	0xbd63bc98	-0.05559978
79	0x3cf259b0	0.029583782
80	0xbddf5374	-0.10904589
81	0xbdf6b650	-0.12046492
82	0xbd8a135c	-0.06741974
83	0x3de53e38	0.11193508
84	0x3da4ebfc	0.08052823
85	0x3d8159c0	0.063159466
86	0xbde644e0	-0.112436056
87	0xbc1155e0	-0.008870572
88	0xbd488498	-0.048954576
89	0xb9bf3400	-0.00036469102
90	0x3c463f40	0.012100041
91	0x3df89990	0.12138665
92	0x3d742f60	0.059615493
93	0x3d8e233c	0.06940314
94	0xbde9f154	-0.11422983
95	0x3d876a4c	0.066120714
96	0xbcfb2880	-0.03065896
97	0xbd53b2e0	-0.05168426
98	0x3dd270f8	0.10275453
99	0xbde3223c	-0.11090514
100	0xbaabe600	-0.001311481
101	0x3d922f9c	0.07137987
102	0x3db125c4	0.08649781
103	0xbda329e8	-0.07966977
104	0x3d4a9190	0.049455225
105	0xbdab2d18	-0.0835821
106	0xbdaf65d8	-0.08564347
107	0xbd821190	-0.06351006
108	0x3cf0c3a0	0.029390156
109	0x3d0e5de0	0.034757495
110	0x3dcda414	0.10041061
111	0xbdb42eec	-0.08798012
112	0xbdcdcd60	-0.10048938
113	0xbddf5914	-0.10905662
114	0xbcecc900	-0.028904438
115	0x3dff8ff0	0.12478626
116	0xbdb7674c	-0.08955249
117	0xbdbaac5c	-0.09114906
118	0xbca38970	-0.019962996
119	0xbbd87e00	-0.0066068172
120	0xbd433440	-0.04765725
121	0x3df28370	0.11841476
122	0xbdfd0e04	-0.12356189
123	0x3d4b55d8	0.049642414
124	0xbda84368	-0.08215982
125	0xbddcd9fc	-0.10783765
126	0xbdea4a74	-0.11439982
127	0xbb2f1200	-0.002671361
128	0x3d1ddf9b	0.038543325
129	0x3df57a4f	0.11986219
130	0x3d426548	0.04745987
131	0x3dbd1d50	0.092341065
132	0xbdf1ecf4	-0.11812773
133	0x3bb75cc0	0.0055957735
134	0x3c35ba60	0.011091799
135	0x3db8c990	0.0902282
136	0xbdab1941	-0.08354426
137	0xbcfca636	-0.030840974
138	0xbc96e981	-0.01842189
139	0x3d34284c	0.043983743
140	0x3de774a8	0.11301547
141	0xbc765b5e	-0.015036432
142	0x3df58694	0.11988559
143	0xbde76d99	-0.11300201
144	0xbdb5341c	-0.0884783
145	0x39900800	0.0002747178
146	0xbd087963	-0.03331889
147	0x3d8111a4	0.06302193
148	0xbc34ecb0	-0.011042759
149	0xbd3282e0	-0.043581843
150	0x3c9c360a	0.019068737
151	0x3d9d6614	0.076854855
152	0xbd3bdaae	-0.045862846
153	0xbddd7dfc	-0.10815045
154	0x3dbbedb8	0.09176201
155	0xbc5fe900	-0.013666391
156	0x3c4c8d00	0.012484789
157	0x3c720a80	0.014773011
158	0x3d174958	0.03693518
159	0x3d3ce3f0	0.046115816
160	0x3dc377dc	0.09544346
161	0xbdcae00e	-0.09906016
162	0xbd979ed1	-0.07403339
163	0xbcb52e40	-0.02211678
164	0x3d869229	0.065708466
165	0xbcb5a0c0	-0.022171378
166	0xbb512700	-0.0031914115
167	0xbdc05ef8	-0.09393114
168	0xbd015da8	-0.03158346
169	0xbd6e7f67	-0.05822697
170	0xba8d2d00	-0.0010770857
171	0x3d5ade80	0.05343485
172	0xbd2e9905	-0.0426264
173	0x3dc17f48	0.09448105
174	0xbdb93637	-0.09043544
175	0xbdf7fd4c	-0.121088594
176	0x3d54a6c0	0.051916838
177	0x3da8dd20	0.08245301
178	0xbb6d4099	-0.0036201833
179	0x3ddd6a25	0.10811261
180	0xbdc991a0	-0.09842229
181	0xbc893f00	-0.016753674
182	0xbdf13ae4	-0.117788106
183	0xbd64a723	-0.055823456
184	0xbc8d311e	-0.017235335
185	0x3db3b32c	0.08774409
186	0x3dd3f63f	0.10349702
187	0x3c22bdad	0.009932918
188	0xb980a400	-0.00024536252
189	0x3df10ad3	0.11769643
190	0x3c0028e0	0.007822245
191	0x3bc32000	0.0059547424
192	0x3c97bbf0	0.018522233
193	0xbda2a5fc	-0.07941815
194	0x3b0cf880	0.0021510422
195	0xbdae7f60	-0.085203886
196	0xbba0bbc0	-0.004905194
197	0x3d29e968	0.04148236
198	0x3dcbaaf4	0.09944716
199	0xbd9d444c	-0.07679042
200	0xbdb9af10	-0.09066594
201	0x3c86b9e0	0.016446054
202	0xbd892c6c	-0.06697926
203	0x3da7033c	0.08154914
204	0xbdff7aa0	-0.12474561
205	0x3cc070a0	0.023491204
206	0xbdc623b8	-0.096747816
207	0x3dbc7b4c	0.092032045
208	0xbd775a88	-0.06038907
209	0xbdcc7c48	-0.09984642
210	0xbd0965f0	-0.03354448
211	0xbcf75120	-0.03019005
212	0xbde2f2c0	-0.11081457
213	0x3d0d30e0	0.03447044
214	0xbda3f63c	-0.0800595
215	0xbc39cce0	-0.01134035
216	0xbd375690	-0.044760287
217	0xbcbd2270	-0.02308771
218	0xbd8aa7b4	-0.06770268
219	0xbdb679d4	-0.089099556
220	0xbb81f640	-0.003966123
221	0xbcfd8f00	-0.030951977
222	0x3cf91440	0.030405164
223	0xbdf7a660	-0.120922804
224	0xbdd0ebc8	-0.10201222
225	0x3daf59d4	0.08562055
226	0x3d1ea680	0.038733006
227	0xbde4cfe0	-0.111724615
228	0x3dc1fd58	0.094721496
229	0xbd6a0718	-0.05713567
230	0xbdc57d34	-0.09643021
231	0xbdf0c88c	-0.11757001
232	0xbda986dc	-0.082776755
233	0x3a308200	0.00067332387
234	0x3d42c270	0.04754871
235	0x3c270100	0.0101931095
236	0xbdfd6cb0	-0.12374246
237	0xbd80e3d8	-0.06293458
238	0x3d923544	0.07139066
239	0xbd466198	-0.048432916
240	0x3d0de590	0.034642756
241	0xbd8f2b4c	-0.0699068
242	0xbdf83c9c	-0.12120935
243	0xbcf54860	-0.029941738
244	0xbaaa3100	-0.0012984574
245	0xbd8a9820	-0.06767297
246	0xbd0b08d0	-0.03394395
247	0x3dc07260	0.09396815
248	0xbdd47ed4	-0.10375753
249	0xbd3450d8	-0.04402241
250	0xbc0acee0	-0.008472174
251	0xbd5256d0	-0.051352322
252	0xbddf4c58	-0.10903233
253	0x3d219790	0.039451182
254	0xbc919150	-0.017769486
255	0xbdce5140	-0.10074091

model.dense_nn.layers.2.bias f4 [64]
0	0xbdef5002	-0.11685182
1	0x3dd4ca70	0.103901744
2	0x3c5a4c45	0.013323848
3	0x3d81b644	0.063335925
4	0x3d9789db	0.07399341
5	0x3dd7d23c	0.10538146
6	0x3de5181c	0.11186239
7	0xbcb4d35b	-0.022073438
8	0xbdaa6cf0	-0.083215594
9	0xbdaebbb9	-0.08531899
10	0x3d9d8219	0.0769083
11	0x3d7e7d7c	0.06213139
12	0xbd6557e8	-0.055992037
13	0x3c9ca6e7	0.019122554
14	0x3ba7eaca	0.0051244246
15	0x3debc4ed	0.1151217
16	0x3ddf60be	0.10907124
17	0x3c716be1	0.014735193
18	0xbd3e4c80	-0.046459675
19	0xbdb345e1	-0.08753563
20	0x3dbe17c8	0.0928188
21	0x3ac0b500	0.001470238
22	0x3c43b4e2	0.011944981
23	0xbdfab380	-0.12241268
24	0xbdac7358	-0.084204376
25	0xbd3468b8	-0.04404518
26	0xbd880327	-0.06641226
27	0x3d8f6530	0.07001722
28	0xbdb9ab3c	-0.090658635
29	0xbce01a8c	-0.027356409
30	0xbbe56a80	-0.007001221
31	0x3cf91487	0.030405296
32	0x3ddade57	0.10686939
33	0xbc3ef220	-0.011654407
34	0x3ddc8810	0.10768139
35	0x3d2ed6b0	0.04268521
36	0x3dd29fd1	0.10284389
37	0x3d8c8648	0.068615496
38	0xbddb787d	-0.10716341
39	0x3dfe7c64	0.124260694
40	0x3de40c6c	0.11135182
41	0x3dd77cb8	0.10521835
42	0xbbf669e1	-0.007519946
43	0xbd5991d0	-0.053117573
44	0xbd95ca54	-0.07313982
45	0x3deab81a	0.11460896
46	0xbdc1aff8	-0.094573915
47	0xbda104f4	-0.07862273
48	0x3df6e214	0.1205484
49	0xbc5b0522	-0.013367923
50	0x3dd1106b	0.102082096
51	0x3db36c00	0.08760834
52	0x3d813209	0.063083716
53	0x3df2f8d3	0.11863866
54	0x3d9040d7	0.07043617
55	0x3d5b57f0	0.05355066
56	0x3c9eb830	0.019374937
57	0x3da55015	0.08071915
58	0x3d487fdc	0.04895006
59	0xbe00e08f	-0.12585662
60	0x3dd36b04	0.10323146
61	0xbdff8724	-0.12476948
62	0x3ccc2ea0	0.024924576
63	0xbca5ea70	-0.02025339

model.dense_nn.layers.4.weight f4 [32, 64]
0	0xbdefd264	-0.11710051
1	0x3dc2d640	0.09513521
2	0x3de8dce4	0.113702565
3	0xbd158ba0	-0.03651011
4	0x3dcf32f4	0.101171404
5	0x3ca350a0	0.019935906
6	0xbc90b860	-0.017666042
7	0x3d1d66f0	0.038428247
8	0xbdb8ebd0	-0.09029353
9	0x3db1e918	0.08687037
10	0xbdb940c0	-0.09045553
11	0x3ce04ad0	0.027379423
12	0xbd1e0738	-0.038581103
13	0x3ca083d0	0.019594103
14	0x3c843570	0.016138762
15	0xbc88a5a0	-0.016680539
16	0x3db88068	0.090088665
17	0xbd0886a8	-0.033331543
18	0xbdc6b204	-0.097019225
19	0xbdca3310	-0.09873021
20	0x3bd6c2c0	0.0065539777
21	0xbce1c610	-0.027560264
22	0x3df79420	0.120887995
23	0x3ce2c6b0	0.027682632
24	0x3bbc8a40	0.0057537854
25	0x3d0bb128	0.034104496
26	0xbd7ea1d0	-0.062166035
27	0x3d1a6778	0.03769633
28	0xbdd09ff4	-0.10186759
29	0xbdac4750	-0.08412039
30	0xbcf7d500	-0.030252934
31	0xbd37d430	-0.044880092
32	0x3cc24aa0	0.023717225
33	0xbdc72444	-0.09723714
34	0x3dfcb980	0.12340069
35	0xbdddfa5c	-0.10838768
36	0x3de054e0	0.109536886
37	0x3d404360	0.046939254
38	0x3c0ebce0	0.0087120235
39	0x3d83aef0	0.06429851
40	0xbd124d38	-0.035718173
41	0x3d5af7d8	0.05345902
42	0x3d8f402c	0.06994662
43	0xbdceadbc	-0.10091731
44	0x3dc10170	0.09424102
45	0xbd71f8f0	-0.059075296
46	0x3df22608	0.1182366
47	0xbd306480	-0.043064594
48	0xbde40c44	-0.11135152
49	0x3dc959bc	0.098315686
50	0xbdd6102c	-0.10452303
51	0xbcb6d520	-0.022318423
52	0xbd1083f8	-0.035282105
53	0x3d4bed30	0.049786747
54	0x3d8fd474	0.07022944
55	0xbd9944a4	-0.07483795
56	0x3c86ad40	0.016440034
57	0xbd0d4918	-0.034493536
58	0xbcdcca70	-0.026951998
59	0xbd919aa4	-0.071095735
60	0x3ca33b70	0.019925803
61	0xbd9c3fe4	-0.07629374
62	0xbdec9978	-0.11552709
63	0xbc5405a0	-0.012940794
64	0xbdae277c	-0.08503625
65	0xbddd4b94	-0.10805431
66	0xbdff7824	-0.12474087
67	0x3bc57d00	0.006026864
68	0xbd8d1898	-0.068894565
69	0xbdfa0014	-0.12207046
70	0x3b89bd00	0.0042034388
71	0xbdf68ab8	-0.12038177
72	0xbd9354ac	-0.07193884
73	0xbd944b4c	-0.07240924
74	0x3cfb8560	0.030703247
75	0xbd5731b8	-0.05253765
76	0xbc542f60	-0.012950748
77	0xbc9be6b0	-0.019030899
78	0xbbca0680	-0.0061653256
79	0xbdcc2f70	-0.099699855
80	0xbd890ba4	-0.066916734
81	0x3dfe57c0	0.12419081
82	0x3d17fc48	0.03710583
83	0x3ddf98ac	0.10917792
84	0x3ce032a0	0.02736789
85	0xbd523c10	-0.05132681
86	0x3d8dcbcc	0.06923637
87	0xbdc34ac4	-0.09535745
88	0xbc183140	-0.009289086
89	0x3c1c5de0	0.009543866
90	0xbd3a9e38	-0.045561045
91	0xbd090ff8	-0.033462495
92	0xbdeb560c	-0.114910215
93	0x3df1e134	0.11810532
94	0xbaa75000	-0.0012764931
95	0xbdf3ec84	-0.11910346
96	0x3d93fb44	0.072256595
97	0x3df4a434	0.11945382
98	0x3d88aae4	0.0667322
99	0x3c1abe60	0.009444803
100	0xbdd9dc2c	-0.106376976
101	0x3dc7a338	0.097479284
102	0x3da4306c	0.08017048
103	0x3ddee454	0.10883394
104	0x3df4982c	0.11943087
105	0xbdd0e2f8	-0.10199541
106	0x3dddd51c	0.10831663
107	0x3db828a0	0.089921236
108	0x3ddfed78	0.109339654
109	0x3c9df6d0	0.019282728
110	0x3da57ca4	0.08080414
111	0xbdf44418	-0.1192705
112	0x3d7f7210	0.062364638
113	0x3cfd1440	0.030893445
114	0x3dbc1194	0.0918304
115	0xbdc8580c	-0.097824186
116	0x3d731a50	0.059351265
117	0x3dc6fca0	0.09716153
118	0xbdb8fa64	-0.09032133
119	0xbc2b98a0	-0.0104734
120	0x3d433088	0.047653705
121	0xbd17e388	-0.037082225
122	0x3d276518	0.040867895
123	0x3da697c0	0.08134413
124	0xbda5eb24	-0.0810149
125	0xbd36af50	-0.044600785
126	0x3d56e748	0.05246666
127	0xbdf1f2d0	-0.11813891
128	0xbddde8f1	-0.10835446
129	0x3d559328	0.052142292
130	0xbdb7b3a8	-0.089698136
131	0x3d267f60	0.040648818
132	0xbd959989	-0.07304675
133	0xbd848a24	-0.06471661
134	0x3db6ced4	0.08926168
135	0xbc870ce7	-0.016485645
136	0x3d9ad7e8	0.07560712
137	0xbdac8fa1	-0.084258325
138	0x3db9e8da	0.09077616
139	0xbdad3f09	-0.084592886
140	0xbd809fde	-0.06280492
141	0x3dfbeedb	0.123014174
142	0x3d48b401	0.04899979
143	0xbbae963f	-0.0053279693
144	0xbde2abd1	-0.11067928
145	0xbd52785e	-0.051384322
146	0x3d32ab70	0.043620527
147	0x3d9af374	0.07565966
148	0x3dcbfdbc	0.09960505
149	0x3dec62e4	0.115422994
150	0x3d3bdb34	0.045863345
151	0x3c622360	0.013802379
152	0x3d0efb78	0.034907788
153	0x3df66c1c	0.12032339
154	0xbd8be50d	-0.06830797
155	0xbd83a454	-0.064278275
156	0xbde2f109	-0.1108113
157	0xbde4ccaa	-0.11171849
158	0x3d96c87c	0.07362458
159	0x3d5f7e97	0.054564085
160	0xbd679b46	-0.056544565
161	0xbd56d348	-0.052447587
162	0xbdd58160	-0.10425067
163	0xbda1c63d	-0.07899139
164	0x3da94693	0.08265414
165	0x3dbc36b7	0.091901235
166	0x3df51759	0.11967344
167	0x3d770808	0.060310394
168	0x3dcfe6c4	0.10151437
169	0x3cb3acc0	0.02193296
170	0xbdf1d416	-0.1180803
171	0xbdaa061c	-0.083019465
172	0xbda89aa0	-0.082326174
173	0x3d63d40d	0.05562215
174	0xbc8a8140	-0.016907334
175	0x3d3f8af8	0.04676339
176	0x3c5b2540	0.01337558
177	0x3d87209d	0.06598017
178	0x3d2b6ddc	0.041852817
179	0x3db14004	0.08654788
180	0x3dc06d49	0.093958445
181	0xbd8efb0a	-0.06981476
182	0xbdea3aeb	-0.11437019
183	0x3cca7760	0.024715126
184	0x3dd7b848	0.10533196
185	0x3df3d712	0.11906256
186	0x3d948d95	0.07253567
187	0x3c8c9b43	0.017163878
188	0xbdef8f24	-0.11697224
189	0xbddf80d4	-0.10913244
190	0x3c65b8a0	0.014021069
191	0xbdaacd5c	-0.083399504
192	0xbdd900ca	-0.105958536
193	0xbdfaddb8	-0.12249321
194	0xbd82026e	-0.0634812
195	0xbbcefdc0	-0.0063168705
196	0x3c1f07b6	0.009706428
197	0x3d3ebb10	0.046565115
198	0xbde0d3f0	-0.10977924
199	0x3d2ba862	0.04190863
200	0x3d920168	0.071291745
201	0x3c1450b3	0.009052443
202	0xbded87a2	-0.115981355
203	0x3d221a91	0.039576117
204	0xbd606f51	-0.05479366
205	0x3d844d66	0.06460075
206	0xbd0f2a19	-0.034952257
207	0xbd9f958d	-0.077921964
208	0x3d45c91e	0.048287503
209	0xbd7f0842	-0.062263735
210	0xbda90ba0	-0.082541704
211	0x3dd316a7	0.10307055
212	0x3c1c46c0	0.0095383525
213	0x3d016ba0	0.03159678
214	0xbd18b344	-0.037280336
215	0xbc3dcde0	-0.011584729
216	0x3db24608	0.08704764
217	0xbd8c87d0	-0.06861842
218	0xbc0c220b	-0.008553038
219	0x3c57afa0	0.013164431
220	0x3d23aaca	0.0399578
221	0x3de38748	0.11109787
222	0xbd987024	-0.07443264
223	0x3dc19f57	0.0945422
224	0x3d0271ad	0.03184669
225	0xbcca5470	-0.024698466
226	0xbcb107d0	-0.02161017
227	0x3dccb35f	0.0999515
228	0x3bf2ad03	0.0074058785
229	0x3db88502	0.09009744
230	0x3a7985c1	0.0009518527
231	0x3c9c57d0	0.019084841
232	0x3c3454c0	0.011006534
233	0x3c573e40	0.0131374
234	0xbccb1a4b	-0.02479281
235	0x3da5ede0	0.08102012
236	0xbc32de60	-0.010917276
237	0xbc5d4795	-0.013505836
238	0xbd7134b0	-0.058888137
239	0x3dd22524	0.1026099
240	0x3d903be0	0.0704267
241	0x3d891c49	0.06694848
242	0x3b6575d4	0.0035012858
243	0x3d3b8850	0.045784295
244	0x3d832522	0.06403567
245	0xbde12b5d	-0.10994599
246	0x3d71e4aa	0.05905596
247	0x3df36e58	0.11886281
248	0x3dc789e0	0.097430944
249	0x3dad1dd9	0.084529586
250	0x3d9917fe	0.07475279
251	0xbd19441e	-0.037418477
252	0xbbf23cc0	-0.007392496
253	0x3dafdca8	0.08587009
254	0xbb07d000	-0.0020723343
255	0xbd08d9a0	-0.03341067

model.dense_nn.layers.4.bias f4 [32]
0	0x3d3f8038	0.04675314
1	0x3d9b0c4c	0.07570705
2	0xbd0ca022	-0.034332402
3	0xbdf2c9da	-0.118549064
4	0xbbea050c	-0.007141715
5	0xbbe1e5a8	-0.0068938322
6	0x3c6c71e0	0.014431447
7	0x3ddf3434	0.10898629
8	0x3da618e0	0.08110213
9	0x3dd977a8	0.10618526
10	0x3c479fdb	0.012184109
11	0x3d0978f7	0.033562627
12	0xbab43700	-0.0013749301
13	0xbdbe2878	-0.092850626
14	0xbd7fca90	-0.062449038
15	0x3cc75feb	0.02433773
16	0x3dcebee4	0.10095003
17	0xbdd16073	-0.10223474
18	0xbd483808	-0.04888156
19	0x3dd61f34	0.1045517
20	0xbdfebcc4	-0.12438348
21	0xbde8faa1	-0.11375929
22	0xbd7cfef0	-0.061766565
23	0xbd4b9213	-0.049699854
24	0x3cdd0190	0.026978284
25	0x3db84857	0.08998173
26	0x3dc9fd20	0.09862733
27	0x3d1912a0	0.037371278
28	0xbceb4f00	-0.028724194
29	0xbc86a3a0	-0.016435444
30	0xbcaeb5a0	-0.02132684
31	0xbd14838e	-0.036258273

model.dense_nn.layers.6.weight f4 [16, 32]
0	0x3d148133	0.036256026
1	0xbe227843	-0.15866189
2	0xbd3f276f	-0.046668466
3	0x3d952b92	0.07283701
4	0x3de1cbd2	0.11025204
5	0xbcbf3418	-0.02334027
6	0x3de0dcf1	0.10979641
7	0xbdbe1dfb	-0.09283062
8	0xbe04ff39	-0.12987985
9	0x3c8253af	0.015909044
10	0xbdff25b9	-0.12458367
11	0xbdbed4ab	-0.09317907
12	0xbe0739ea	-0.13205686
13	0xbdd59ce0	-0.10430312
14	0xbb12b107	-0.0022383349
15	0xbd9d017d	-0.076662995
16	0xbe2d17e2	-0.16903642
17	0xbe1f9112	-0.15582684
18	0x3d07850e	0.033085875
19	0x3dd8a5da	0.10578509
20	0xbd4bffa3	-0.04980434
21	0x3e265fd8	0.16247499
22	0x3d7524e0	0.05984962
23	0x3db9f8a8	0.090806305
24	0x3cbd20c0	0.023086905
25	0x3d1a3805	0.03765108
26	0xbc38b5ef	-0.011273845
27	0x3dd972c8	0.10617596
28	0x3ce674ec	0.028131925
29	0xbe16d848	-0.14730942
30	0x3ddb8fa1	0.107207544
31	0xbd81b658	-0.063336074
32	0x3b8df182	0.0043317685
33	0x3de134ef	0.109964244
34	0xbe238388	-0.15968144
35	0x3de877dc	0.11350986
36	0x3cc1e457	0.023668451
37	0x3d0f01da	0.034913875
38	0x3df6b51f	0.12046265
39	0x3db403ac	0.08789763
40	0x3e1c78dc	0.15280479
41	0xbc5a7f27	-0.01333598
42	0x3e1f23b5	0.15540965
43	0xbde39116	-0.11111657
44	0xbe15499e	-0.14578864
45	0xbe331b22	-0.17490819
46	0xbe2c4b3e	-0.16825578
47	0xbdf16698	-0.11787146
48	0xbe07407d	-0.13208194
49	0x3d1697cd	0.036765862
50	0xbe28b7ef	-0.16476415
51	0x3cae2fa8	0.021262959
52	0xbd961eca	-0.07330091
53	0xbe0e58dd	-0.13901086
54	0xbd99b262	-0.07504727
55	0x3e30aae3	0.17252688
56	0x3e1a2946	0.15054807
57	0xbdde6ebb	-0.10860964
58	0xbda5aa53	-0.080891274
59	0x39dbe903	0.00041944542
60	0x3e2073b9	0.15669145
61	0x3bcf34ad	0.006323418
62	0xbd8721a7	-0.065982156
63	0x3e0839bf	0.13303278
64	0x3cd28c30	0.025701612
65	0x3ce278d5	0.027645508
66	0xbd892001	-0.066955574
67	0xbc478599	-0.012177848
68	0x3dfa502b	0.12222322
69	0xbdf63a23	-0.120228074
70	0xbe005d49	-0.12535585
71	0xbe08413f	-0.1330614
72	0xbd1d86c9	-0.03845862
73	0x3d6cdba5	0.057826657
74	0x3e0284af	0.12745927
75	0xbd0aec6a	-0.03391687
76	0xbcb4e757	-0.022082968
77	0xbd603266	-0.054735564
78	0x3e1cae55	0.15300877
79	0xbc42edbd	-0.011897502
80	0x3c38e204	0.011284355
81	0x3e02c4ee	0.12770435
82	0xbdc2512b	-0.09488138
83	0xbd6710cc	-0.056412503
84	0x3d006751	0.03134853
85	0xbdd76d0b	-0.10518845
86	0x3d6abf26	0.0573112
87	0xbcae4e25	-0.021277497
88	0xbe0c457d	-0.13698383
89	0xbddd48f6	-0.10804932
90	0x3c525bc1	0.012839259
91	0x3dca4d5d	0.09878037
92	0xbdcf83df	-0.10132574
93	0x3cf5db66	0.030011844
94	0x3dbd3d09	0.09240157
95	0xbd6b95f3	-0.05751605
96	0x3d0c3c4c	0.03423719
97	0xbde7622e	-0.11298023
98	0xbdb2f0d8	-0.087373435
99	0x3e178fc7	0.1480094
100	0x3e27fb27	0.16404401
101	0x3e2c0629	0.16799225
102	0x3d6af166	0.05735912
103	0xbe33eac2	-0.17570022
104	0xbc6734ba	-0.014111692
105	0xbd71712d	-0.058945823
106	0xbcd50ae0	-0.026006162
107	0xbd8af0d4	-0.067842156
108	0xbd8d472a	-0.06898339
109	0x3e2ea0f0	0.1705358
110	0xbe282391	-0.16419818
111	0x3d8d265b	0.06892081
112	0x3e0e4dd8	0.13896883
113	0x3c9264d3	0.017870342
114	0xbd00d44f	-0.031452473
115	0xbd16083a	-0.03662894
116	0x3a15851b	0.0005703733
117	0x3e0a8642	0.13527778
118	0xbd812971	-0.063067324
119	0xbe006797	-0.12539516
120	0x3e323fa5	0.17407091
121	0xbe1ba476	-0.15199456
122	0xbdf8970b	-0.12138184
123	0x3dbed607	0.09318166
124	0x3d81e697	0.0634281
125	0x3e1a7f7d	0.15087695
126	0x3dbb1a5a	0.091358855
127	0x3c76f9df	0.015074222
128	0x3d8e7bba	0.06957193
129	0xbd7e6c72	-0.06211514
130	0xbd4c890e	-0.049935393
131	0xbcb8d9c5	-0.022564778
132	0xbd4e7817	-0.050407495
133	0x3ddad985	0.1068602
134	0x3e241879	0.1602496
135	0xbcc70e01	-0.02429867
136	0xbda4798e	-0.08030997
137	0xbdb15ac0	-0.08659887
138	0xbd49874f	-0.049201306
139	0x3e13978e	0.14413282
140	0xbdf89f52	-0.12139763
141	0x3dbfe17e	0.09369181
142	0x3ceac82a	0.028659899
143	0xbd2744c2	-0.040837057
144	0xbdeb7e17	-0.11498659
145	0xbde475f2	-0.11155309
146	0xbe03eea6	-0.12884006
147	0x3e34f343	0.17670922
148	0x3df19f01	0.11797906
149	0x3e33abea	0.17546049
150	0x3dba6895	0.09101979
151	0xbdf6b3de	-0.12046026
152	0xbe26d7cd	-0.16293259
153	0x3cee887c	0.029117815
154	0x3da35440	0.07975054
155	0xbd62a4fc	-0.055333123
156	0xbd066645	-0.032812376
157	0xbdc69379	-0.09696097
158	0xbd634831	-0.05548877
159	0xbcddb0cc	-0.027061842
160	0xbda99d65	-0.08281974
161	0x3e14080d	0.14456196
162	0xbe10d67c	-0.1414432
163	0x3d29f651	0.04149467
164	0xbd8c07f0	-0.068374515
165	0xbc57831d	-0.013153818
166	0xbe23c1a2	-0.15991834
167	0x3e20e126	0.15710887
168	0x3e1259c4	0.14292055
169	0x3de8bbd8	0.11363953
170	0xbcfb27fd	-0.030658716
171	0xbe2ef342	-0.17084983
172	0x3cc331ff	0.023827551
173	0xbcffc534	-0.031221963
174	0xbde13670	-0.10996711
175	0xbc9920db	-0.018692425
176	0xbd3e8785	-0.04651596
177	0xbe22154e	-0.1582844
178	0xbe1d86d2	-0.15383461
179	0xbda4884c	-0.08033809
180	0xbe12ebce	-0.14347765
181	0x3d2705f1	0.04077715
182	0xbc763e37	-0.015029482
183	0x3d9f034e	0.07764302
184	0xbe1d7436	-0.15376362
185	0x3e2696f8	0.16268528
186	0xbca86260	-0.020554721
187	0x3e34a70f	0.17641853
188	0xbca4cc1c	-0.020116858
189	0x3df290db	0.11844035
190	0x3d19e12f	0.037568267
191	0x3e0f525e	0.13996264
192	0x3df74e68	0.12075502
193	0xbc365b30	-0.011130139
194	0x3d8ccbc5	0.068748035
195	0x3d06469d	0.032782186
196	0x3deab1a4	0.114596635
197	0xbdf5a88b	-0.11995038
198	0x3dc7816a	0.09741481
199	0x3c5ce2fa	0.01348185
200	0xbe1d0848	-0.1533519
201	0xbd97f90f	-0.07420551
202	0xbde1872a	-0.110121086
203	0xbcdb251e	-0.026751097
204	0xbe047fa3	-0.12939315
205	0xbe201364	-0.15632397
206	0xbd063d2b	-0.032773178
207	0x3c89c575	0.016817788
208	0xbdaa966e	-0.083294734
209	0xbe32d46c	-0.17463845
210	0x3e2a014c	0.16602057
211	0x3c186260	0.009300798
212	0x3c586ae0	0.013209075
213	0xbd8b65ca	-0.06806524
214	0xbd5d53ef	-0.054035123
215	0xbe0ddf84	-0.13854796
216	0x3d64adf2	0.05582995
217	0xbe1de054	-0.15417606
218	0x3dd772a9	0.105199166
219	0xbe31447d	-0.17311282
220	0xbdeaa924	-0.11458042
221	0xbd5b65ab	-0.053563755
222	0xbd03057a	-0.031987645
223	0xbdf2c671	-0.11854256
224	0x3cf43d1f	0.029814301
225	0xbe18d032	-0.1492317
226	0x3e2d7d6b	0.16942374
227	0xbe19777f	-0.1498699
228	0xbdf44b14	-0.119283825
229	0x3bb28d6f	0.005448989
230	0xbddd5192	-0.10806574
231	0xbcbb3330	-0.022851557
232	0xbdc3a83d	-0.09553573
233	0x3e2e7fcd	0.1704094
234	0xbde05f29	-0.1095565
235	0x3dbeedf1	0.093227275
236	0xbe1d81c5	-0.15381534
237	0xbcc020ab	-0.023453077
238	0x3ccf009d	0.025268847
239	0xbdca42b5	-0.098760046
240	0xbdc3cd1f	-0.09560608
241	0xbdeb0a0e	-0.11476527
242	0xbe2d0094	-0.16894752
243	0x3d70ea35	0.058817107
244	0x3c9e31f3	0.019310927
245	0xbdda007d	-0.106446244
246	0x3e176dfb	0.14788048
247	0x3cb302e2	0.02185196
248	0xbd7b2e91	-0.061323706
249	0xbc90bc58	-0.017667934
250	0x3d998913	0.07496848
251	0xbd906856	-0.070511505
252	0xbc39181c	-0.011297252
253	0xbcfa1cf6	-0.030531388
254	0x3d233975	0.039849717
255	0x3d9b8083	0.07592871

model.dense_nn.layers.6.bias f4 [16]
0	0xbd35a962	-0.04435099
1	0xbd26042b	-0.04053132
2	0xbdca0641	-0.09864474
3	0x3d6d8fcc	0.057998464
4	0xbd84bbfb	-0.06481167
5	0x3d9003fc	0.0703201
6	0x3df40312	0.11914648
7	0x3dbecf3c	0.093168706
8	0x3d0d83a9	0.03454939
9	0x3c91be1c	0.017790847
10	0xbd26ec15	-0.04075249
11	0x3e25798b	0.16159646
12	0x3d251522	0.040303357
13	0xbe2a58c0	-0.16635418
14	0x3e11771b	0.14205591
15	0x3e2b1997	0.1670898

model.dense_nn.layers.7.weight f4 [1, 16]
0	0x3e66be12	0.22533444
1	0xbdd64cd6	-0.10463874
2	0x3de2c3c7	0.11072498
3	0xbba133ac	-0.00491949
4	0x3e0cb2b8	0.13740051
5	0x3b81c6b5	0.0039604553
6	0xbe3b316c	-0.18280572
7	0x3e5acc18	0.21366918
8	0x3e02f4b3	0.12788658
9	0xbcbd4e25	-0.023108551
10	0x3e7e5fa4	0.24841172
11	0xbdf34b09	-0.11879546
12	0x3dc846ba	0.09779115
13	0xbd7090f1	-0.058731977
14	0xbd5fcd7a	-0.054639317
15	0x3d9e2e05	0.07723621

model.linear_residual.weight f4 [1, 2]
0	0xbf001128	-0.5002618
1	0xbe8d13f8	-0.27554297

exp_avg f4 [64, 2]
0	0xc0a899e8	-5.2687874
1	0xbd4e0675	-0.050299127
2	0x412a68a1	10.650544
3	0x3de26200	0.11053848
4	0x00000000	0.0
5	0x00000000	0.0
6	0x00000000	0.0
7	0x00000000	0.0
8	0x00000000	0.0
9	0x00000000	0.0
10	0x00000000	0.0
11	0x00000000	0.0
12	0x00000000	0.0
13	0x00000000	0.0
14	0x4141850c	12.094982
15	0x3e05711b	0.13031428
16	0xc0ff6290	-7.9807816
17	0xbd9d2628	-0.07673293
18	0xc03e29c3	-2.971299
19	0xbcf07f45	-0.029357562
20	0xbf99f814	-1.2028832
21	0xbc20da75	-0.009817709
22	0x41026b81	8.151246
23	0x3daed166	0.08536033
24	0x00000000	0.0
25	0x00000000	0.0
26	0xc16f26b9	-14.946954
27	0xbe17b778	-0.14816082
28	0x00000000	0.0
29	0x00000000	0.0
30	0xc17ed222	-15.926302
31	0xbe2aa55f	-0.16664647
32	0x00000000	0.0
33	0x00000000	0.0
34	0x00000000	0.0
35	0x00000000	0.0
36	0xc0528797	-3.2895257
37	0xbd03bbc8	-0.032161504
38	0x3ff28b68	1.8948793
39	0x3c872931	0.016499134
40	0x40b7597d	5.729674
41	0x3d7b538c	0.061358973
42	0x00000000	0.0
43	0x00000000	0.0
44	0x3fa6eb77	1.3040608
45	0x3c887e99	0.016661929
46	0xc0bfb4f5	-5.9908395
47	0xbd742021	-0.059600953
48	0xc08d10fc	-4.4083233
49	0xbd4ef390	-0.050525248
50	0x00000000	0.0
51	0x00000000	0.0
52	0x00000000	0.0
53	0x00000000	0.0
54	0x00000000	0.0
55	0x00000000	0.0
56	0x00000000	0.0
57	0x00000000	0.0
58	0x00000000	0.0
59	0x00000000	0.0
60	0xc1775df3	-15.460437
61	0xbe251c96	-0.16124186
62	0x00000000	0.0
63	0x00000000	0.0
64	0x00000000	0.0
65	0x00000000	0.0
66	0xbf9e7c35	-1.2381655
67	0xbbf6766a	-0.0075214403
68	0x4028b89d	2.636268
69	0x3cb8ef7e	0.022575136
70	0x00000000	0.0
71	0x00000000	0.0
72	0x40a3c330	5.1175766
73	0x3d41ad96	0.047284685
74	0x00000000	0.0
75	0x00000000	0.0
76	0x00000000	0.0
77	0x00000000	0.0
78	0x00000000	0.0
79	0x00000000	0.0
80	0xc19f418c	-19.907005
81	0xbe486323	-0.19569068
82	0xc19549be	-18.661007
83	0xbe44a925	-0.19205149
84	0x00000000	0.0
85	0x00000000	0.0
86	0x00000000	0.0
87	0x00000000	0.0
88	0xbe4a6741	-0.1976595
89	0xbb63aa4f	-0.0034738963
90	0x00000000	0.0
91	0x00000000	0.0
92	0x40f4e190	7.6525345
93	0x3d97f397	0.07419508
94	0x00000000	0.0
95	0x00000000	0.0
96	0x00000000	0.0
97	0x00000000	0.0
98	0x00000000	0.0
99	0x00000000	0.0
100	0x411e6ff8	9.902336
101	0x3dc38f41	0.09548808
102	0xc0f634e0	-7.6939545
103	0xbda74069	-0.08166582
104	0x00000000	0.0
105	0x00000000	0.0
106	0x00000000	0.0
107	0x00000000	0.0
108	0x00000000	0.0
109	0x00000000	0.0
110	0xbd9690e7	-0.07351857
111	0x3bbfef4d	0.0058573843
112	0x41196367	9.586768
113	0x3dc14844	0.09437612
114	0x00000000	0.0
115	0x00000000	0.0
116	0xc13b1bbc	-11.694271
117	0xbdf869a0	-0.12129521
118	0xc18daf92	-17.710728
119	0xbe3570b1	-0.1771877
120	0x00000000	0.0
121	0x00000000	0.0
122	0xc08d28d3	-4.4112334
123	0xbd14508c	-0.036209628
124	0x00000000	0.0
125	0x00000000	0.0
126	0x00000000	0.0
127	0x00000000	0.0

exp_avg_sq f4 [64, 2]
0	0x3f163245	0.58670455
1	0x3862b594	5.4051707e-05
2	0x40510a24	3.266244
3	0x39b2822c	0.0003404779
4	0x00000000	0.0
5	0x00000000	0.0
6	0x00000000	0.0
7	0x00000000	0.0
8	0x00000000	0.0
9	0x00000000	0.0
10	0x00000000	0.0
11	0x00000000	0.0
12	0x00000000	0.0
13	0x00000000	0.0
14	0x406eab8b	3.7292202
15	0x39d59a26	0.00040741375
16	0x3fe54b1c	1.7913547
17	0x3934629d	0.00017202874
18	0x3e7bf561	0.24605323
19	0x37cb1500	2.4209265e-05
20	0x3dab7dc1	0.08373595
21	0x370b6c69	8.310287e-06
22	0x402404b3	2.5627868
23	0x398b9c2a	0.00026628497
24	0x00000000	0.0
25	0x00000000	0.0
26	0x40a145df	5.039779
27	0x3a02763a	0.00049767236
28	0x00000000	0.0
29	0x00000000	0.0
30	0x40c71dca	6.2223864
31	0x3a2ca7bc	0.00065862737
32	0x00000000	0.0
33	0x00000000	0.0
34	0x00000000	0.0
35	0x00000000	0.0
36	0x3e6a4723	0.22878699
37	0x37b89ec6	2.2008444e-05
38	0x3f7e9a04	0.9945376
39	0x38ca998e	9.6607124e-05
40	0x3f49ec78	0.7887645
41	0x38b5e2ad	8.672974e-05
42	0x00000000	0.0
43	0x00000000	0.0
44	0x3e0d91c1	0.13825132
45	0x37635871	1.3550846e-05
46	0x3f8b61a7	1.0889176
47	0x38dfc6bd	0.000106704865
48	0x3ed6a170	0.41920042
49	0x385a3f19	5.2034015e-05
50	0x00000000	0.0
51	0x00000000	0.0
52	0x00000000	0.0
53	0x00000000	0.0
54	0x00000000	0.0
55	0x00000000	0.0
56	0x00000000	0.0
57	0x00000000	0.0
58	0x00000000	0.0
59	0x00000000	0.0
60	0x40c70e08	6.220463
61	0x3a2b342f	0.0006530908
62	0x00000000	0.0
63	0x00000000	0.0
64	0x00000000	0.0
65	0x00000000	0.0
66	0x3e1f6980	0.15567589
67	0x377aee44	1.4956637e-05
68	0x3e965df7	0.29368564
69	0x37e19375	2.6890755e-05
70	0x00000000	0.0
71	0x00000000	0.0
72	0x3f2ecc97	0.6828093
73	0x38839beb	6.275609e-05
74	0x00000000	0.0
75	0x00000000	0.0
76	0x00000000	0.0
77	0x00000000	0.0
78	0x00000000	0.0
79	0x00000000	0.0
80	0x411e97e5	9.912084
81	0x3a7edd3d	0.0009722298
82	0x4102a28e	8.164686
83	0x3a5fd087	0.0008537848
84	0x00000000	0.0
85	0x00000000	0.0
86	0x00000000	0.0
87	0x00000000	0.0
88	0x3e8035ea	0.25041133
89	0x37df8e6b	2.664999e-05
90	0x00000000	0.0
91	0x00000000	0.0
92	0x3fa6c799	1.3029662
93	0x38fe8e0a	0.00012138121
94	0x00000000	0.0
95	0x00000000	0.0
96	0x00000000	0.0
97	0x00000000	0.0
98	0x00000000	0.0
99	0x00000000	0.0
100	0x400b2cc7	2.174608
101	0x3959e3cb	0.00020779592
102	0x3fad0f51	1.3520299
103	0x391b36df	0.00014802393
104	0x00000000	0.0
105	0x00000000	0.0
106	0x00000000	0.0
107	0x00000000	0.0
108	0x00000000	0.0
109	0x00000000	0.0
110	0x3eb0b37e	0.34511942
111	0x37eeea2a	2.8480852e-05
112	0x400eb70d	2.2299225
113	0x3965797b	0.00021884397
114	0x00000000	0.0
115	0x00000000	0.0
116	0x40421b40	3.0329132
117	0x39a795d4	0.00031964353
118	0x410b88d8	8.720909
119	0x3a63abc2	0.00086849567
120	0x00000000	0.0
121	0x00000000	0.0
122	0x3edb2b98	0.42806697
123	0x37f694f9	2.9394856e-05
124	0x00000000	0.0
125	0x00000000	0.0
126	0x00000000	0.0
127	0x00000000	0.0

exp_avg f4 [64]
0	0xbdd1c38e	-0.10242377
1	0x3e536625	0.20644434
2	0x00000000	0.0
3	0x00000000	0.0
4	0x00000000	0.0
5	0x00000000	0.0
6	0x00000000	0.0
7	0x3e717631	0.23580243
8	0xbe1da831	-0.15396191
9	0xbd6a3880	-0.05718279
10	0xbcb9d598	-0.022684857
11	0x3e216239	0.15760125
12	0x00000000	0.0
13	0xbe944033	-0.2895523
14	0x00000000	0.0
15	0xbe9e4180	-0.30909348
16	0x00000000	0.0
17	0x00000000	0.0
18	0xbd82184e	-0.06352292
19	0x3d14d2e1	0.036333922
20	0x3de4afaf	0.111663215
21	0x00000000	0.0
22	0x3cd2604f	0.02568069
23	0xbded3260	-0.11581874
24	0xbdb022b9	-0.08600373
25	0x00000000	0.0
26	0x00000000	0.0
27	0x00000000	0.0
28	0x00000000	0.0
29	0x00000000	0.0
30	0xbe996f52	-0.29967743
31	0x00000000	0.0
32	0x00000000	0.0
33	0xbcbe5f56	-0.02323882
34	0x3d4fe8aa	0.050758995
35	0x00000000	0.0
36	0x3dca1ce9	0.098687954
37	0x00000000	0.0
38	0x00000000	0.0
39	0x00000000	0.0
40	0xbec5165d	-0.38493624
41	0xbeb921e5	-0.36158672
42	0x00000000	0.0
43	0x00000000	0.0
44	0xbb98da1e	-0.0046646735
45	0x00000000	0.0
46	0x3e180024	0.14843804
47	0x00000000	0.0
48	0x00000000	0.0
49	0x00000000	0.0
50	0x3e43f4b3	0.19136314
51	0xbe18aae2	-0.14908937
52	0x00000000	0.0
53	0x00000000	0.0
54	0x00000000	0.0
55	0xb9f83a8b	-0.00047345864
56	0x3e3df53a	0.18550578
57	0x00000000	0.0
58	0xbe68cbcb	-0.22733991
59	0xbeaf9414	-0.34292662
60	0x00000000	0.0
61	0xbdae6bb4	-0.085166365
62	0x00000000	0.0
63	0x00000000	0.0

exp_avg_sq f4 [64]
0	0x3967e909	0.00022116689
1	0x3aa0adc2	0.0012258815
2	0x00000000	0.0
3	0x00000000	0.0
4	0x00000000	0.0
5	0x00000000	0.0
6	0x00000000	0.0
7	0x3ab8daf7	0.0014103343
8	0x3a2f34fb	0.0006683615
9	0x38bf30db	9.11669e-05
10	0x3801ef42	3.0978823e-05
11	0x3a7b2d51	0.0009581643
12	0x00000000	0.0
13	0x3af7eccf	0.0018915179
14	0x00000000	0.0
15	0x3b193dae	0.0023382711
16	0x00000000	0.0
17	0x00000000	0.0
18	0x38b2f91b	8.534101e-05
19	0x39c2a217	0.0003712333
20	0x399c7f32	0.00029849407
21	0x00000000	0.0
22	0x3857a9c6	5.141811e-05
23	0x39d520a1	0.00040650836
24	0x392684a9	0.00015880413
25	0x00000000	0.0
26	0x00000000	0.0
27	0x00000000	0.0
28	0x00000000	0.0
29	0x00000000	0.0
30	0x3b18e0e1	0.0023327398
31	0x00000000	0.0
32	0x00000000	0.0
33	0x3871a8ca	5.7616075e-05
34	0x38e5ce9f	0.00010958057
35	0x00000000	0.0
36	0x39856db2	0.00025449466
37	0x00000000	0.0
38	0x00000000	0.0
39	0x00000000	0.0
40	0x3b7329e0	0.0037103817
41	0x3b48d4f6	0.0030644513
42	0x00000000	0.0
43	0x00000000	0.0
44	0x38c518ac	9.3982875e-05
45	0x00000000	0.0
46	0x3a00038a	0.000488334
47	0x00000000	0.0
48	0x00000000	0.0
49	0x00000000	0.0
50	0x3a55457e	0.00081356603
51	0x3a04c1f3	0.0005064301
52	0x00000000	0.0
53	0x00000000	0.0
54	0x00000000	0.0
55	0x3905ce9d	0.00012760838
56	0x3a5ae891	0.0008350695
57	0x00000000	0.0
58	0x3a960cb7	0.0011447881
59	0x3b562ccb	0.0032680507
60	0x00000000	0.0
61	0x392654ba	0.00015862557
62	0x00000000	0.0
63	0x00000000	0.0

exp_avg f4 [64, 64]
0	0x41035ffc	8.210934
1	0x411fae27	9.980018
2	0x00000000	0.0
3	0x00000000	0.0
4	0x00000000	0.0
5	0x00000000	0.0
6	0x00000000	0.0
7	0x4120ef25	10.058385
8	0x413eae4e	11.917555
9	0x409d629b	4.918287
10	0x410c6726	8.775183
11	0x4028e5fe	2.6390376
12	0x00000000	0.0
13	0x414082dd	12.031949
14	0x00000000	0.0
15	0x40c1786a	6.045949
16	0x00000000	0.0
17	0x00000000	0.0
18	0x410136e5	8.075902
19	0x414c8f4a	12.784983
20	0x409b30cd	4.849707
21	0x00000000	0.0
22	0x40b0b3e9	5.5219617
23	0x41115664	9.083591
24	0x412166c1	10.087586
25	0x00000000	0.0
26	0x00000000	0.0
27	0x00000000	0.0
28	0x00000000	0.0
29	0x00000000	0.0
30	0x403f23e8	2.9865665
31	0x00000000	0.0
32	0x00000000	0.0
33	0x412eca76	10.924429
34	0x41139d62	9.225924
35	0x00000000	0.0
36	0x3f9ee670	1.2414074
37	0x00000000	0.0
38	0x00000000	0.0
39	0x00000000	0.0
40	0x408f4724	4.477434
41	0x41498e12	12.597185
42	0x00000000	0.0
43	0x00000000	0.0
44	0x40f34b75	7.602961
45	0x00000000	0.0
46	0x40f6a07e	7.7070913
47	0x00000000	0.0
48	0x00000000	0.0
49	0x00000000	0.0
50	0x402f3816	2.7377982
51	0x412d5972	10.834337
52	0x00000000	0.0
53	0x00000000	0.0
54	0x00000000	0.0
55	0x405a1d22	3.4080281
56	0x41584af1	13.518296
57	0x00000000	0.0
58	0x4139ec77	11.620231
59	0x40c2c363	6.086351
60	0x00000000	0.0
61	0x4113c01d	9.234403
62	0x00000000	0.0
63	0x00000000	0.0
64	0x00000000	0.0
65	0x00000000	0.0
66	0x00000000	0.0
67	0x00000000	0.0
68	0x00000000	0.0
69	0x00000000	0.0
70	0x00000000	0.0
71	0x00000000	0.0
72	0x00000000	0.0
73	0x00000000	0.0
74	0x00000000	0.0
75	0x00000000	0.0
76	0x00000000	0.0
77	0x00000000	0.0
78	0x00000000	0.0
79	0x00000000	0.0
80	0x00000000	0.0
81	0x00000000	0.0
82	0x00000000	0.0
83	0x00000000	0.0
84	0x00000000	0.0
85	0x00000000	0.0
86	0x00000000	0.0
87	0x00000000	0.0
88	0x00000000	0.0
89	0x00000000	0.0
90	0x00000000	0.0
91	0x00000000	0.0
92	0x00000000	0.0
93	0x00000000	0.0
94	0x00000000	0.0
95	0x00000000	0.0
96	0x00000000	0.0
97	0x00000000	0.0
98	0x00000000	0.0
99	0x00000000	0.0
100	0x00000000	0.0
101	0x00000000	0.0
102	0x00000000	0.0
103	0x00000000	0.0
104	0x00000000	0.0
105	0x00000000	0.0
106	0x00000000	0.0
107	0x00000000	0.0
108	0x00000000	0.0
109	0x00000000	0.0
110	0x00000000	0.0
111	0x00000000	0.0
112	0x00000000	0.0
113	0x00000000	0.0
114	0x00000000	0.0
115	0x00000000	0.0
116	0x00000000	0.0
117	0x00000000	0.0
118	0x00000000	0.0
119	0x00000000	0.0
120	0x00000000	0.0
121	0x00000000	0.0
122	0x00000000	0.0
123	0x00000000	0.0
124	0x00000000	0.0
125	0x00000000	0.0
126	0x00000000	0.0
127	0x00000000	0.0
128	0x400f8a48	2.242815
129	0x402e6055	2.7246296
130	0x00000000	0.0
131	0x00000000	0.0
132	0x00000000	0.0
133	0x00000000	0.0
134	0x00000000	0.0
135	0x402fb825	2.7456143
136	0x40505067	3.2549074
137	0x3fabd918	1.3425627
138	0x40195be9	2.3962348
139	0x3f38a8b8	0.72132444
140	0x00000000	0.0
141	0x40523bcf	3.2849004
142	0x00000000	0.0
143	0x3fd2dfb8	1.6474524
144	0x00000000	0.0
145	0x00000000	0.0
146	0x400d16ed	2.2045243
147	0x405f380d	3.487796
148	0x3fa97cdd	1.324123
149	0x00000000	0.0
150	0x3fc10b88	1.5081644
151	0x401ea578	2.4788494
152	0x4030204c	2.7519712
153	0x00000000	0.0
154	0x00000000	0.0
155	0x00000000	0.0
156	0x00000000	0.0
157	0x00000000	0.0
158	0x3f514295	0.8174222
159	0x00000000	0.0
160	0x00000000	0.0
161	0x403f03ab	2.9845989
162	0x4020f3c2	2.5148778
163	0x00000000	0.0
164	0x3eace1c0	0.33765984
165	0x00000000	0.0
166	0x00000000	0.0
167	0x00000000	0.0
168	0x3f9c638f	1.2217883
169	0x405bf57e	3.4368587
170	0x00000000	0.0
171	0x00000000	0.0
172	0x40049cfd	2.0720818
173	0x00000000	0.0
174	0x400680c0	2.1016083
175	0x00000000	0.0
176	0x00000000	0.0
177	0x00000000	0.0
178	0x3f3e8553	0.74422187
179	0x403d558a	2.958346
180	0x00000000	0.0
181	0x00000000	0.0
182	0x00000000	0.0
183	0x3f6df505	0.92951995
184	0x406c2c72	3.6902127
185	0x00000000	0.0
186	0x404b0d0a	3.1726708
187	0x3fd4839c	1.6602664
188	0x00000000	0.0
189	0x40214ad3	2.520192
190	0x00000000	0.0
191	0x00000000	0.0
192	0x00000000	0.0
193	0x00000000	0.0
194	0x00000000	0.0
195	0x00000000	0.0
196	0x00000000	0.0
197	0x00000000	0.0
198	0x00000000	0.0
199	0x00000000	0.0
200	0x00000000	0.0
201	0x00000000	0.0
202	0x00000000	0.0
203	0x00000000	0.0
204	0x00000000	0.0
205	0x00000000	0.0
206	0x00000000	0.0
207	0x00000000	0.0
208	0x00000000	0.0
209	0x00000000	0.0
210	0x00000000	0.0
211	0x00000000	0.0
212	0x00000000	0.0
213	0x00000000	0.0
214	0x00000000	0.0
215	0x00000000	0.0
216	0x00000000	0.0
217	0x00000000	0.0
218	0x00000000	0.0
219	0x00000000	0.0
220	0x00000000	0.0
221	0x00000000	0.0
222	0x00000000	0.0
223	0x00000000	0.0
224	0x00000000	0.0
225	0x00000000	0.0
226	0x00000000	0.0
227	0x00000000	0.0
228	0x00000000	0.0
229	0x00000000	0.0
230	0x00000000	0.0
231	0x00000000	0.0
232	0x00000000	0.0
233	0x00000000	0.0
234	0x00000000	0.0
235	0x00000000	0.0
236	0x00000000	0.0
237	0x00000000	0.0
238	0x00000000	0.0
239	0x00000000	0.0
240	0x00000000	0.0
241	0x00000000	0.0
242	0x00000000	0.0
243	0x00000000	0.0
244	0x00000000	0.0
245	0x00000000	0.0
246	0x00000000	0.0
247	0x00000000	0.0
248	0x00000000	0.0
249	0x00000000	0.0
250	0x00000000	0.0
251	0x00000000	0.0
252	0x00000000	0.0
253	0x00000000	0.0
254	0x00000000	0.0
255	0x00000000	0.0

exp_avg_sq f4 [64, 64]
0	0x3fba1c38	1.4539862
1	0x4009ade6	2.151239
2	0x00000000	0.0
3	0x00000000	0.0
4	0x00000000	0.0
5	0x00000000	0.0
6	0x00000000	0.0
7	0x400bda6e	2.185207
8	0x4044122b	3.063609
9	0x3f0580d9	0.5214973
10	0x3fd4954a	1.660806
11	0x3e1a3672	0.15059832
12	0x00000000	0.0
13	0x4047e0b6	3.1230903
14	0x00000000	0.0
15	0x3f49ecd8	0.7887702
16	0x00000000	0.0
17	0x00000000	0.0
18	0x3fb426a9	1.4074298
19	0x4061f6b7	3.5306833
20	0x3f0220a4	0.50831056
21	0x00000000	0.0
22	0x3f28a571	0.65877444
23	0x3fe3d71a	1.7800019
24	0x400c85c5	2.1956646
25	0x00000000	0.0
26	0x00000000	0.0
27	0x00000000	0.0
28	0x00000000	0.0
29	0x00000000	0.0
30	0x3e448b1d	0.19193693
31	0x00000000	0.0
32	0x00000000	0.0
33	0x4024bb11	2.5739176
34	0x3feb741d	1.839481
35	0x00000000	0.0
36	0x3d092272	0.033480115
37	0x00000000	0.0
38	0x00000000	0.0
39	0x00000000	0.0
40	0x3edd47f0	0.43218946
41	0x405b2932	3.4243894
42	0x00000000	0.0
43	0x00000000	0.0
44	0x3f9feae8	1.2493563
45	0x00000000	0.0
46	0x3fa45059	1.283702
47	0x00000000	0.0
48	0x00000000	0.0
49	0x00000000	0.0
50	0x3e26564e	0.1624386
51	0x40220caa	2.532023
52	0x00000000	0.0
53	0x00000000	0.0
54	0x00000000	0.0
55	0x3e809a79	0.25117853
56	0x407c941a	3.9465394
57	0x00000000	0.0
58	0x403a6b62	2.9128041
59	0x3f4c8968	0.79897165
60	0x00000000	0.0
61	0x3feb8bac	1.8402
62	0x00000000	0.0
63	0x00000000	0.0
64	0x00000000	0.0
65	0x00000000	0.0
66	0x00000000	0.0
67	0x00000000	0.0
68	0x00000000	0.0
69	0x00000000	0.0
70	0x00000000	0.0
71	0x00000000	0.0
72	0x00000000	0.0
73	0x00000000	0.0
74	0x00000000	0.0
75	0x00000000	0.0
76	0x00000000	0.0
77	0x00000000	0.0
78	0x00000000	0.0
79	0x00000000	0.0
80	0x00000000	0.0
81	0x00000000	0.0
82	0x00000000	0.0
83	0x00000000	0.0
84	0x00000000	0.0
85	0x00000000	0.0
86	0x00000000	0.0
87	0x00000000	0.0
88	0x00000000	0.0
89	0x00000000	0.0
90	0x00000000	0.0
91	0x00000000	0.0
92	0x00000000	0.0
93	0x00000000	0.0
94	0x00000000	0.0
95	0x00000000	0.0
96	0x00000000	0.0
97	0x00000000	0.0
98	0x00000000	0.0
99	0x00000000	0.0
100	0x00000000	0.0
101	0x00000000	0.0
102	0x00000000	0.0
103	0x00000000	0.0
104	0x00000000	0.0
105	0x00000000	0.0
106	0x00000000	0.0
107	0x00000000	0.0
108	0x00000000	0.0
109	0x00000000	0.0
110	0x00000000	0.0
111	0x00000000	0.0
112	0x00000000	0.0
113	0x00000000	0.0
114	0x00000000	0.0
115	0x00000000	0.0
116	0x00000000	0.0
117	0x00000000	0.0
118	0x00000000	0.0
119	0x00000000	0.0
120	0x00000000	0.0
121	0x00000000	0.0
122	0x00000000	0.0
123	0x00000000	0.0
124	0x00000000	0.0
125	0x00000000	0.0
126	0x00000000	0.0
127	0x00000000	0.0
128	0x3ddbcd59	0.10732526
129	0x3e2241e5	0.1584545
130	0x00000000	0.0
131	0x00000000	0.0
132	0x00000000	0.0
133	0x00000000	0.0
134	0x00000000	0.0
135	0x3e24c73d	0.16091628
136	0x3e677a9a	0.22605363
137	0x3d1d8bd2	0.03846342
138	0x3dfaee88	0.122525275
139	0x3c35ea78	0.011103265
140	0x00000000	0.0
141	0x3e6bcd37	0.23027502
142	0x00000000	0.0
143	0x3d6d6a26	0.05796256
144	0x00000000	0.0
145	0x00000000	0.0
146	0x3dd46d88	0.10372454
147	0x3e84fa48	0.259722
148	0x3d194d0e	0.037427
149	0x00000000	0.0
150	0x3d46d5a3	0.048543584
151	0x3e064d0b	0.13115327
152	0x3e258c10	0.16166711
153	0x00000000	0.0
154	0x00000000	0.0
155	0x00000000	0.0
156	0x00000000	0.0
157	0x00000000	0.0
158	0x3c6951d2	0.014240699
159	0x00000000	0.0
160	0x00000000	0.0
161	0x3e429b6b	0.190046
162	0x3e0a540d	0.13508625
163	0x00000000	0.0
164	0x3b1fdf8f	0.0024394726
165	0x00000000	0.0
166	0x00000000	0.0
167	0x00000000	0.0
168	0x3d027e13	0.031858515
169	0x3e811981	0.2521477
170	0x00000000	0.0
171	0x00000000	0.0
172	0x3dbbd117	0.0917074
173	0x00000000	0.0
174	0x3dc12da9	0.09432537
175	0x00000000	0.0
176	0x00000000	0.0
177	0x00000000	0.0
178	0x3c421e8f	0.011848106
179	0x3e3f3c7e	0.1867542
180	0x00000000	0.0
181	0x00000000	0.0
182	0x00000000	0.0
183	0x3c972513	0.018450296
184	0x3e94d2ee	0.29067177
185	0x00000000	0.0
186	0x3e5bf592	0.21480396
187	0x3d7103ca	0.058841504
188	0x00000000	0.0
189	0x3e0ad278	0.1355685
190	0x00000000	0.0
191	0x00000000	0.0
192	0x00000000	0.0
193	0x00000000	0.0
194	0x00000000	0.0
195	0x00000000	0.0
196	0x00000000	0.0
197	0x00000000	0.0
198	0x00000000	0.0
199	0x00000000	0.0
200	0x00000000	0.0
201	0x00000000	0.0
202	0x00000000	0.0
203	0x00000000	0.0
204	0x00000000	0.0
205	0x00000000	0.0
206	0x00000000	0.0
207	0x00000000	0.0
208	0x00000000	0.0
209	0x00000000	0.0
210	0x00000000	0.0
211	0x00000000	0.0
212	0x00000000	0.0
213	0x00000000	0.0
214	0x00000000	0.0
215	0x00000000	0.0
216	0x00000000	0.0
217	0x00000000	0.0
218	0x00000000	0.0
219	0x00000000	0.0
220	0x00000000	0.0
221	0x00000000	0.0
222	0x00000000	0.0
223	0x00000000	0.0
224	0x00000000	0.0
225	0x00000000	0.0
226	0x00000000	0.0
227	0x00000000	0.0
228	0x00000000	0.0
229	0x00000000	0.0
230	0x00000000	0.0
231	0x00000000	0.0
232	0x00000000	0.0
233	0x00000000	0.0
234	0x00000000	0.0
235	0x00000000	0.0
236	0x00000000	0.0
237	0x00000000	0.0
238	0x00000000	0.0
239	0x00000000	0.0
240	0x00000000	0.0
241	0x00000000	0.0
242	0x00000000	0.0
243	0x00000000	0.0
244	0x00000000	0.0
245	0x00000000	0.0
246	0x00000000	0.0
247	0x00000000	0.0
248	0x00000000	0.0
249	0x00000000	0.0
250	0x00000000	0.0
251	0x00000000	0.0
252	0x00000000	0.0
253	0x00000000	0.0
254	0x00000000	0.0
255	0x00000000	0.0

exp_avg f4 [64]
0	0x3ebdeae4	0.3709327
1	0x00000000	0.0
2	0x3dd131ba	0.10214563
3	0x00000000	0.0
4	0xbf2c6fd5	-0.6735814
5	0x00000000	0.0
6	0x00000000	0.0
7	0xbf1558b3	-0.5833847
8	0x00000000	0.0
9	0x3f21d817	0.6322035
10	0xbf40f241	-0.7536965
11	0xbe17595e	-0.14780185
12	0x3e41cf15	0.18926652
13	0xbf23020e	-0.6367501
14	0x3eb3bcde	0.35105032
15	0x3d4c2e72	0.04984898
16	0xbd344a4f	-0.04401618
17	0xbd04d76e	-0.032432012
18	0x00000000	0.0
19	0xbf490f0d	-0.7853859
20	0x00000000	0.0
21	0x00000000	0.0
22	0x3ee7699b	0.45197758
23	0x00000000	0.0
24	0x00000000	0.0
25	0x00000000	0.0
26	0xbed9b723	-0.42522535
27	0x00000000	0.0
28	0x3f0e3779	0.55553395
29	0x3eea59ec	0.4577173
30	0x00000000	0.0
31	0xbf03b14f	-0.51442426
32	0x3c0c9064	0.008579347
33	0x00000000	0.0
34	0x00000000	0.0
35	0x3f6b27ad	0.91857415
36	0xbef6f8af	-0.48236606
37	0x3e90c130	0.2827239
38	0x3e9f83c3	0.31155214
39	0x00000000	0.0
40	0x00000000	0.0
41	0x00000000	0.0
42	0x3f08b065	0.53394157
43	0x00000000	0.0
44	0x00000000	0.0
45	0xbd8de625	-0.06928662
46	0x00000000	0.0
47	0x00000000	0.0
48	0x00000000	0.0
49	0x3e593269	0.21210636
50	0xbf86c00c	-1.0527358
51	0x00000000	0.0
52	0xbe835b4a	-0.25655586
53	0xbef1d3fd	-0.47232047
54	0x39208ff3	0.00015312414
55	0x00000000	0.0
56	0x00000000	0.0
57	0x3e654d54	0.2239278
58	0x3e86eb6a	0.26351482
59	0x3e820794	0.25396407
60	0x00000000	0.0
61	0x00000000	0.0
62	0x00000000	0.0
63	0x00000000	0.0

exp_avg_sq f4 [64]
0	0x3b423f04	0.002963961
1	0x00000000	0.0
2	0x3968c688	0.00022199203
3	0x00000000	0.0
4	0x3c37ddcf	0.011222317
5	0x00000000	0.0
6	0x00000000	0.0
7	0x3c051876	0.008123508
8	0x00000000	0.0
9	0x3c3ac9b8	0.011400633
10	0x3c8d2493	0.017229354
11	0x39e57279	0.00043763572
12	0x3b632323	0.0034658394
13	0x3c0d561e	0.008626489
14	0x3b43e1da	0.0029889257
15	0x38fda653	0.000120949604
16	0x391efa82	0.00015161376
17	0x38e66d70	0.00010987639
18	0x00000000	0.0
19	0x3c63c242	0.013901295
20	0x00000000	0.0
21	0x00000000	0.0
22	0x3b9dad2a	0.0048119025
23	0x00000000	0.0
24	0x00000000	0.0
25	0x00000000	0.0
26	0x3ba017b4	0.004885638
27	0x00000000	0.0
28	0x3c156a89	0.009119638
29	0x3c043e8d	0.008071554
30	0x00000000	0.0
31	0x3badfe42	0.005309851
32	0x3879aa42	5.952479e-05
33	0x00000000	0.0
34	0x00000000	0.0
35	0x3cd24bbc	0.025670879
36	0x3bbd8f92	0.005784937
37	0x3b6368af	0.0034699847
38	0x3b24007e	0.0025024707
39	0x00000000	0.0
40	0x00000000	0.0
41	0x00000000	0.0
42	0x3bde9293	0.0067923754
43	0x00000000	0.0
44	0x00000000	0.0
45	0x38c87be2	9.559818e-05
46	0x00000000	0.0
47	0x00000000	0.0
48	0x00000000	0.0
49	0x3b169634	0.0022977712
50	0x3ce8741a	0.028375674
51	0x00000000	0.0
52	0x3aa94678	0.0012914678
53	0x3bebda82	0.007197679
54	0x34075e36	1.2607128e-07
55	0x00000000	0.0
56	0x00000000	0.0
57	0x3b3d2fc1	0.0028867575
58	0x3b2a635c	0.0025999164
59	0x3ad68c28	0.0016368674
60	0x00000000	0.0
61	0x00000000	0.0
62	0x00000000	0.0
63	0x00000000	0.0
