deeper_null/lightning_logs/version_39/checkpoints/epoch=9-step=20.ckpt (torch, 99907 bytes, 30 tensors)

model.dense_nn.layers.0.weight f4 [64, 2]
000000 82 0e 23 3f 72 c9 b6 be a2 f7 2a 3d c7 c5 22 be
       0.6369401 -0.35700566 0.041740067 -0.15895759
000010 d5 5e 15 bf 57 ac 0c bf c8 2c a7 3e 94 15 40 be
       -0.5834783 -0.5495047 0.32651353 -0.18758231
000020 d5 a1 32 bf 62 d2 e0 be 5e ba bd bd 2c 24 70 be
       -0.69778186 -0.4391051 -0.09264062 -0.23451298
000030 63 ea ef be 09 fe b8 3e 4c e2 05 3f a6 a2 e5 be
       -0.4685851 0.36131313 0.52298427 -0.44850653
000040 f9 06 9b 3e 26 5a c1 be 79 32 3d be 9c 1f 1e be
       0.30278757 -0.3776409 -0.18476285 -0.15441746
000050 ad fc 14 3f a5 56 2b 3f 25 d7 d1 be 92 ff be 3e
       0.5819805 0.66929084 -0.40984455 0.3730436
000060 59 59 9e be cd b3 ba 3e 8a 61 04 bf 46 29 14 3f
       -0.30927542 0.36465302 -0.5171133 0.5787548
000070 da 6a e9 3d 14 4d fd be 9c 74 08 bf bc 41 b6 bc
       0.113973334 -0.49472868 -0.5330293 -0.022248141
000080 68 1e af 3e ad dd 9d 3e 01 42 19 3f 7a cf 5d 3e
       0.34202886 0.30833188 0.5986634 0.21661177
000090 52 6f 08 3f 1b 7e 19 3f 19 d6 c4 3e a6 64 7e 3e
       0.5329486 0.59958047 0.38444594 0.24843082
0000a0 7a f9 50 3d fd fb 9a 3c 35 7b 40 3e c5 85 10 bc
       0.05101917 0.018918986 0.18797 -0.008820956
0000b0 96 dc 83 3e a2 7e f6 be a4 71 98 be 7e b1 ff 3e
       0.2575423 -0.48143488 -0.297742 0.49940103
0000c0 8c ab 73 bd 95 c4 16 3e ef bd fd 3d 08 2f f0 be
       -0.05948977 0.14723428 0.123897426 -0.46910882
0000d0 b8 54 7f 3d ea 1d f1 3e f2 c1 12 3f fe cc 8d be
       0.062336653 0.47093135 0.5732719 -0.2769546
0000e0 78 ce 1d bf 20 ae b1 3e d5 25 28 bb 21 d0 90 be
       -0.6164317 0.3470316 -0.0025657315 -0.2828379
0000f0 83 9c 87 be 72 23 bd be 71 63 30 be ac f3 92 3e
       -0.26486596 -0.36941105 -0.17225434 0.28701532
000100 bb 36 22 3f 4a 3b 0f bf b2 d2 db be 34 74 29 bf
       0.6336476 -0.5594984 -0.42934185 -0.66192937
000110 1d 74 8c be ce 34 69 3e a2 a8 a2 be af b4 90 3e
       -0.27432337 0.2277405 -0.31769282 0.2826285
000120 34 ac b9 3e 2e ad dd 3c f9 13 21 3f 44 ca 14 bf
       0.36264193 0.027060118 0.629211 -0.5812113
000130 51 4d ba 3e 9d fc c7 3e a6 60 f4 3e da 34 78 bd
       0.36387113 0.39059916 0.47729987 -0.06059728
000140 70 06 05 bd 81 ed 5a 3e 26 2e a3 3e aa 0c 88 bd
       -0.032476842 0.21379663 0.31871146 -0.066430405
000150 b4 48 30 3f fe f8 0f be bd 93 16 bf 87 f7 ba 3d
       0.68860936 -0.14059827 -0.5881918 0.09129243
000160 da 5e 28 bf b3 f3 99 be c6 4c 16 3f b9 99 c4 3e
       -0.6576973 -0.3006874 0.58710897 0.3839853
000170 7e b4 52 be ba b5 e3 be ec 8d 0f 3f fa 65 7d 3e
       -0.20576665 -0.44474584 0.5607593 0.24745932
000180 64 9d 2b 3f cd 54 6c 3e 51 ce b0 3e b5 ee e5 3e
       0.67037034 0.23079224 0.34532407 0.44908682
000190 8a 49 8f be 1a f2 f3 be 36 12 c5 bd 95 f6 2a bf
       -0.27985793 -0.47645646 -0.09622614 -0.66782504
0001a0 37 b4 24 bf fe 03 ed be ae 25 1d bf aa ed ee 3e
       -0.64337486 -0.46292108 -0.6138562 0.46665698
0001b0 27 46 25 bf e4 c8 7b 3e cf fc 19 3f f1 35 53 be
       -0.6456017 0.24588352 0.6015138 -0.20626046
0001c0 c6 f7 46 be 47 b8 e1 3e 41 c3 0a bf ba 33 03 bf
       -0.19430456 0.44085905 -0.54204184 -0.51250803
0001d0 4e 75 26 bf da 2c 0c bf 65 fd 9a be 4f 49 80 be
       -0.6502274 -0.5475594 -0.3027145 -0.2505593
0001e0 2b b7 72 3e c0 c1 46 bd b2 74 f8 bd d3 03 17 bd
       0.23702686 -0.04852462 -0.12131633 -0.03686888
0001f0 41 8d b7 be 5b a3 80 3e 08 1a 5f be 49 f5 81 3d
       -0.35849956 0.2512463 -0.21787274 0.063456126

model.dense_nn.layers.0.bias f4 [64]
000000 6c ad 2f bf f8 c3 67 be bc 34 22 bf d9 a3 6f bd
       -0.68623996 -0.2263335 -0.63361716 -0.058505867
000010 8c 92 42 3e e2 53 ce 3e 57 d5 ae be e5 c9 01 bf
       0.19001216 0.40298373 -0.3414714 -0.5069869
000020 d7 12 03 3f 2b 71 af 3e c0 6e dc bc 96 3c ad be
       0.5120062 0.34266028 -0.026908278 -0.33835286
000030 a0 60 01 3f 62 23 34 3d d6 8c ac be 21 83 a7 be
       0.50538063 0.043979056 -0.337012 -0.3271723
000040 71 e5 12 bf ba 3c 16 bf 09 13 fc 3e 3e 8c db 3e
       -0.5738135 -0.5868641 0.49233273 0.42880434
000050 6d b4 0e 3f 37 93 c7 be c1 94 de 3e 5d 22 eb be
       0.5574406 -0.38979504 0.43472865 -0.45924655
000060 2f 9b a9 3c 44 bb db bd d0 24 52 bd 07 4a ee 3e
       0.02070388 -0.107290775 -0.05130464 0.46540853
000070 df 69 17 3e 45 a5 32 bf 85 90 9b 3e 19 da 93 3e
       0.1478648 -0.6978343 0.30383697 0.28877333
000080 ba eb c7 be e1 f0 2b bf ae ed da 3e 29 48 2a be
       -0.39047033 -0.6716443 0.4275946 -0.1662909
000090 0d a8 b4 bd b9 aa 11 be 64 37 d4 be d4 3c 0d 3f
       -0.08821116 -0.14225282 -0.4144851 0.5517094
0000a0 3e 37 a0 be cc c7 a3 3e 04 ec d5 be 0a 9a ca be
       -0.31292146 0.3198837 -0.41781628 -0.39570647
0000b0 56 23 2c bf 50 ea a0 3e 0e d7 23 3f 27 e5 0e bd
       -0.6724142 0.31428766 0.6400002 -0.034886505
0000c0 81 6c 88 3e c1 b8 01 3f 94 85 eb bc 39 ab 06 3f
       0.26645282 0.5067254 -0.028750218 0.52605015
0000d0 eb 32 8e 3c 19 37 2f 3f f7 56 e9 3b c0 43 1e bf
       0.017358264 0.6844345 0.0071209627 -0.6182213
0000e0 56 80 90 be 57 f7 1a bd 92 cb c8 bd 6c 1c c9 3e
       -0.28222913 -0.037833538 -0.09804453 0.39279497
0000f0 38 e5 36 bd 6f 02 17 3f b4 f4 ca 3d 2b 89 f6 bd
       -0.044652194 0.5898809 0.09909955 -0.120378815

model.dense_nn.layers.2.weight f4 [64, 64]
000000 34 bb c3 bd 54 45 db bd 40 0a 72 3d 60 39 6d bc
       -0.095571905 -0.10706583 0.059091806 -0.014479011
000010 18 00 95 3d 1c 56 d5 bd d8 e7 1d bd c8 f0 bc 3d
       0.072754085 -0.10416815 -0.03855118 0.09225613
000020 2c 48 eb bd 84 6b ce bd 20 3c b1 bc a8 07 67 3d
       -0.11488375 -0.10079101 -0.021635115 0.056403786
000030 a0 f2 4a 3d 18 9b 87 3d f8 07 20 bd a0 fc 32 3c
       0.04954779 0.06621379 -0.0390701 0.010924488
000040 d0 cf b0 bd 50 17 2d 3d b0 d3 52 bd 68 64 cc bd
       -0.08633387 0.04225856 -0.051471412 -0.099800885
000050 5c 21 91 bd c8 0a 37 3d b0 e7 9c bd 30 91 b5 bc
       -0.07086441 0.044688016 -0.076613784 -0.022163957
000060 f0 6c 6f bd 5c 7c c9 3d 60 c3 57 3c 70 64 80 3d
       -0.0584535 0.09838173 0.01316914 0.06269157
000070 b0 b3 7c 3d c0 3d fa 3c a4 9a a1 bd 40 b1 66 3c
       0.0616948 0.030547023 -0.078908235 0.014080346
000080 30 ab 01 3d 40 a3 39 3c 48 34 84 3d 98 0b da bd
       0.031657398 0.011330426 0.06455284 -0.106467426
000090 ec 80 f8 3d 40 ce 87 bd 08 1c 6e bd b4 ed e2 bd
       0.12133965 -0.06631136 -0.0581322 -0.110804945
0000a0 14 17 eb 3d 50 57 2f 3d c8 e5 58 bd 40 94 e2 3c
       0.11479011 0.042807877 -0.05295351 0.027658582
0000b0 00 ed fc 3d 34 17 ef bd a0 6a 3d bd d0 14 38 bd
       0.12349892 -0.116743475 -0.046244264 -0.044941723
0000c0 b0 c1 ca 3d a4 21 e3 3d d8 e5 42 3d dc de ca 3d
       0.09900224 0.11090401 0.047582477 0.09905788
0000d0 90 78 e2 3c 58 c9 3c bd 60 a5 be 3d e0 09 61 bd
       0.02764538 -0.046090454 0.093088865 -0.05494106
0000e0 dc 10 ab 3d 00 c0 81 39 c0 d0 c6 bb b0 c7 58 bd
       0.08352825 0.00024747849 -0.0060673654 -0.05292481
0000f0 94 e2 95 bd 68 25 fb bd 50 c7 b8 bc 00 ea bd 3d
       -0.07318607 -0.12262994 -0.022555977 0.092731476
000100 1f 0d 69 3d 7e 70 81 bd 40 6c bc 3b 30 77 94 3d
       0.05689728 -0.06320284 0.005750209 0.07249296
000110 00 5a 00 3d e8 f2 59 bd 00 0e 76 3d d0 f3 d0 bd
       0.03133583 -0.05321017 0.060071945 -0.102027535
000120 f3 47 59 3d e8 db 0d 3d 95 c7 81 3d dc 2a d8 3d
       0.05304713 0.034633547 0.063368954 0.1055505
000130 a4 00 a7 3d 90 0d 51 3d da 52 23 bd 68 0f e4 bd
       0.08154419 0.051038325 -0.039873935 -0.11135751
000140 b6 f5 a0 3d 17 1c 40 3c 3f 52 01 be b3 ce 7d bc
       0.07859366 0.011725447 -0.1262903 -0.015491175
000150 d0 23 fa 3d 7f 8c 75 3d 4e ca ad 3d c0 e2 c6 3b
       0.12213862 0.05994844 0.08485852 0.006069511
000160 00 fa d8 bc 0e fc c3 3c 3d 66 cd 3c 7d 29 c4 bd
       -0.026486397 0.0239239 0.025073165 -0.09578226
000170 a8 bf 64 bd e0 91 d7 bd 74 4c e8 bd 88 d2 cd bd
       -0.05584684 -0.1052587 -0.11342707 -0.10049921
000180 da d9 b2 bd d4 09 cb 3d 40 6d af 3b 60 fa c6 bd
       -0.08732958 0.09913984 0.0053536 -0.09715724
000190 a7 13 b9 3c e4 cc e9 3d ed f8 5f 3d 3d cc cc 3d
       0.022592379 0.11416033 0.054680753 0.09999893
0001a0 a0 21 52 3c 03 b7 f2 3c 98 70 d3 3d 68 94 dc bd
       0.0128254 0.029628282 0.1032421 -0.10770494
0001b0 f0 f1 27 3d e9 49 0a bb e8 c4 ee 3d 79 1c 05 3d
       0.041002214 -0.0021101183 0.11658651 0.032497857
0001c0 9d c5 e5 bd 22 8b 35 bd 6c b4 c4 3d 00 a2 9a bb
       -0.11219332 -0.04432214 0.09604725 -0.004719019
0001d0 1c 7e f7 bd 2c 40 a4 bd 40 2d da 3d aa 34 dd bd
       -0.120846 -0.08020052 0.10653162 -0.108010605
0001e0 f0 0a 1f 3d 6c 22 83 3d 60 20 da 3d 1c a1 93 bd
       0.03882879 0.0640305 0.10650706 -0.072084635
0001f0 52 30 95 bd 8c fa be 3d a4 ee a2 bd e0 bd e4 bc
       -0.07284607 0.09325132 -0.07955673 -0.02792257
000200 50 3b b5 bd d8 27 3f 3d b8 13 19 3d a8 a5 a5 bd
       -0.088492036 0.046668857 0.03737232 -0.08088237
000210 b8 43 53 3d c0 84 06 3d f8 01 a4 3d 88 b1 36 bd
       0.051578254 0.032841444 0.08008188 -0.0446029
000220 10 b9 68 3d 90 fe 96 3d 1c e1 fc 3d 00 98 67 ba
       0.056817114 0.07372773 0.12347624 -0.00088346004
000230 6c d0 f2 bd 00 72 38 3d 20 c3 1e bd 78 4f 46 bd
       -0.118561596 0.045030594 -0.038760304 -0.04841563
000240 14 9a 9c bd a4 96 f9 3d b0 84 ff bc 50 88 9a bc
       -0.076465756 0.121869355 -0.0311912 -0.018863827
000250 00 99 bc 3d 80 e5 48 3b a0 ce 3a 3d a0 f9 a6 bd
       0.0920887 0.003065437 0.04560721 -0.08153081
000260 d8 d7 b5 3d 28 61 02 bd 94 27 c2 bd 04 cf cb bd
       0.088790596 -0.031830937 -0.09480205 -0.099515945
000270 d0 e4 1a 3d 80 3c 16 3c f8 4e ce bd 58 00 5a bd
       0.03781587 0.009169698 -0.10073656 -0.053222984
000280 e8 ec e5 3d 60 ff f1 3d c0 54 5a 3c 18 b6 5a bd
       0.11226827 0.11816287 0.01332587 -0.053396314
000290 30 c3 27 bd c0 b0 e5 3b 40 3d 17 bc 40 63 c5 3c
       -0.04095763 0.0070095956 -0.009230912 0.024095178
0002a0 58 fe 81 3d 5c 03 85 bd 40 ba b3 3b 50 51 6b 3d
       0.0634734 -0.064947814 0.005484849 0.057450593
0002b0 ec d1 f4 3d 90 dc 6e bd 70 60 3c 3d 5c dc e0 bd
       0.11954102 -0.058315814 0.045990407 -0.1097953
0002c0 88 e7 a7 bd 6c b1 9f 3d 1c b0 f1 3d 50 ac b0 3c
       -0.08198458 0.077975124 0.11801168 0.02156654
0002d0 24 d1 e4 bd 70 55 50 bd 00 21 7d 3d 40 c0 3f 3c
       -0.11172703 -0.05086273 0.06179905 0.011703551
0002e0 88 31 93 bd c0 b3 32 3c 30 6a b4 3d 40 ee f5 3d
       -0.07187182 0.010907114 0.08809316 0.12008333
0002f0 5c 4e f6 bd 68 1c cb 3d 6c 87 cc bd 58 64 08 3d
       -0.120266646 0.099175274 -0.09986767 0.03329882
000300 e0 93 a2 bd 40 06 d1 bc a8 c1 73 bd 8c 6e e6 bd
       -0.07938361 -0.025515676 -0.059510857 -0.11251554
000310 a8 5e 15 3d 20 b5 1f 3c 60 91 e0 bc c0 74 5c bd
       0.036467224 0.009747773 -0.02741307 -0.05382228
000320 00 a6 25 3d 60 c4 c3 3d 24 73 f6 3d e0 f3 70 bc
       0.040441513 0.0955894 0.1203368 -0.014706582
000330 b0 fe e5 bc 54 cf 9e bd 64 15 b7 bd b8 bf 10 3d
       -0.028075546 -0.077543885 -0.08939627 0.035339087
000340 78 2b 7e bd 40 14 ac bd 04 8c d9 3d 30 4b 0c 3d
       -0.062053174 -0.084023 0.10622409 0.034251392
000350 14 31 c6 3d 40 6d db 3d 90 d6 c0 bd 18 5c e6 3d
       0.0967733 0.10714197 -0.094159245 0.11248034
000360 98 f8 47 bd 40 74 90 bd f0 7c 04 3d e4 48 fa bd
       -0.04882106 -0.07053423 0.032345712 -0.12220934
000370 e0 0d b7 bc 88 8d 75 3d 94 c4 f9 3d 60 9a 7d 3c
       -0.022345483 0.059949428 0.121956974 0.0154787
000380 70 de 92 bd 04 7e d8 3d e0 84 fb 3c 50 5a d7 bc
       -0.07171333 0.105709106 0.030703008 -0.026288182
000390 38 75 6b 3d 18 76 d5 3d a0 40 3b 3d 30 39 f6 3c
       0.057484835 0.10422915 0.045715928 0.030056566
0003a0 80 70 34 3b 10 68 f7 3c ec 07 92 bd f8 fa dd 3d
       0.0027532876 0.030200988 -0.07130417 0.10838884
0003b0 8c 8c b2 3d 18 64 9c 3d 40 00 04 3c 78 d6 09 bd
       0.087182134 0.07636279 0.0080567 -0.0336518
0003c0 00 0b 64 bd 5c b6 e6 bd 40 a6 86 3b 20 57 f4 bd
       -0.055674553 -0.11265251 0.004109174 -0.1193068
0003d0 8c 1e a6 bd 34 bd 81 3d 20 b1 2d 3d 58 05 eb bd
       -0.08111295 0.06334916 0.042405248 -0.114756286
0003e0 0c 72 8c bd 8c e3 bc bd f0 96 dc bd d4 81 e1 bd
       -0.0685769 -0.092230886 -0.107709765 -0.11011091
0003f0 a8 c4 29 bd 00 73 5f bb f8 3c e3 bd 88 f7 e9 bd
       -0.04144731 -0.0034095645 -0.11095613 -0.11424166

model.dense_nn.layers.2.bias f4 [64]
000000 88 a1 65 bd 72 77 12 3d 68 ac 63 3d b8 9f b1 bd
       -0.05606225 0.035758443 0.05558434 -0.08673042
000010 e6 21 1f 3d 62 ef b8 3c c4 6d 94 bd e0 1e c3 3c
       0.038850687 0.022575084 -0.07247499 0.023818433
000020 4c c5 ee bd 51 04 a9 bd a0 18 9e bc 00 10 ec bb
       -0.11658725 -0.082527764 -0.019298851 -0.007204056
000030 9a c8 d7 bb d0 4b 87 bd c0 b4 80 3c c0 57 af bb
       -0.006585193 -0.06606257 0.015711188 -0.005351037
000040 f0 27 c4 bd 78 f8 b6 bd f4 3e a2 3d cc e5 d0 3d
       -0.0957793 -0.089341104 0.079221636 0.1020008
000050 30 2c 13 bd 67 ed c7 bd 84 1c 21 3d bc 68 c6 3d
       -0.035930812 -0.09762078 0.039333835 0.09687945
000060 40 6e 8f 3d 20 c0 85 3c 60 fd 71 bc 40 1a a3 3c
       0.070034504 0.016326964 -0.014769882 0.019909978
000070 d1 5b be 3d 52 34 92 bd 98 a6 ae bd 27 ac ce bc
       0.09294856 -0.071388856 -0.08527869 -0.025228573
000080 f8 4e 54 3d ba a2 85 bd f6 ae 86 3d c0 20 f3 bd
       0.051833123 -0.06525178 0.0657634 -0.11871481
000090 6c 5b f8 3d 30 99 fc 3d 44 1e d4 bd c6 8c 88 bd
       0.12126812 0.12333906 -0.10357335 -0.066674754
0000a0 d4 62 49 3d 74 fc dd bd 98 31 99 bd bc 18 b7 3d
       0.049166515 -0.10839167 -0.074801624 0.089402646
0000b0 75 3f bc 3c 89 37 f7 3d dc ee a4 3d d8 01 e2 3d
       0.022979477 0.12071139 0.08053371 0.11035508
0000c0 c8 88 ab bc d8 65 3a bd 3c ca 70 3d 56 47 d0 3d
       -0.020939246 -0.045507282 0.058786616 0.10169856
0000d0 40 6b 26 bc f8 65 8e 3d 90 e8 93 3c e0 04 83 3c
       -0.010157406 0.06953043 0.01805523 0.015993536
0000e0 bf 36 a1 3a 70 c6 ca 3d d8 c9 dd bd a0 db d2 3d
       0.0012299641 0.0990113 -0.10829514 0.102957964
0000f0 20 92 66 bd e4 84 e1 3d ae 7c 16 bc e8 ad e6 bd
       -0.0562917 0.11011675 -0.009184999 -0.11263639

model.dense_nn.layers.4.weight f4 [32, 64]
000000 2c f2 b5 3d aa 45 c3 bd 48 03 6a bd d8 c7 20 3d
       0.08884081 -0.09534772 -0.057132035 0.039253086
000010 79 38 34 3b 26 56 b5 bd 9c 5e db 3d f0 15 a0 3d
       0.002749948 -0.08854322 0.10711405 0.07816684
000020 7c 4a ce bd f5 05 99 bd 30 8d 80 3c 40 59 6d 3d
       -0.100728005 -0.07471839 0.015692323 0.057946444
000030 aa c9 d4 3d a8 b8 82 3d 50 93 f3 3c 20 62 4c bc
       0.10390027 0.06382877 0.02973333 -0.012474567
000040 60 6b 90 3c 4d 0b 26 bd 6c 91 e8 bd 40 6b 1a bc
       0.017629325 -0.04053812 -0.11355862 -0.009424984
000050 48 86 d2 3d 8c aa de 3d 11 84 18 3b 98 5c 8e 3d
       0.10279518 0.10872373 0.0023272077 0.069512546
000060 30 34 cc 3d fc 65 93 3d 40 1d 37 3d 64 4a ad 3d
       0.099708915 0.07197186 0.04470563 0.084614545
000070 2b 0e fa 3d 07 f2 8e bd 90 e4 02 bd 03 b4 01 be
       0.122097336 -0.06979757 -0.031956255 -0.12666325
000080 5c bb 8d 3d 9e 6f f7 3d ba 64 d9 bd d8 29 45 bd
       0.069205016 0.12081836 -0.10614915 -0.04813561
000090 d2 03 d0 3d bc 5c d9 3d d0 16 fc 3c 20 48 00 3c
       0.10156979 0.10613391 0.030772597 0.007829696
0000a0 b6 be ae 3d b4 6b c9 bd 38 f8 1e bd 1c 88 e9 bd
       0.08532469 -0.09834996 -0.03881094 -0.11402914
0000b0 80 c7 b6 3d c8 b1 2f 3c 10 dd 0f bd 60 d4 ac bd
       0.0892477 0.010723539 -0.03512293 -0.08438945
0000c0 d6 26 b1 3d 18 3d 76 bd ed c2 ed bd 59 da f3 bc
       0.086499855 -0.060116857 -0.11609445 -0.029767202
0000d0 24 4d f3 bd c0 be b1 bc 80 27 10 3d 94 05 dd bd
       -0.11879948 -0.021697402 0.03519392 -0.107920796
0000e0 e3 9f c5 bd d8 b8 28 bd b0 a6 e0 3d 78 7f a8 3d
       -0.096496366 -0.041191906 0.10969293 0.08227438
0000f0 ac 71 f7 3d a0 4b a8 bd 76 4b 62 bd 02 ba f1 3d
       0.12082228 -0.08217549 -0.055247746 0.11803056
000100 34 65 e0 3d 80 35 7e bc 64 b0 91 3d 44 c0 c6 bd
       0.10956803 -0.015515685 0.07113722 -0.097046405
000110 28 c8 b8 3d 48 52 95 3d b0 96 50 3d 38 73 5b bd
       0.09022552 0.072910845 0.050924957 -0.053576678
000120 7c 76 ea 3d 40 ab e2 bd 88 26 ab 3d 48 d9 84 3d
       0.1144838 -0.110678196 0.08356959 0.064867556
000130 c8 c0 dd bd 94 c3 98 bd 9c 9d f2 3d 90 6f f7 3d
       -0.10827786 -0.074591786 0.11846468 0.12081826
000140 2c 54 f0 bd e0 a9 4e bd 58 be c8 3d 28 91 13 3d
       -0.117348045 -0.050454974 0.0980193 0.036027104
000150 10 35 af 3d 6c b2 a6 3d 30 c2 42 3d a0 d9 e2 bd
       0.08555043 0.081395 0.047548473 -0.11076665
000160 a8 6d a8 3d e0 5f 21 3d 68 d7 2c bd e0 47 4d 3d
       0.0822404 0.039398074 -0.042197615 0.050117373
000170 1c cc f2 bd a0 b9 53 bd 30 7f e0 bc b8 be 20 3d
       -0.11855337 -0.051690698 -0.027404398 0.039244384
000180 b0 cb ef bd 80 1f ca bc 80 75 99 3b 20 4d ae 3c
       -0.11708772 -0.024673223 0.0046831965 0.02127701
000190 88 44 7f bd a0 62 9b bc 20 65 1d 3d 64 30 bf 3d
       -0.062321216 -0.018967927 0.03842652 0.09335402
0001a0 d0 cb 99 3d e0 0d cc bc 5c c1 f8 bd 20 e8 b0 3d
       0.07509577 -0.02490896 -0.121462554 0.08638024
0001b0 b8 cb 7f 3d 78 ac ee 3d 90 59 c1 3d 2c 20 a1 3d
       0.06245014 0.116539896 0.09440911 0.078674644
0001c0 e0 bb b1 bc 50 76 88 bd 90 88 a4 3c 28 8f a7 3d
       -0.021696031 -0.06663191 0.02008465 0.08181602
0001d0 bc 10 fb 3d 88 b9 c9 bd 40 23 28 3d 20 8b 8a 3d
       0.12259051 -0.098498404 0.041049242 0.06764817
0001e0 c0 94 57 3d 18 98 3b 3d a0 61 b3 3d 48 d0 ef 3d
       0.052632093 0.045799345 0.08758855 0.11709648
0001f0 48 17 4f bd 10 c7 89 3d b8 fa e7 bd 50 e3 fe 3c
       -0.050559312 0.06727421 -0.11327118 0.03111425
000200 90 37 9d 3d 20 ed f1 3c fc bd da 3d 64 bc ab bd
       0.07676613 0.029532015 0.10680768 -0.08385542
000210 d8 f0 58 bd 20 2e e4 bd 00 77 f1 bd 58 21 e4 bd
       -0.05296406 -0.1114161 -0.117902756 -0.11139172
000220 00 2d c2 3c b4 7a d4 3d 30 0f d9 3c e0 4b 3c bc
       0.023703098 0.10374966 0.0264965 -0.011492699
000230 a0 b9 c8 3d 70 e9 ee bd 40 f1 8f 3c 54 88 ff 3d
       0.0980103 -0.116656184 0.017571092 0.124771744
000240 00 7c 01 bb e8 a3 01 3d a8 a9 37 3d 44 5b dd bd
       -0.0019757748 0.031650454 0.04483953 -0.10808423
000250 84 a4 93 3d b0 15 de bd 80 a4 95 3d 64 b6 ac bd
       0.07209113 -0.1084398 0.073067665 -0.08433226
000260 70 3b 71 3d 68 ca 72 bd f0 29 bf bc 48 81 cf 3d
       0.058894575 -0.05927506 -0.023335427 0.1013208
000270 c4 5c c8 3d a4 54 8d 3d 84 1b 90 bd 28 1c ca bd
       0.09783319 0.069009095 -0.07036498 -0.09868652
000280 5c 3d 93 bd 10 42 42 bd cc 90 b2 3d 68 97 22 bd
       -0.07189438 -0.047426283 0.08719024 -0.039695174
000290 a8 5d 2d bd 60 d7 83 bc a0 a9 ff 3c cc 89 8f 3d
       -0.042325646 -0.01609391 0.031208813 0.070087045
0002a0 c8 7f aa bd c4 7f 9f bd 94 6c 90 3d a8 8b 31 bd
       -0.083251536 -0.07788041 0.0705196 -0.043346077
0002b0 58 1f fd bd 50 55 b1 bd 80 2a 04 3b 60 72 e9 3c
       -0.12359494 -0.0865885 0.0020166934 0.028496921
0002c0 e4 a7 b9 bd 40 16 bd 3c 74 9e ed bd d0 69 2c bd
       -0.09065226 0.023081899 -0.11602488 -0.0420931
0002d0 00 21 e0 bd 40 f1 13 bc 98 3b b7 bd 68 2c b3 bd
       -0.10943794 -0.009029686 -0.089469135 -0.08748704
0002e0 00 60 ae ba d0 fd 62 bd e8 72 c0 3d e0 a8 39 bd
       -0.0013303757 -0.055417836 0.09396917 -0.045327067
0002f0 bc 4e e9 3d 00 2b 35 bd f8 03 2f bd d8 99 e0 bd
       0.113919705 -0.04423046 -0.042728394 -0.10966843
000300 a8 d7 3a bd f0 ea e7 3c 50 0a a1 3d cc 19 af 3d
       -0.045615822 0.02831027 0.07863295 0.08549842
000310 c8 4f ce 3d 70 40 1e 3d 60 1b cb 3c 50 cc ef bc
       0.10073811 0.03863567 0.024793327 -0.029272228
000320 a4 3e 90 3d 9c 84 f4 bd 7c 3b 9d bd 80 ce a9 3d
       0.07043198 -0.11939356 -0.07677361 0.0829134
000330 ac 0c e1 3d 4c a8 a0 3d 90 e4 14 3d a4 89 ea bd
       0.10988745 0.078446 0.036350787 -0.11452034
000340 18 f9 83 3d 24 27 cd bd 80 74 fb bd 60 77 53 3c
       0.06443995 -0.10017231 -0.1227808 0.012906879
000350 90 30 f4 bc 34 39 98 3d bc 0c bf bd 30 aa 15 3d
       -0.029808313 0.07432786 -0.09328601 0.036539257
000360 c0 9b 47 3d a8 ed 41 3d 90 be 88 3c 78 78 41 3d
       0.04873252 0.047345787 0.01669243 0.04723403
000370 f0 22 2c bd 20 47 01 3c 2c 3d 98 3d 60 07 c5 3d
       -0.042025506 0.007890493 0.074335426 0.09620547
000380 34 5d b9 bd 98 6e da bd 7c aa f3 3d 30 b6 c8 3d
       -0.0905098 -0.10665625 0.11897752 0.098003745
000390 20 73 19 3d 00 cd d7 bb 80 37 4b 3b 2c bd 96 bd
       0.037463307 -0.006585717 0.0031008422 -0.073603004
0003a0 24 36 de 3d 00 b8 dc 3c 70 d0 f7 3c c0 1e 93 bc
       0.1085017 0.026943207 0.030250758 -0.017958999
0003b0 6c ce 82 3d 88 6f 57 3d f8 0b f1 bd d8 29 07 bd
       0.06387028 0.0525966 -0.11769861 -0.03299889
0003c0 90 20 80 3d c0 f0 f9 bd a4 b6 90 3d 08 2d 5d 3d
       0.06256211 -0.122041225 0.07066086 0.053998023
0003d0 10 72 c8 bc 08 7b f2 3d a0 f2 73 bc 00 be 43 bb
       -0.024468452 0.118398726 -0.014889389 -0.0029867887
0003e0 10 66 ce 3c a0 a3 69 bd b0 73 f1 3d 80 ca cc bd
       0.025195152 -0.05704081 0.11789644 -0.09999561
0003f0 94 ba b9 bd 98 be 89 bd b0 1e 95 3c 08 0a d0 bd
       -0.0906879 -0.06725806 0.01820311 -0.10158163

model.dense_nn.layers.4.bias f4 [32]
000000 f9 69 70 3d 78 83 f0 3d ec 37 c7 bd 78 67 33 3d
       0.058694813 0.11743826 -0.09727463 0.043799847
000010 df 86 d9 bd f3 41 0a 3d 20 0e 0a bd 69 d6 e6 3d
       -0.10621428 0.0337543 -0.033704877 0.11271364
000020 74 74 e4 3d 40 67 21 bd 36 97 80 3d 8c 42 2b 3c
       0.11155024 -0.039405107 0.06278841 0.010452878
000030 50 1a 82 3d 3f 4b 0d 3d 64 f7 e5 bd 00 15 86 ba
       0.06352675 0.03449559 -0.11228827 -0.0010229647
000040 19 b8 b9 3c d7 d9 76 3c f6 7e b1 3d cd 37 f8 3c
       0.022670792 0.0150665855 0.08666794 0.030300045
000050 e2 89 cf bd 04 3b af 3d 00 00 7d bc 86 25 98 bc
       -0.10133721 0.08556178 -0.0154418945 -0.01857258
000060 30 f5 b6 3d 2e 5b a9 3d 1c 49 e3 bd 9e bc fe bc
       0.089334846 0.08269344 -0.11097929 -0.031095799
000070 f0 f0 92 3d 80 d0 1b bd 36 67 81 3d 92 6a 3c 3d
       0.071748614 -0.038040638 0.06318514 0.04600007

model.dense_nn.layers.6.weight f4 [16, 32]
000000 9f b4 36 bd 00 04 97 3d 7b 85 04 be 16 6e 09 be
       -0.044605847 0.0737381 -0.12941544 -0.134209
000010 9c ed 55 3d 55 ae f3 3c 32 06 85 3d db 93 39 bd
       0.052228555 0.029746214 0.06495322 -0.04530702
000020 f8 ab 2b 3e 59 9a 5b 3c e7 a2 a9 3c 86 b0 62 bd
       0.1676482 0.013403499 0.02070756 -0.055344127
000030 f9 18 1b 3e 80 c7 a1 3d 2a 16 39 3c cc 50 c8 3a
       0.15146245 0.0789938 0.011296788 0.0015282868
000040 40 14 f1 3d 10 3f d3 ba b4 a5 9d bd 0b 9d ed 3d
       0.117714405 -0.0016116817 -0.07697621 0.11602219
000050 92 16 cd 3d f1 3e d1 3d 13 93 c2 bd 58 58 24 bd
       0.100140706 0.10217083 -0.095007084 -0.040123314
000060 1c df 10 3e 6e 70 29 bd 98 ed be bc d8 70 06 3d
       0.1414761 -0.041366987 -0.023306653 0.03282246
000070 f5 1a ea 3d e3 66 2e be b3 a0 93 bd 57 8e 0f 3e
       0.11430923 -0.17031436 -0.07208385 0.14019142
000080 04 99 18 3e a3 cf 00 3e cf 42 2f be 48 b8 bb 3d
       0.14902121 0.12579207 -0.17115329 0.09166008
000090 bb 72 dc 3c 26 d5 15 bd 8a 6c 35 bd e7 ff e2 bc
       0.026910177 -0.036580227 -0.044292964 -0.027709914
0000a0 72 9d 30 be 22 ea 1d 3d 85 53 15 be 06 ec 57 3c
       -0.1724756 0.038553365 -0.14582641 0.013178831
0000b0 f0 7c 0b be 7f 63 53 3d 11 c2 09 be a6 31 94 bd
       -0.13621879 0.05160856 -0.13452937 -0.07236032
0000c0 ed 28 4d 3d 3b 91 26 be 73 6d f3 b9 26 81 0c 3e
       0.050087858 -0.16266339 -0.00046430118 0.13721141
0000d0 b6 01 32 3e df b7 2e 3e 24 5d 4e 3d b3 fb 57 3d
       0.17383465 0.17062329 0.050381795 0.052730273
0000e0 87 d5 82 bc 33 d1 0b be 8f ac 2e be 7c 2c 09 3e
       -0.015970958 -0.13654022 -0.17058013 0.13395876
0000f0 bb c9 87 bd a5 5e 19 3e 91 01 a3 bc 90 75 91 3d
       -0.06630274 0.1497751 -0.019898208 0.071025014
000100 57 1d 82 bc 57 79 2e be 9f d4 c5 3d 09 00 7e bd
       -0.015883131 -0.17038475 0.09659695 -0.062011752
000110 a5 75 29 3d 1a e1 c7 3b 16 a9 ce bd 44 b0 23 3e
       0.04137196 0.0060998322 -0.10090844 0.15985209
000120 cb 3f ad bd b7 97 e4 bc 44 11 d5 3c a3 e3 12 3e
       -0.08459433 -0.027904375 0.02600921 0.14344649
000130 84 2a a8 bd 7f 5a bf bc 34 63 f2 bd 14 c5 f9 3d
       -0.08211234 -0.023358582 -0.11835328 0.12195793
000140 a7 e7 e3 3d 44 dd bc 3c 13 f5 8c 3c 56 8c 13 3d
       0.111281686 0.023054726 0.017206704 0.036022507
000150 c2 07 2b 3e 05 a5 ca 3d 79 5a a3 bc 05 3a 0e 3d
       0.16702178 0.09894756 -0.019940602 0.0347233
000160 90 b4 2f 3e 6c 92 49 bd 2b 6e 1d be 68 b4 08 3e
       0.17158723 -0.049211904 -0.15374057 0.1335007
000170 72 5c 20 be 1a ee b0 3d 39 94 d5 bb 73 e0 12 be
       -0.15660265 0.08639164 -0.0065179137 -0.14343433
000180 df e0 1e be 71 55 00 3e 52 44 f9 bd 2d c1 13 bd
       -0.15515469 0.12532593 -0.12171234 -0.0360729
000190 e1 17 cd 3d 9e 02 f2 bd f9 d7 23 3e 76 6a 20 3d
       0.1001432 -0.118169054 0.16000356 0.03916403
0001a0 a8 7c 7b bd a5 14 f7 3d 2a c9 88 3d b4 04 a3 3d
       -0.06139818 0.120644845 0.06678994 0.079598814
0001b0 77 bc 31 3d a9 d7 bc bd 24 af 22 3e 34 29 e5 3c
       0.043392625 -0.092208214 0.15887123 0.027973749
0001c0 2a 9c bc 3d e3 7e 20 bd 9c 21 c2 bd c1 f9 84 3d
       0.092094734 -0.03918351 -0.09479067 0.06492949
0001d0 7d cc 99 3d 4b 9a 09 3c 8f 25 5c 3d fc b7 0a 3e
       0.07509706 0.008398603 0.053746756 0.13546747
0001e0 62 d1 88 3d 1c b5 fb 3d a1 30 79 bd 08 0e ac bd
       0.066805616 0.12290403 -0.06083739 -0.08401114
0001f0 81 e6 f0 3d d0 23 cb bb a1 00 ee bd 3a 2a 23 be
       0.11762715 -0.0061993375 -0.11621214 -0.15934077
000200 53 eb 1d bd 8d 84 bf 3d 14 bc f6 3c 7a 48 d3 bd
       -0.0385545 0.09351454 0.03011898 -0.10316558
000210 46 95 69 3b dc ff 09 3e 9f f0 32 be 48 4d 35 3e
       0.0035641952 0.13476509 -0.17474602 0.17705262
000220 61 81 11 be e8 3a 23 be 15 75 04 be 06 4b da bd
       -0.1420951 -0.1594044 -0.12935288 -0.10658841
000230 56 cd ff bc 06 37 0c be c8 5e 29 be 21 4e 88 bd
       -0.031225841 -0.13692865 -0.16540062 -0.06655527
000240 75 71 94 bd 17 d2 8b bb f9 21 1a 3e 00 de 00 be
       -0.07248203 -0.004266988 0.15052022 -0.12584686
000250 84 b4 ed bd a1 b6 87 bb b3 b9 25 3d ad b6 25 bd
       -0.11606696 -0.004141644 0.0404603 -0.040457416
000260 e3 76 45 3d 61 59 b6 3d e7 25 14 3e 0c f5 30 3e
       0.048209082 0.089037664 0.14467584 0.17280978
000270 92 f5 25 bd ba 51 26 bb 91 74 bc 3d 35 0b 9d bd
       -0.040517397 -0.0025378303 0.09201921 -0.07668153
000280 f5 64 24 be eb 5f 01 be 0b 04 0d 3e 9f 5e 0f be
       -0.16054137 -0.12634246 0.13771074 -0.14000939
000290 85 4e b9 bc d2 02 d9 3d 43 f6 33 bd 61 f5 f9 3d
       -0.022620449 0.10596241 -0.043936025 0.122050054
0002a0 5c c4 f7 bd e2 00 ec 3c 43 fa c9 3d d2 37 26 3e
       -0.120979995 0.028809015 0.09862187 0.16232231
0002b0 d3 bb 0b bd 76 04 29 be a5 cc 49 3d 72 ae dd 3d
       -0.03411467 -0.16505608 0.04926743 0.108242884
0002c0 11 ed 90 3d b8 bc 2e 3e 20 e8 19 3c b5 92 54 bd
       0.07076467 0.17064178 0.009393722 -0.051897723
0002d0 92 53 b0 bd 3d 38 8f 3d 4d 85 13 3e ed ab 4f 3d
       -0.0860969 0.069931485 0.14406319 0.05070107
0002e0 15 4f d3 bb 72 f1 2f be 4c e5 83 bc c6 74 9a 3d
       -0.0064486363 -0.17181948 -0.016100548 0.07541804
0002f0 5d e2 49 bd 4d 7a ed 3d 70 8b ca 3d 99 4f 21 be
       -0.049288142 0.11595593 0.09889877 -0.1575302
000300 4e 67 b4 bd 19 53 28 3e 06 41 d8 3d 62 0c 16 3e
       -0.08808766 0.16437949 0.10559277 0.14653161
000310 05 4d 00 be ce 6f a4 3d 61 d8 da bd 72 ee 2f be
       -0.1252938 0.080291376 -0.10685802 -0.17180803
000320 26 2e 48 bb 57 13 cd bd 02 90 fd bd 4a 41 21 3e
       -0.0030545085 -0.100134544 -0.12380983 0.15747562
000330 8f f8 bb 3d 4f 1c 92 bd e8 a0 f5 bd 9a b0 ac 3d
       0.09178268 -0.07134306 -0.11993581 0.084321216
000340 46 77 9b bd 38 b5 1e 3e a1 7c 21 be b7 36 f2 bd
       -0.07591109 0.15498817 -0.15770198 -0.11826842
000350 a0 51 10 be 48 37 f1 3d 8a 9e 43 3d 39 e5 a3 3c
       -0.14093637 0.11778122 0.047758617 0.020006763
000360 1c 08 e3 3d 6b 53 79 3a 48 9d 0c 3e 98 5e 2b be
       0.11085531 0.00095110264 0.13731873 -0.16735303
000370 70 81 1a be 0c 70 f1 bd 2b 18 05 3e 8e af 97 3c
       -0.15088439 -0.11788949 0.129975 0.018516328
000380 3b 60 93 bd d0 39 40 3d 88 d6 e9 3d 2b 35 b0 3a
       -0.07196089 0.046930134 0.11417872 0.001344358
000390 25 5e 30 3e de fd 88 3c 08 31 ec bd 7f 69 dc bc
       0.17223413 0.016722616 -0.115327895 -0.026905773
0003a0 0b 4a 25 3e ee 32 e4 bd db 7f f1 bd bf fb 40 bd
       0.16141526 -0.111425266 -0.117919646 -0.047115084
0003b0 a8 5d 2b bd 49 5b 7a bd d5 99 69 3d 94 fb e7 bd
       -0.041837364 -0.061122213 0.05703147 -0.113272816
0003c0 6e c9 95 bd 89 48 03 3e bf ce 05 be 7c a5 90 3d
       -0.0731381 0.12820639 -0.13067149 0.07062814
0003d0 4b 9d ca 3c 61 0e 12 3e 62 36 9b bd c0 07 d7 3d
       0.024733206 0.14263298 -0.07578732 0.10499525
0003e0 67 25 2e 3d 07 45 e0 3d c7 ed f3 3c 06 53 39 bd
       0.04251614 0.10950666 0.029776467 -0.045245193
0003f0 15 db fe 3d 7b 37 90 bd 0b 95 28 bd 39 87 2c 3e
       0.1244413 -0.07041832 -0.041157763 0.16848458

model.dense_nn.layers.6.bias f4 [16]
000000 dd 57 dc bb b5 c4 b5 bd b7 a9 e8 3c 74 f3 23 bd
       -0.0067243413 -0.088754095 0.028401239 -0.040027097
000010 44 6a c0 3d 63 c4 bc bd 17 23 a8 bc d8 8f a7 bd
       0.093952686 -0.09217145 -0.020524545 -0.08181733
000020 ff 65 09 3e b3 96 65 bd f2 a6 31 bd 1c 57 8f 3d
       0.13417815 -0.05605192 -0.043372102 0.06999037
000030 36 61 2b 3e 34 52 2b be 58 46 16 be 3a 8b b8 3d
       0.16736302 -0.16730577 -0.14675272 0.0901093

model.dense_nn.layers.7.weight f4 [1, 16]
000000 ef 06 6e 3e 74 90 0e 3e a6 ec 37 3e ff 3f 42 be
       0.23244832 0.13922292 0.17961368 -0.18969725
000010 08 21 be bd 9a c0 9c 3d 9c 0c bd bd 7e cb b8 3c
       -0.09283644 0.07653923 -0.09230921 0.02255797
000020 4d 82 51 3e 94 67 2a be 4e fd 51 3e 18 cb 8a 3d
       0.20459862 -0.16641074 0.20506784 0.06777018
000030 14 f0 46 3e ed d1 23 3e 79 1c 86 bd 98 8a ca bc
       0.1942752 0.15998049 -0.065483995 -0.02472429

model.linear_residual.weight f4 [1, 2]
000000 3b ea 22 3f 34 3b b6 be
       0.6363866 -0.35592043

exp_avg f4 [64, 2]
000000 9a 4f 34 be 21 c6 9a bb 3f 50 9c c1 35 26 45 be
       -0.1760849 -0.004723326 -19.539183 -0.19252856
000010 00 00 00 00 00 00 00 00 6a da b6 c0 97 31 8e bd
       0.0 0.0 -5.714162 -0.06943052
000020 00 00 00 00 00 00 00 00 00 00 00 00 00 00 00 00
       0.0 0.0 0.0 0.0
000030 00 00 00 00 00 00 00 00 c0 f1 62 c0 a6 68 23 bd
       0.0 0.0 -3.5460052 -0.039894722
000040 9c f5 a1 41 61 55 49 3e 00 00 00 00 00 00 00 00
       20.244926 0.19661476 0.0 0.0
000050 bb fd 46 c1 36 d3 ff bd 00 00 00 00 00 00 00 00
       -12.436946 -0.12491457 0.0 0.0
000060 00 00 00 00 00 00 00 00 00 00 00 00 00 00 00 00
       0.0 0.0 0.0 0.0
000070 8e db d7 40 89 82 91 3d 00 00 00 00 00 00 00 00
       6.745551 0.07104976 0.0 0.0
000080 0f 84 13 3f fe 47 c2 3b 87 df c4 40 17 2c 79 3d
       0.5762338 0.0059289923 6.152286 0.060833063
000090 08 80 08 41 32 7a ab 3d 88 aa 81 40 d7 e6 d2 3c
       8.531258 0.08372916 4.052067 0.025744839
0000a0 1f b1 fa c0 c8 d4 97 bd 66 fb 0c 42 11 ab b2 3e
       -7.834121 -0.07413632 35.245506 0.34896138
0000b0 49 50 b0 c1 7c f6 67 be 00 00 00 00 00 00 00 00
       -22.039202 -0.2265262 0.0 0.0
0000c0 00 00 00 00 00 00 00 00 a9 5f 78 41 ef 61 09 3e
       0.0 0.0 15.523355 0.13416265
0000d0 d3 f8 95 41 6c c7 40 3e 10 16 29 41 db fd d6 3d
       18.746496 0.18826073 10.567886 0.10497638
0000e0 00 00 00 00 00 00 00 00 00 00 00 00 00 00 00 00
       0.0 0.0 0.0 0.0
0000f0 00 00 00 00 00 00 00 00 00 00 00 00 00 00 00 00
       0.0 0.0 0.0 0.0
000100 5b b1 ae c1 e7 d2 57 be 00 00 00 00 00 00 00 00
       -21.8366 -0.21076547 0.0 0.0
000110 00 00 00 00 00 00 00 00 00 00 00 00 00 00 00 00
       0.0 0.0 0.0 0.0
000120 6b 08 30 41 82 0c e8 3d 1e 90 86 40 17 f8 1b 3d
       11.002055 0.11330511 4.2050924 0.038078394
000130 30 ce 20 c1 18 19 9e bd 56 21 83 41 3e df 19 3e
       -10.050339 -0.0771963 16.391277 0.15026566
000140 00 00 00 00 00 00 00 00 d8 08 06 42 22 c5 a5 3e
       0.0 0.0 33.508636 0.32376963
000150 b8 d3 3a 41 1e db eb 3d 00 00 00 00 00 00 00 00
       11.676689 0.11516403 0.0 0.0
000160 00 00 00 00 00 00 00 00 7c 2e 50 40 83 5d 26 3d
       0.0 0.0 3.2528372 0.040616523
000170 00 00 00 00 00 00 00 00 93 c6 df c0 b5 dc 6d bd
       0.0 0.0 -6.99299 -0.05807181
000180 14 29 a4 c0 f5 9e 57 bd 44 55 2a c1 ae 3c d6 bd
       -5.1300144 -0.052641828 -10.645817 -0.104607925
000190 00 00 00 00 00 00 00 00 00 00 00 00 00 00 00 00
       0.0 0.0 0.0 0.0
0001a0 00 00 00 00 00 00 00 00 00 00 00 00 00 00 00 00
       0.0 0.0 0.0 0.0
0001b0 00 00 00 00 00 00 00 00 0d 00 3a c0 61 78 83 bc
       0.0 0.0 -2.906253 -0.016048612
0001c0 00 00 00 00 00 00 00 00 00 00 00 00 00 00 00 00
       0.0 0.0 0.0 0.0
0001d0 00 00 00 00 00 00 00 00 00 00 00 00 00 00 00 00
       0.0 0.0 0.0 0.0
0001e0 3c be 12 c1 73 f5 bf bd 00 00 00 00 00 00 00 00
       -9.171444 -0.093729876 0.0 0.0
0001f0 00 00 00 00 00 00 00 00 00 00 00 00 00 00 00 00
       0.0 0.0 0.0 0.0

exp_avg_sq f4 [64, 2]
000000 45 60 f3 3c 03 d2 1b 36 de 62 02 41 85 e6 4e 3a
       0.02970899 2.3219043e-06 8.1491375 0.00078926265
000010 00 00 00 00 00 00 00 00 8b 56 db 3f 9a a0 75 39
       0.0 0.0 1.7135786 0.0002342485
000020 00 00 00 00 00 00 00 00 00 00 00 00 00 00 00 00
       0.0 0.0 0.0 0.0
000030 00 00 00 00 00 00 00 00 3f 45 97 3e 6c 29 17 38
       0.0 0.0 0.29545018 3.6039783e-05
000040 85 36 28 41 e8 b6 81 3a 00 00 00 00 00 00 00 00
       10.51331 0.0009896429 0.0 0.0
000050 6c f8 a2 40 8e cc 06 3a 00 00 00 00 00 00 00 00
       5.092825 0.00051421754 0.0 0.0
000060 00 00 00 00 00 00 00 00 00 00 00 00 00 00 00 00
       0.0 0.0 0.0 0.0
000070 ca 12 d8 3f fc a7 3d 39 00 00 00 00 00 00 00 00
       1.6880734 0.00018087024 0.0 0.0
000080 ae 31 4e 3d 02 9d a8 36 60 e3 a7 3f e4 0f 03 39
       0.050340347 5.0250683e-06 1.3116264 0.00012499053
000090 ba ce 29 40 ce 98 87 39 79 a7 f4 3e 76 bc 12 38
       2.6532426 0.00025863055 0.47784021 3.498463e-05
0000a0 46 f4 c4 3f 07 c8 0f 39 e0 55 0a 42 52 0c 5d 3b
       1.5387046 0.00013712059 34.583862 0.0033729267
0000b0 cf e9 4b 41 22 38 b0 3a 00 00 00 00 00 00 00 00
       12.744582 0.0013444463 0.0 0.0
0000c0 00 00 00 00 00 00 00 00 93 0e 19 41 ce d4 48 3a
       0.0 0.0 9.566058 0.0007661105
0000d0 0f 03 2a 41 3c d9 8b 3a 1b ec 89 40 4d ae dd 39
       10.625747 0.0010669599 4.3100715 0.0004228227
0000e0 00 00 00 00 00 00 00 00 00 00 00 00 00 00 00 00
       0.0 0.0 0.0 0.0
0000f0 00 00 00 00 00 00 00 00 00 00 00 00 00 00 00 00
       0.0 0.0 0.0 0.0
000100 38 85 41 41 35 78 92 3a 00 00 00 00 00 00 00 00
       12.095024 0.001117474 0.0 0.0
000110 00 00 00 00 00 00 00 00 00 00 00 00 00 00 00 00
       0.0 0.0 0.0 0.0
000120 4b c5 5f 40 97 6e c0 39 b4 c5 d4 3e c2 01 0e 38
       3.4964168 0.0003670349 0.41557086 3.3857075e-05
000130 59 fc ce 40 03 10 03 3a 02 a1 21 41 05 b1 68 3a
       6.468304 0.00049996393 10.101809 0.00088764756
000140 00 00 00 00 00 00 00 00 4c 57 02 42 ea 5e 47 3b
       0.0 0.0 32.58525 0.0030421563
000150 62 d0 a6 40 d3 6f 03 3a 00 00 00 00 00 00 00 00
       5.2129374 0.00050139165 0.0 0.0
000160 00 00 00 00 00 00 00 00 c8 07 84 3e 46 86 1a 38
       0.0 0.0 0.25787187 3.6841513e-05
000170 00 00 00 00 00 00 00 00 f6 82 9f 3f d9 1f bb 38
       0.0 0.0 1.2461841 8.922787e-05
000180 aa 2d 0c 3f e7 de 7a 38 cd cc 0c 40 95 62 61 39
       0.5475718 5.981224e-05 2.2 0.00021494397
000190 00 00 00 00 00 00 00 00 00 00 00 00 00 00 00 00
       0.0 0.0 0.0 0.0
0001a0 00 00 00 00 00 00 00 00 00 00 00 00 00 00 00 00
       0.0 0.0 0.0 0.0
0001b0 00 00 00 00 00 00 00 00 ce 40 42 3e 31 bb 84 37
       0.0 0.0 0.18970034 1.5822794e-05
0001c0 00 00 00 00 00 00 00 00 00 00 00 00 00 00 00 00
       0.0 0.0 0.0 0.0
0001d0 00 00 00 00 00 00 00 00 00 00 00 00 00 00 00 00
       0.0 0.0 0.0 0.0
0001e0 77 0b d2 3f d7 2f 37 39 00 00 00 00 00 00 00 00
       1.6409749 0.00017470062 0.0 0.0
0001f0 00 00 00 00 00 00 00 00 00 00 00 00 00 00 00 00
       0.0 0.0 0.0 0.0

exp_avg f4 [64]
000000 e9 ac 80 bc 8d 5f c2 be 00 00 00 00 2f 66 d7 bd
       -0.01570745 -0.37963524 0.0 -0.10517537
000010 00 00 00 00 00 00 00 00 00 00 00 00 ce de 81 bd
       0.0 0.0 0.0 -0.06341325
000020 75 9e c8 3e 00 00 00 00 9d 94 75 be 00 00 00 00
       0.39183393 0.0 -0.23982473 0.0
000030 00 00 00 00 00 00 00 00 9c 31 00 3e 00 00 00 00
       0.0 0.0 0.12518924 0.0
000040 5f 3d fb 3b f9 b7 e9 3d 8d 21 2e 3e e4 78 a4 3d
       0.007667228 0.11412043 0.17004986 0.080308706
000050 92 c5 1e be 71 fa 2e 3f 61 dc d8 be 00 00 00 00
       -0.15505055 0.68350893 -0.42355636 0.0
000060 00 00 00 00 fc e7 98 3e 52 4b b8 3e a3 b5 52 3e
       0.0 0.2986449 0.35994965 0.20577101
000070 00 00 00 00 00 00 00 00 00 00 00 00 00 00 00 00
       0.0 0.0 0.0 0.0
000080 8c 48 d8 be 00 00 00 00 00 00 00 00 00 00 00 00
       -0.4224285 0.0 0.0 0.0
000090 6d d2 5a 3e b4 8e a1 3d 8b a2 49 be bf e3 a4 3e
       0.21369334 0.078885466 -0.19690911 0.32205006
0000a0 00 00 00 00 c1 2b 27 3f be d8 66 3e 00 00 00 00
       0.0 0.6530114 0.22543618 0.0
0000b0 00 00 00 00 5c 4d 75 3d 00 00 00 00 af 41 0f be
       0.0 0.05988823 0.0 -0.139899
0000c0 b7 89 cf bd 81 5a 52 be 00 00 00 00 00 00 00 00
       -0.10133689 -0.20542337 0.0 0.0
0000d0 00 00 00 00 00 00 00 00 00 00 00 00 9b 77 44 bd
       0.0 0.0 0.0 -0.047965627
0000e0 00 00 00 00 00 00 00 00 00 00 00 00 00 00 00 00
       0.0 0.0 0.0 0.0
0000f0 d2 b0 30 be 00 00 00 00 00 00 00 00 00 00 00 00
       -0.17254952 0.0 0.0 0.0

exp_avg_sq f4 [64]
000000 8b 5b 5b 37 75 5a 49 3b 00 00 00 00 99 6f 1e 3a
       1.3074731e-05 0.0030724083 0.0 0.0006043851
000010 00 00 00 00 00 00 00 00 00 00 00 00 af 1f cc 38
       0.0 0.0 0.0 9.7333796e-05
000020 e9 f2 80 3b 00 00 00 00 c0 e7 f7 3a 00 00 00 00
       0.003935207 0.0 0.0018913671 0.0
000030 00 00 00 00 00 00 00 00 ad 99 1c 3a 00 00 00 00
       0.0 0.0 0.0005973827 0.0
000040 ef 17 8f 37 9b c0 f3 39 23 ac 86 3a 4c 76 3e 39
       1.7058073e-05 0.00046492074 0.0010274689 0.00018163881
000050 38 c1 1c 3a c0 7d 54 3c b5 4a 9a 3b 00 00 00 00
       0.00059797196 0.012969434 0.004708613 0.0
000060 00 00 00 00 1b 7d 69 3b 91 af 80 3b 6b 3a d4 3a
       0.0 0.0035627547 0.003927179 0.0016191726
000070 00 00 00 00 00 00 00 00 00 00 00 00 00 00 00 00
       0.0 0.0 0.0 0.0
000080 89 2d 94 3b 00 00 00 00 00 00 00 00 00 00 00 00
       0.00452203 0.0 0.0 0.0
000090 df 1c ac 3a 1b c6 1a 39 8c 54 20 3b 8b 41 7c 3b
       0.0013131163 0.00014760385 0.0024464456 0.0038491215
0000a0 00 00 00 00 17 ba 49 3c 29 2e fe 3a 00 00 00 00
       0.0 0.012312434 0.0019392419 0.0
0000b0 00 00 00 00 14 63 bd 38 00 00 00 00 7f 1b 01 3a
       0.0 9.030677e-05 0.0 0.0004925057
0000c0 a1 dc 5e 39 12 ac 56 3a 00 00 00 00 00 00 00 00
       0.0002125376 0.00081890926 0.0 0.0
0000d0 00 00 00 00 00 00 00 00 00 00 00 00 13 21 66 38
       0.0 0.0 0.0 5.4867076e-05
0000e0 00 00 00 00 00 00 00 00 00 00 00 00 00 00 00 00
       0.0 0.0 0.0 0.0
0000f0 de 4f 18 3a 00 00 00 00 00 00 00 00 00 00 00 00
       0.0005810241 0.0 0.0 0.0

exp_avg f4 [64, 64]
000000 00 00 00 00 00 00 00 00 00 00 00 00 00 00 00 00
       0.0 0.0 0.0 0.0
000010 00 00 00 00 00 00 00 00 00 00 00 00 00 00 00 00
       0.0 0.0 0.0 0.0
000020 00 00 00 00 00 00 00 00 00 00 00 00 00 00 00 00
       0.0 0.0 0.0 0.0
000030 00 00 00 00 00 00 00 00 00 00 00 00 00 00 00 00
       0.0 0.0 0.0 0.0
000040 00 00 00 00 00 00 00 00 00 00 00 00 00 00 00 00
       0.0 0.0 0.0 0.0
000050 00 00 00 00 00 00 00 00 00 00 00 00 00 00 00 00
       0.0 0.0 0.0 0.0
000060 00 00 00 00 00 00 00 00 00 00 00 00 00 00 00 00
       0.0 0.0 0.0 0.0
000070 00 00 00 00 00 00 00 00 00 00 00 00 00 00 00 00
       0.0 0.0 0.0 0.0
000080 00 00 00 00 00 00 00 00 00 00 00 00 00 00 00 00
       0.0 0.0 0.0 0.0
000090 00 00 00 00 00 00 00 00 00 00 00 00 00 00 00 00
       0.0 0.0 0.0 0.0
0000a0 00 00 00 00 00 00 00 00 00 00 00 00 00 00 00 00
       0.0 0.0 0.0 0.0
0000b0 00 00 00 00 00 00 00 00 00 00 00 00 00 00 00 00
       0.0 0.0 0.0 0.0
0000c0 00 00 00 00 00 00 00 00 00 00 00 00 00 00 00 00
       0.0 0.0 0.0 0.0
0000d0 00 00 00 00 00 00 00 00 00 00 00 00 00 00 00 00
       0.0 0.0 0.0 0.0
0000e0 00 00 00 00 00 00 00 00 00 00 00 00 00 00 00 00
       0.0 0.0 0.0 0.0
0000f0 00 00 00 00 00 00 00 00 00 00 00 00 00 00 00 00
       0.0 0.0 0.0 0.0
000100 72 91 a7 40 9f 01 9b 3e 00 00 00 00 e9 61 2e 40
       5.2365046 0.30274674 0.0 2.724726
000110 00 00 00 00 00 00 00 00 00 00 00 00 35 65 89 40
       0.0 0.0 0.0 4.2936044
000120 77 86 26 40 00 00 00 00 26 26 9e 40 00 00 00 00
       2.601957 0.0 4.942157 0.0
000130 00 00 00 00 00 00 00 00 32 8f 60 3f 00 00 00 00
       0.0 0.0 0.877185 0.0
000140 f4 75 34 40 ab 25 9f 40 05 70 93 40 47 9f 54 40
       2.8196993 4.973348 4.6074243 3.3222215
000150 64 96 02 3f 3a 94 c3 3f d2 7a 0c 40 00 00 00 00
       0.5101073 1.527961 2.1949964 0.0
000160 00 00 00 00 8d 22 7f 3f 54 fe 0d 3f e7 25 9c 40
       0.0 0.99662095 0.554662 4.8796268
000170 00 00 00 00 00 00 00 00 00 00 00 00 00 00 00 00
       0.0 0.0 0.0 0.0
000180 04 80 a7 40 00 00 00 00 00 00 00 00 00 00 00 00
       5.234377 0.0 0.0 0.0
000190 d5 f3 42 40 88 a8 a7 40 19 d3 41 40 70 32 83 40
       3.0461323 5.2393227 3.0285094 4.099907
0001a0 00 00 00 00 80 b6 2e 40 61 5b b7 40 00 00 00 00
       0.0 2.729889 5.7299047 0.0
0001b0 00 00 00 00 25 af a0 40 00 00 00 00 96 68 97 40
       0.0 5.02138 0.0 4.731517
0001c0 3c 53 b6 40 86 be 40 40 00 00 00 00 00 00 00 00
       5.6976604 3.0116286 0.0 0.0
0001d0 00 00 00 00 00 00 00 00 00 00 00 00 1f 96 9e 40
       0.0 0.0 0.0 4.9558253
0001e0 00 00 00 00 00 00 00 00 00 00 00 00 00 00 00 00
       0.0 0.0 0.0 0.0
0001f0 65 b3 fd 3f 00 00 00 00 00 00 00 00 00 00 00 00
       1.9820372 0.0 0.0 0.0
000200 00 00 00 00 00 00 00 00 00 00 00 00 00 00 00 00
       0.0 0.0 0.0 0.0
000210 00 00 00 00 00 00 00 00 00 00 00 00 00 00 00 00
       0.0 0.0 0.0 0.0
000220 00 00 00 00 00 00 00 00 00 00 00 00 00 00 00 00
       0.0 0.0 0.0 0.0
000230 00 00 00 00 00 00 00 00 00 00 00 00 00 00 00 00
       0.0 0.0 0.0 0.0
000240 00 00 00 00 00 00 00 00 00 00 00 00 00 00 00 00
       0.0 0.0 0.0 0.0
000250 00 00 00 00 00 00 00 00 00 00 00 00 00 00 00 00
       0.0 0.0 0.0 0.0
000260 00 00 00 00 00 00 00 00 00 00 00 00 00 00 00 00
       0.0 0.0 0.0 0.0
000270 00 00 00 00 00 00 00 00 00 00 00 00 00 00 00 00
       0.0 0.0 0.0 0.0
000280 00 00 00 00 00 00 00 00 00 00 00 00 00 00 00 00
       0.0 0.0 0.0 0.0
000290 00 00 00 00 00 00 00 00 00 00 00 00 00 00 00 00
       0.0 0.0 0.0 0.0
0002a0 00 00 00 00 00 00 00 00 00 00 00 00 00 00 00 00
       0.0 0.0 0.0 0.0
0002b0 00 00 00 00 00 00 00 00 00 00 00 00 00 00 00 00
       0.0 0.0 0.0 0.0
0002c0 00 00 00 00 00 00 00 00 00 00 00 00 00 00 00 00
       0.0 0.0 0.0 0.0
0002d0 00 00 00 00 00 00 00 00 00 00 00 00 00 00 00 00
       0.0 0.0 0.0 0.0
0002e0 00 00 00 00 00 00 00 00 00 00 00 00 00 00 00 00
       0.0 0.0 0.0 0.0
0002f0 00 00 00 00 00 00 00 00 00 00 00 00 00 00 00 00
       0.0 0.0 0.0 0.0
000300 00 00 00 00 00 00 00 00 00 00 00 00 00 00 00 00
       0.0 0.0 0.0 0.0
000310 00 00 00 00 00 00 00 00 00 00 00 00 00 00 00 00
       0.0 0.0 0.0 0.0
000320 00 00 00 00 00 00 00 00 00 00 00 00 00 00 00 00
       0.0 0.0 0.0 0.0
000330 00 00 00 00 00 00 00 00 00 00 00 00 00 00 00 00
       0.0 0.0 0.0 0.0
000340 00 00 00 00 00 00 00 00 00 00 00 00 00 00 00 00
       0.0 0.0 0.0 0.0
000350 00 00 00 00 00 00 00 00 00 00 00 00 00 00 00 00
       0.0 0.0 0.0 0.0
000360 00 00 00 00 00 00 00 00 00 00 00 00 00 00 00 00
       0.0 0.0 0.0 0.0
000370 00 00 00 00 00 00 00 00 00 00 00 00 00 00 00 00
       0.0 0.0 0.0 0.0
000380 00 00 00 00 00 00 00 00 00 00 00 00 00 00 00 00
       0.0 0.0 0.0 0.0
000390 00 00 00 00 00 00 00 00 00 00 00 00 00 00 00 00
       0.0 0.0 0.0 0.0
0003a0 00 00 00 00 00 00 00 00 00 00 00 00 00 00 00 00
       0.0 0.0 0.0 0.0
0003b0 00 00 00 00 00 00 00 00 00 00 00 00 00 00 00 00
       0.0 0.0 0.0 0.0
0003c0 00 00 00 00 00 00 00 00 00 00 00 00 00 00 00 00
       0.0 0.0 0.0 0.0
0003d0 00 00 00 00 00 00 00 00 00 00 00 00 00 00 00 00
       0.0 0.0 0.0 0.0
0003e0 00 00 00 00 00 00 00 00 00 00 00 00 00 00 00 00
       0.0 0.0 0.0 0.0
0003f0 00 00 00 00 00 00 00 00 00 00 00 00 00 00 00 00
       0.0 0.0 0.0 0.0

exp_avg_sq f4 [64, 64]
000000 00 00 00 00 00 00 00 00 00 00 00 00 00 00 00 00
       0.0 0.0 0.0 0.0
000010 00 00 00 00 00 00 00 00 00 00 00 00 00 00 00 00
       0.0 0.0 0.0 0.0
000020 00 00 00 00 00 00 00 00 00 00 00 00 00 00 00 00
       0.0 0.0 0.0 0.0
000030 00 00 00 00 00 00 00 00 00 00 00 00 00 00 00 00
       0.0 0.0 0.0 0.0
000040 00 00 00 00 00 00 00 00 00 00 00 00 00 00 00 00
       0.0 0.0 0.0 0.0
000050 00 00 00 00 00 00 00 00 00 00 00 00 00 00 00 00
       0.0 0.0 0.0 0.0
000060 00 00 00 00 00 00 00 00 00 00 00 00 00 00 00 00
       0.0 0.0 0.0 0.0
000070 00 00 00 00 00 00 00 00 00 00 00 00 00 00 00 00
       0.0 0.0 0.0 0.0
000080 00 00 00 00 00 00 00 00 00 00 00 00 00 00 00 00
       0.0 0.0 0.0 0.0
000090 00 00 00 00 00 00 00 00 00 00 00 00 00 00 00 00
       0.0 0.0 0.0 0.0
0000a0 00 00 00 00 00 00 00 00 00 00 00 00 00 00 00 00
       0.0 0.0 0.0 0.0
0000b0 00 00 00 00 00 00 00 00 00 00 00 00 00 00 00 00
       0.0 0.0 0.0 0.0
0000c0 00 00 00 00 00 00 00 00 00 00 00 00 00 00 00 00
       0.0 0.0 0.0 0.0
0000d0 00 00 00 00 00 00 00 00 00 00 00 00 00 00 00 00
       0.0 0.0 0.0 0.0
0000e0 00 00 00 00 00 00 00 00 00 00 00 00 00 00 00 00
       0.0 0.0 0.0 0.0
0000f0 00 00 00 00 00 00 00 00 00 00 00 00 00 00 00 00
       0.0 0.0 0.0 0.0
000100 23 24 18 3f 4e f7 00 3b 00 00 00 00 06 d8 24 3e
       0.5943014 0.0019678655 0.0 0.16098031
000110 00 00 00 00 00 00 00 00 00 00 00 00 32 76 cc 3e
       0.0 0.0 0.0 0.39933926
000120 59 49 16 3e 00 00 00 00 3f 05 08 3f 00 00 00 00
       0.14676417 0.0 0.53133005 0.0
000130 00 00 00 00 00 00 00 00 c2 75 87 3c 00 00 00 00
       0.0 0.0 0.016535643 0.0
000140 be e2 30 3e 05 7b 09 3f a1 88 ec 3e df c5 75 3e
       0.17273995 0.5370334 0.4619799 0.24001263
000150 84 12 ba 3b 7b 5a 4f 3d 6a a8 d5 3d 00 00 00 00
       0.0056784768 0.0506234 0.10432513 0.0
000160 00 00 00 00 86 4c af 3c a5 c4 dd 3b 01 43 04 3f
       0.0 0.021398794 0.0067678266 0.5166474
000170 00 00 00 00 00 00 00 00 00 00 00 00 00 00 00 00
       0.0 0.0 0.0 0.0
000180 e4 f6 17 3f 00 00 00 00 00 00 00 00 00 00 00 00
       0.593611 0.0 0.0 0.0
000190 ce 44 4e 3e 38 46 18 3f 0c 2d 4c 3e b9 e4 ba 3e
       0.20143434 0.59482145 0.19939059 0.36502627
0001a0 00 00 00 00 43 ae 25 3e f5 54 36 3f 00 00 00 00
       0.0 0.16179757 0.71223384 0.0
0001b0 00 00 00 00 44 55 0c 3f 00 00 00 00 fc 04 f9 3e
       0.0 0.54817605 0.0 0.48636615
0001c0 c0 8e 34 3f e8 3a 4a 3e 00 00 00 00 00 00 00 00
       0.7053032 0.19749033 0.0 0.0
0001d0 00 00 00 00 00 00 00 00 00 00 00 00 96 53 08 3f
       0.0 0.0 0.0 0.5325254
0001e0 00 00 00 00 00 00 00 00 00 00 00 00 00 00 00 00
       0.0 0.0 0.0 0.0
0001f0 8c 91 ae 3d 00 00 00 00 00 00 00 00 00 00 00 00
       0.085238546 0.0 0.0 0.0
000200 00 00 00 00 00 00 00 00 00 00 00 00 00 00 00 00
       0.0 0.0 0.0 0.0
000210 00 00 00 00 00 00 00 00 00 00 00 00 00 00 00 00
       0.0 0.0 0.0 0.0
000220 00 00 00 00 00 00 00 00 00 00 00 00 00 00 00 00
       0.0 0.0 0.0 0.0
000230 00 00 00 00 00 00 00 00 00 00 00 00 00 00 00 00
       0.0 0.0 0.0 0.0
000240 00 00 00 00 00 00 00 00 00 00 00 00 00 00 00 00
       0.0 0.0 0.0 0.0
000250 00 00 00 00 00 00 00 00 00 00 00 00 00 00 00 00
       0.0 0.0 0.0 0.0
000260 00 00 00 00 00 00 00 00 00 00 00 00 00 00 00 00
       0.0 0.0 0.0 0.0
000270 00 00 00 00 00 00 00 00 00 00 00 00 00 00 00 00
       0.0 0.0 0.0 0.0
000280 00 00 00 00 00 00 00 00 00 00 00 00 00 00 00 00
       0.0 0.0 0.0 0.0
000290 00 00 00 00 00 00 00 00 00 00 00 00 00 00 00 00
       0.0 0.0 0.0 0.0
0002a0 00 00 00 00 00 00 00 00 00 00 00 00 00 00 00 00
       0.0 0.0 0.0 0.0
0002b0 00 00 00 00 00 00 00 00 00 00 00 00 00 00 00 00
       0.0 0.0 0.0 0.0
0002c0 00 00 00 00 00 00 00 00 00 00 00 00 00 00 00 00
       0.0 0.0 0.0 0.0
0002d0 00 00 00 00 00 00 00 00 00 00 00 00 00 00 00 00
       0.0 0.0 0.0 0.0
0002e0 00 00 00 00 00 00 00 00 00 00 00 00 00 00 00 00
       0.0 0.0 0.0 0.0
0002f0 00 00 00 00 00 00 00 00 00 00 00 00 00 00 00 00
       0.0 0.0 0.0 0.0
000300 00 00 00 00 00 00 00 00 00 00 00 00 00 00 00 00
       0.0 0.0 0.0 0.0
000310 00 00 00 00 00 00 00 00 00 00 00 00 00 00 00 00
       0.0 0.0 0.0 0.0
000320 00 00 00 00 00 00 00 00 00 00 00 00 00 00 00 00
       0.0 0.0 0.0 0.0
000330 00 00 00 00 00 00 00 00 00 00 00 00 00 00 00 00
       0.0 0.0 0.0 0.0
000340 00 00 00 00 00 00 00 00 00 00 00 00 00 00 00 00
       0.0 0.0 0.0 0.0
000350 00 00 00 00 00 00 00 00 00 00 00 00 00 00 00 00
       0.0 0.0 0.0 0.0
000360 00 00 00 00 00 00 00 00 00 00 00 00 00 00 00 00
       0.0 0.0 0.0 0.0
000370 00 00 00 00 00 00 00 00 00 00 00 00 00 00 00 00
       0.0 0.0 0.0 0.0
000380 00 00 00 00 00 00 00 00 00 00 00 00 00 00 00 00
       0.0 0.0 0.0 0.0
000390 00 00 00 00 00 00 00 00 00 00 00 00 00 00 00 00
       0.0 0.0 0.0 0.0
0003a0 00 00 00 00 00 00 00 00 00 00 00 00 00 00 00 00
       0.0 0.0 0.0 0.0
0003b0 00 00 00 00 00 00 00 00 00 00 00 00 00 00 00 00
       0.0 0.0 0.0 0.0
0003c0 00 00 00 00 00 00 00 00 00 00 00 00 00 00 00 00
       0.0 0.0 0.0 0.0
0003d0 00 00 00 00 00 00 00 00 00 00 00 00 00 00 00 00
       0.0 0.0 0.0 0.0
0003e0 00 00 00 00 00 00 00 00 00 00 00 00 00 00 00 00
       0.0 0.0 0.0 0.0
0003f0 00 00 00 00 00 00 00 00 00 00 00 00 00 00 00 00
       0.0 0.0 0.0 0.0
