deeper_null/lightning_logs/version_48/checkpoints/epoch=9-step=10.ckpt (torch, 14192 bytes, 21 tensors)

model.layers.0.weight f4 [10, 2]
-0.6439045 -0.032137476 0.49181795 -0.047555823 0.672419 -0.44362688 0.39064366 -0.24145223
0.15350842 -0.5423049 0.40924755 -0.13559408 0.11532529 0.30966967 -0.6846671 0.3398066
-0.6137584 0.35881433 0.067651875 -0.49205297
00000000: edd6 24bf 96a2 03bd 90cf fb3e e5c9 42bd
00000010: a723 2c3f 1023 e3be 7202 c83e 413f 77be
00000020: 5031 1d3e 7ed4 0abf e588 d13e 2dd9 0abe
00000030: aa2f ec3d 068d 9e3e 5846 2fbf 21fb ad3e
00000040: 451f 1dbf 83b6 b73e 118d 8a3d 5eee fbbe

model.layers.0.bias f4 [10]
0.011720364 0.41427788 0.13070054 -0.11120738 -0.51142913 0.061125558 0.6158113 0.31905434
-0.67094463 -0.065310724
00000000: c506 403c 3b1c d43e 5dd6 053e b2c0 e3bd
00000010: 05ed 02bf cb5e 7a3d cfa5 1d3f 175b a33e
00000020: 07c3 2bbf a1c1 85bd

model.layers.3.weight f4 [8, 10]
-0.18429585 -0.16680866 0.06289134 0.12995405 0.16874766 0.18576673 -0.3201993 0.27654633
-0.20986088 -0.050193653 0.10345364 -0.28893638 0.07908254 -0.028902937 -0.28246185 0.19745034
0.22847055 -0.14652318 -0.12908003 -0.11725286 0.16990341 -0.0024921673 0.122209825 0.15082043
-0.048128664 -0.06608697 0.119502425 0.27004293 0.2546836 0.03561953 -0.3086506 -0.08976521
0.13586971 -0.008596046 -0.17238633 -0.24779244 -0.14119923 0.31583276 -0.27444115 0.29035842
-0.26444662 0.26186523 -0.0026839767 0.10517669 -0.22588786 -0.07082761 0.2839731 -0.21853562
0.043609504 0.08810766 0.04491383 0.11379941 -0.06965336 -0.057236418 -0.18730748 -0.0953323
0.046010874 -0.2712641 -0.07863865 0.15392834 0.21920663 -0.2541555 -0.2613531 -0.06314658
-0.11477919 -0.24138108 0.19579542 0.28951266 0.10642713 -0.09050237 -0.12741871 0.100662276
-0.20682466 0.029249212 -0.040295918 -0.17150342 0.23509194 -0.2751936 0.054538775 0.11034299
00000000: 0db8 3cbe e4cf 2abe 2dcd 803d ad12 053e
00000010: 30cc 2c3e a239 3e3e 2af1 a3be 7b97 8d3e
00000020: c5e5 56be dc97 4dbd 81df d33d 78ef 93be
00000030: 07f6 a13d dac5 ecbc d79e 90be 6c30 4a3e
00000040: 2ff4 693e 2c0a 16be 8e2d 04be 4422 f0bd
00000050: 29fb 2d3e a153 23bb 2549 fa3d ac70 1a3e
00000060: 9022 45bd 9b58 87bd b0bd f43d 1143 8a3e
00000070: e465 823e c9e5 113d 7407 9ebe d3d6 b7bd
00000080: 6e21 0b3e 6ed6 0cbc 0b86 30be 4dbd 7dbe
00000090: 8896 10be d5b4 a13e 8d83 8cbe dca9 943e
000000a0: 8c65 87be 3313 863e a8e5 2fbb e066 d73d
000000b0: 264f 67be 110e 91bd ec64 913e cdc7 5fbe
000000c0: e19f 323d ca71 b43d 90f7 373d aa0f e93d
000000d0: 6ca6 8ebd bc70 6abd 88cd 3fbe 953d c3bd
000000e0: e675 3c3d 21e3 8abe 4d0d a1bd 649f 1d3e
000000f0: b477 603e ab20 82be 13d0 85be fe52 81bd
00000100: 5a11 ebbd 9a2c 77be 987e 483e 013b 943e
00000110: 78f6 d93d 4e59 b9bd 0d7a 02be 0628 ce3d
00000120: d8c9 53be 0b9c ef3c 550d 25bd 989e 2fbe
00000130: f1bb 703e 2de6 8cbe 0d64 5f3d 81fb e13d

model.layers.3.bias f4 [8]
0.025051983 0.2249026 -0.08444755 0.17021753 -0.2676311 0.27782756 0.11368982 0.13178311
00000000: d139 cd3c de4c 663e d6f2 acbd 814d 2e3e
00000010: f206 89be 6a3f 8e3e 35d6 e83d 27f2 063e

model.layers.6.weight f4 [4, 8]
0.14586172 0.25853506 -0.284388 0.09155332 -0.15638317 0.20830931 -0.2501809 0.15901604
-0.3024545 -0.20547141 -0.07429314 0.05837146 0.05532654 -0.03716246 -0.046884574 0.18030776
0.24759957 0.10037046 -0.15203899 0.0051641744 -0.015133241 0.27856785 0.17956935 -0.25659275
0.24137084 0.33752155 0.1822972 -0.20598425 0.15614195 -0.2762208 0.19598335 0.16225831
00000000: c65c 153e b55e 843e 4e9b 91be 4f80 bb3d
00000010: e922 20be 094f 553e b617 80be 1ad5 223e
00000020: 51db 9abe 1967 52be 0027 98bd e916 6f3d
00000030: 159e 623d aa37 18bd 0a0a 40bd 99a2 383e
00000040: be8a 7d3e 078f cd3d 1cb0 1bbe 3c38 a93b
00000050: 6af1 77bc 72a0 8e3e 07e1 373e 2060 83be
00000060: eb29 773e a0cf ac3e 1eac 3a3e 89ed 52be
00000070: ade3 1f3e d06c 8dbe dcaf 483e 0b27 263e

model.layers.6.bias f4 [4]
0.11140637 0.12748785 0.22370885 0.023476144
00000000: 0629 e43d 2d8c 023e ef13 653e 0b51 c03c

model.layers.7.weight f4 [1, 4]
0.17417206 -0.09029021 0.4432443 0.31664276
00000000: 295a 323e 13ea b8bd ebf0 e23e 001f a23e

exp_avg f4 [10, 2]
0.0 0.0 -1.9347047 -0.023889014 1.2905632 0.014196469 1.8774205 0.021595296
1.4542098 0.018325144 4.614116 0.052389514 -3.5337105 -0.042519737 0.0 0.0
0.0 0.0 -1.2508254 -0.014432453
00000000: 0000 0000 0000 0000 67a4 f7bf e5b2 c3bc
00000010: 2d31 a53f 4f98 683c 514f f03f 9ee8 b03c
00000020: 8c23 ba3f 9d1e 963c d7a6 9340 6396 563d
00000030: 5028 62c0 2d29 2ebd 0000 0000 0000 0000
00000040: 0000 0000 0000 0000 0c1b a0bf 1876 6cbc

exp_avg_sq f4 [10, 2]
0.0 0.0 0.11227661 1.6147784e-05 0.049702805 6.0913276e-06 0.10771795 1.3971966e-05
0.0685145 9.961315e-06 0.60120374 7.673273e-05 0.3628544 5.0444425e-05 0.0 0.0
0.0 0.0 0.040613644 5.368143e-06
00000000: 0000 0000 0000 0000 48f1 e53d 1a75 8737
00000010: 2b95 4b3d 1b64 cc36 3b9b dc3d 2369 6a37
00000020: 5551 8c3d 861f 2737 7de8 193f 92eb a038
00000030: 0dc8 b93e 4a94 5338 0000 0000 0000 0000
00000040: 0000 0000 0000 0000 7e5a 263d ff1f b436

exp_avg f4 [10]
0.0 -0.03767161 0.025079578 0.036436144 0.028253557 0.08969104 -0.06850053 0.0
0.0 -0.024296135
00000000: 0000 0000 8c4d 1abd b073 cd3c 113e 153d
00000010: 0174 e73c f0af b73d 024a 8cbd 0000 0000
00000020: 0000 0000 b008 c7bc

exp_avg_sq f4 [10]
0.0 4.2521522e-05 1.8830258e-05 4.0597046e-05 2.5656338e-05 0.0002277403 0.00013606092 0.0
0.0 1.5390126e-05
00000000: 0000 0000 2359 3238 acf5 9d37 bf46 2a38
00000010: 9138 d737 92cd 6e39 93ab 0e39 0000 0000
00000020: 0000 0000 0b1a 8137

exp_avg f4 [8, 10]
0.0 5.8337626 11.153903 6.572769 2.2767663 7.2664213 1.8673291 0.0
0.0 0.8667701 0.0 0.35325757 3.5658934 2.0617185 0.64005786 2.2966974
0.6367221 0.0 0.0 0.28451613 0.0 -0.82242733 -1.6808605 -0.99442333
-0.34303004 -1.1359996 -0.27868053 0.0 0.0 -0.1302076 0.0 0.06726602
0.06426942 0.032618295 0.013510962 -0.005336099 0.013975721 0.0 0.0 0.005530418
0.0 0.3404503 0.6259319 0.3759928 0.12699682 0.41651833 0.107819326 0.0
0.0 0.0475144 0.0 -0.013819394 -0.009823062 -0.008921816 -0.0022516856 -0.0008181118
-0.0034568647 0.0 0.0 -0.0017768557 0.0 0.0 0.0 0.0
0.0 0.0 0.0 0.0 0.0 0.0 0.0 -0.025716333
0.0 -0.02168473 -0.007610979 -0.025379112 -0.0069111106 0.0 0.0 -0.0022675656
00000000: 0000 0000 2fae ba40 6376 3241 2054 d240
00000010: 8ab6 1140 8686 e840 a404 ef3f 0000 0000
00000020: 0000 0000 a5e4 5d3f 0000 0000 2dde b43e
00000030: 9937 6440 32f3 0340 d5da 233f 17fd 1240
00000040: 3800 233f 0000 0000 0000 0000 19ac 913e
00000050: 0000 0000 998a 52bf 7026 d7bf 8792 7ebf
00000060: a2a1 afbe 6f68 91bf 37af 8ebe 0000 0000
00000070: 0000 0000 2455 05be 0000 0000 c4c2 893d
00000080: b09f 833d c39a 053d 155d 5d3c 71da aebb
00000090: 6cfa 643c 0000 0000 0000 0000 8238 b53b
000000a0: 0000 0000 804f ae3e 133d 203f 2182 c03e
000000b0: 740b 023e e441 d53e 61d0 dc3d 0000 0000
000000c0: 0000 0000 769e 423d 0000 0000 bd6a 62bc
000000d0: e9f0 20bc cf2c 12bc 0491 13bb 8e76 56ba
000000e0: 918c 62bb 0000 0000 0000 0000 62e5 e8ba
000000f0: 0000 0000 0000 0000 0000 0000 0000 0000
00000100: 0000 0000 0000 0000 0000 0000 0000 0000
00000110: 0000 0000 0000 0000 0000 0000 0fab d2bc
00000120: 0000 0000 2da4 b1bc 8565 f9bb dbe7 cfbc
00000130: 9976 e2bb 0000 0000 0000 0000 709b 14bb

exp_avg_sq f4 [8, 10]
0.0 1.0399024 3.5835466 1.2368523 0.15030643 1.519633 0.099373214 0.0
0.0 0.020430306 0.0 0.0051590437 0.3429669 0.11212391 0.010494916 0.13900453
0.010497063 0.0 0.0 0.0020274478 0.0 0.020202467 0.07688898 0.02672228
0.003216182 0.034356486 0.0021102338 0.0 0.0 0.00043954345 0.0 0.0001013837
0.00010862916 2.9183177e-05 4.335507e-06 3.0922645e-06 4.5614115e-06 0.0 0.0 7.617611e-07
0.0 0.0047296775 0.0149575835 0.0053342925 0.00062499684 0.006454676 0.00043554517 0.0
0.0 8.02892e-05 0.0 5.3894764e-06 3.8358166e-06 2.5472852e-06 1.2370228e-07 1.6135927e-07
3.2800597e-07 0.0 0.0 8.5952664e-08 0.0 0.0 0.0 0.0
0.0 0.0 0.0 0.0 0.0 0.0 0.0 3.6442212e-05
0.0 2.4477426e-05 2.98654e-06 3.0746793e-05 2.3812102e-06 0.0 0.0 3.1759058e-07
00000000: 0000 0000 861b 853f d458 6540 2d51 9e3f
00000010: eee9 193e 5683 c23f 2f84 cb3d 0000 0000
00000020: 0000 0000 755d a73c 0000 0000 320d a93b
00000030: 5c99 af3e 38a1 e53d def2 2b3c 3457 0e3e
00000040: e0fb 2b3c 0000 0000 0000 0000 eede 043b
00000050: 0000 0000 a57f a53c f877 9d3d afe8 da3c
00000060: 95c6 523b 63b9 0c3d d94b 0a3b 0000 0000
00000070: 0000 0000 8672 e639 0000 0000 f69d d438
00000080: d6cf e338 65ce f437 b979 9136 b384 4f36
00000090: 3a0e 9936 0000 0000 0000 0000 d37b 4c35
000000a0: 0000 0000 69fb 9a3b a710 753c 4acb ae3b
000000b0: d4d6 233a bf81 d33b e259 e439 0000 0000
000000c0: 0000 0000 f060 a838 0000 0000 40d7 b436
000000d0: 6ab5 8036 07f2 2a36 06d3 0434 1942 2d34
000000e0: cc18 b034 0000 0000 0000 0000 fa94 b833
000000f0: 0000 0000 0000 0000 0000 0000 0000 0000
00000100: 0000 0000 0000 0000 0000 0000 0000 0000
00000110: 0000 0000 0000 0000 0000 0000 87d9 1838
00000120: 0000 0000 df54 cd37 5e6c 4836 1ef6 0038
00000130: e1cc 1f36 0000 0000 0000 0000 5181 aa34

exp_avg f4 [8]
0.30623382 0.09932 -0.046224885 0.0015905607 0.017120996 -0.00047115865 0.0 -0.00094367954
00000000: aeca 9c3e 4968 cb3d 4e56 3dbd 5c7a d03a
00000010: 5541 8c3c d805 f7b9 0000 0000 4361 77ba

exp_avg_sq f4 [8]
0.0026823732 0.00026155892 5.7754092e-05 6.671683e-08 1.10796145e-05 6.3074688e-09 0.0 4.755908e-08
00000000: c1ca 2f3b d821 8939 fc3c 7238 f745 8f33
00000010: 95e2 3937 15b9 d831 0000 0000 c343 4c33

exp_avg f4 [4, 8]
1.2759631 0.44033968 1.0025717 -0.0061994465 1.0777032 -0.00082849537 0.0 0.00013229276
-0.71918434 -0.246772 -0.5642704 0.0033541422 -0.6109537 0.0004536325 0.0 -9.5891315e-05
3.3803391 1.1632541 2.6541464 -0.016096966 2.8632984 -0.0021637662 0.0 0.0004001331
2.426048 0.8345976 1.9047136 -0.011526862 2.0556214 -0.0015504599 0.0 0.00029112562
00000000: c252 a33f 3474 e13e 4554 803f ba24 cbbb
00000010: 2ef2 893f 622f 59ba 0000 0000 11b8 0a39
00000020: 771c 38bf cdb1 7cbe 0674 10bf 2bd1 5b3b
00000030: 7667 1cbf 86d5 ed39 0000 0000 4219 c9b8
00000040: 7a57 5840 83e5 943f 89dd 2940 c9dd 83bc
00000050: 4840 3740 f9cd 0dbb 0000 0000 f5c8 d139
00000060: 5f44 1b40 30a8 553f a8cd f33f 2adb 3cbc
00000070: 4d8f 0340 cd38 cbba 0000 0000 38a2 9839

exp_avg_sq f4 [4, 8]
0.046554934 0.0049643386 0.027763702 1.3792454e-06 0.037859086 1.7322282e-08 0.0 5.205372e-08
0.015536066 0.0016255408 0.0092058685 4.2252748e-07 0.012823689 5.180917e-09 0.0 1.7193335e-08
0.33472672 0.035352416 0.19897513 9.503318e-06 0.27427787 1.1798457e-07 0.0 3.7236106e-07
0.17287688 0.018239634 0.10272927 4.8852867e-06 0.14177175 6.057198e-08 0.0 1.9220684e-07
00000000: 63b0 3e3d e4ab a23b b470 e33c 831e b935
00000010: 2112 1b3d 1acc 9432 0000 0000 ac91 5f33
00000020: fc8a 7e3c 1910 d53a 36d4 163c bcd7 e234
00000030: 731a 523c d403 b231 0000 0000 8bb0 9332
00000040: 4d61 ab3e b2cd 103d 23c0 4b3e 7170 1f37
00000050: 266e 8c3e b45e fd33 0000 0000 eae8 c734
00000060: a306 313e 496b 953c b963 d23d 4bec a336
00000070: 9d2c 113e cc13 8233 0000 0000 6a61 4e34

exp_avg f4 [4]
0.17989321 -0.101387285 0.4765629 0.34202486
00000000: ed35 383e 23a4 cfbd 0d00 f43e e21d af3e

exp_avg_sq f4 [4]
0.0009207664 0.00030682507 0.006615439 0.003416419
00000000: 965f 713a 5ddd a039 53c6 d83b 00e6 5f3b

exp_avg f4 [1, 4]
-0.67669624 -2.8861928 1.4862834 4.926358
00000000: f73b 2dbf 62b7 38c0 893e be3f baa4 9d40

exp_avg_sq f4 [1, 4]
0.015137211 0.2376177 0.06697562 0.7118375
00000000: 1102 783c 0e52 733e 842a 893d fb3a 363f
