deeper_null/lightning_logs/version_36/checkpoints/epoch=9-step=20.ckpt (torch, 99907 bytes, 30 tensors)

model.dense_nn.layers.0.weight f4 [64, 2]
000000 bd f8 dd 3e df da 1e bf 77 da c3 bd ed b4 12 3f
       0.43353835 -0.6205272 -0.09563153 0.5730732
000010 58 64 17 bf fd 2b 99 3d 14 74 cc 3d 7a 17 c7 3d
       -0.5913749 0.07479093 0.09983078 0.09721275
000020 19 29 58 3e 39 32 a7 be 0e 65 08 bf 10 aa 82 be
       0.21109428 -0.32655504 -0.532792 -0.25520372
000030 36 f5 a6 3e 92 47 e2 bd 6f 42 ab be 5c 96 9e be
       0.32608956 -0.11048807 -0.33449122 -0.3097409
000040 1c a9 07 3f 17 9f da be 37 27 88 be 58 19 2f 3f
       0.52992415 -0.426995 -0.2659242 0.68398046
000050 d4 f7 59 be b8 1b 2b bf 77 3d 2e 3e 29 21 bb be
       -0.21285945 -0.6683917 0.17015634 -0.36548737
000060 56 f3 04 bf 38 ac 9d 3e f6 5c a4 be c8 1f 12 3f
       -0.519338 0.30795455 -0.32102174 0.57079744
000070 82 c3 9d be 0d 3d f9 3e 6f d4 bd 3d 55 2a 1c 3f
       -0.30813223 0.4867939 0.09269034 0.61002094
000080 c2 c5 0d be 66 7d 2d bf 55 d7 d4 3e f5 d8 94 be
       -0.1384497 -0.6776947 0.41570535 -0.29071775
000090 72 dd 33 bf db e2 f3 be ed 68 09 be 6e 89 e6 bd
       -0.70259774 -0.47634014 -0.13418932 -0.112566814
0000a0 28 4e ca be e1 87 19 3f d3 6c 2f 3f 8b 19 97 3e
       -0.39512753 0.5997296 0.6852543 0.29511675
0000b0 65 31 2b bf 68 b6 36 bd 01 3c 0c 3f e8 18 f6 bd
       -0.66872245 -0.04460755 0.5477906 -0.12016469
0000c0 ba 90 25 3f 49 54 a9 be d9 a7 1a 3f 50 25 6b be
       0.6467396 -0.33072117 0.60412365 -0.22963452
0000d0 97 82 13 3e 16 4c df 3e 43 0d 08 bf 44 ea 5c 3e
       0.14405285 0.43612736 -0.53145236 0.2157374
0000e0 16 43 bb 3e ba 9c 21 bf 39 e2 47 be 06 86 41 3e
       0.3657462 -0.6312977 -0.19519891 0.18898782
0000f0 27 43 0b bf 4d ed 26 3f 9d 65 25 3d f8 18 d9 be
       -0.5439934 0.6520584 0.04038011 -0.42401862
000100 87 a7 1b 3f 3f f4 28 3f d3 7e 1a 3f f0 08 08 3f
       0.608025 0.6599769 0.6034977 0.5313864
000110 45 e5 84 be 3f e0 b8 3d 05 e5 5a be 29 a6 22 3e
       -0.2595617 0.090271465 -0.21376427 0.15883698
000120 b5 37 63 be a3 59 89 3e 30 e1 29 bd 55 50 0b 3f
       -0.2218922 0.268262 -0.04147452 0.5441945
000130 09 ac bd 3e 63 09 5a be aa 14 d4 3d 92 4e 43 3e
       0.37045315 -0.21292643 0.10355504 0.19072941
000140 12 52 85 3e 26 df 21 be c6 ff 2c 3f db 25 f3 3d
       0.26039177 -0.1580778 0.6757778 0.11872455
000150 e0 b9 87 3e 4d cf 2a 3f a7 98 7e 3e 7b 45 f6 3d
       0.26509 0.66722566 0.2486292 0.12024971
000160 29 01 0a 3f 8c 93 2c 3f 79 e2 20 3f 8a 9b 6c be
       0.5390802 0.6741264 0.6284557 -0.23106208
000170 9c 63 f9 bc 9e 27 33 bf 46 cb b2 3e 77 7b d7 bd
       -0.030443005 -0.69982326 0.3492071 -0.10521596
000180 0b 97 0f bf e1 ef e9 bd d5 a0 a4 3e a6 21 b7 ba
       -0.5608985 -0.114227064 0.32153955 -0.001397182
000190 d9 9a 71 3d 3d c2 93 3e 80 c9 a6 3e 87 bc 24 bf
       0.058985565 0.2885913 0.32575607 -0.6435017
0001a0 c6 13 d7 be ed 41 d9 bd 9a 09 1e be 89 b4 bd 3e
       -0.42007273 -0.106082775 -0.1543335 0.370518
0001b0 eb 78 2d 3f 60 48 06 3f 03 af 65 3e 62 03 e4 be
       0.6776263 0.52454185 0.22430043 -0.4453383
0001c0 f2 84 01 bc 23 e4 4d 3e 8c 2f f5 3e a2 a8 63 3e
       -0.007905232 0.20106559 0.47887838 0.22232297
0001d0 9c 3e d1 be 39 ec 23 3f 88 ac 29 3f d8 3f 1c 3e
       -0.4086808 0.6403232 0.66278887 0.1525873
0001e0 e6 46 1a 3f 1a 8b 69 3e 71 57 8a be 01 cd 37 3e
       0.6026443 0.2280697 -0.27019837 0.17949297
0001f0 c5 b7 91 3e 33 c4 ff be a5 cf 1c be 7a ed b9 3d
       0.28460518 -0.49954376 -0.15313585 0.09078498

model.dense_nn.layers.0.bias f4 [64]
000000 66 b3 d0 3e ec 65 6a be c1 5f 1a bf 09 94 18 bf
       0.4076187 -0.22890443 -0.6030236 -0.59600884
000010 ec 54 6d 3e b6 67 37 bd 42 fb 18 3e 9c 1b 20 bf
       0.23176926 -0.04477664 0.14939597 -0.6254213
000020 65 c0 f0 3e bf 0b 15 3f 93 06 aa 3d 3e 4a 82 bd
       0.47021785 0.5822105 0.08302035 -0.06361817
000030 26 f9 a3 3e 74 42 16 3f 73 ba 71 3e c4 be 1c bf
       0.32026023 0.5869515 0.23606281 -0.61228585
000040 12 c1 27 3f 96 c3 66 3d 74 4f 2a 3f 11 25 44 bd
       0.65528977 0.05633887 0.66527486 -0.04788691
000050 c0 0d fb be 7d 03 0f 3f 21 82 4e be 0e 56 c7 3e
       -0.49033928 0.558647 -0.20166828 0.38932842
000060 45 9c b3 3e d7 36 4c 3e 88 55 94 be 75 a2 11 3f
       0.35080162 0.19942795 -0.28971505 0.56888515
000070 c5 46 b7 bc c3 86 6d be bf a0 d4 3e 11 8e 32 3d
       -0.022372613 -0.23195939 0.4152889 0.043592516
000080 9b f7 6e 3e 7a 77 e0 3e bf d9 a4 be ff ab 9d be
       0.23336641 0.43841153 -0.32197377 -0.30795285
000090 a3 ce 1a bf eb f7 4c bd d4 06 4a be c3 e1 a5 3e
       -0.6047155 -0.05004112 -0.19729167 0.32398805
0000a0 26 c8 c3 3e 59 2e a1 be 5f 69 13 bf a2 e0 51 bc
       0.3823864 -0.31480673 -0.5758266 -0.012809904
0000b0 53 a3 2d bf b1 19 12 3f b2 b3 b9 3e 21 1d 29 bf
       -0.6782734 0.5707045 0.3626991 -0.6606007
0000c0 0c f3 f4 3e cf 28 3e be 43 59 2e 3f 16 30 83 3e
       0.4784168 -0.18570255 0.6810495 0.25622624
0000d0 dd 7a 8a be 1a 7a c7 3e 40 24 07 3f 7d 7e 16 bf
       -0.27046862 0.38960344 0.5278969 -0.58786756
0000e0 9e be 1a bf 12 e5 af 3d 22 c7 10 bf 6e 00 06 bf
       -0.6044711 0.085886136 -0.5655385 -0.52344406
0000f0 77 d2 2a 3f 88 af 84 3e ab 72 ac be 4a 39 3b 3d
       0.66727394 0.2591517 -0.33681235 0.045708932

model.dense_nn.layers.2.weight f4 [64, 64]
000000 d4 df 97 3d 68 38 8c bd 1c ad f0 bd 00 e3 02 bd
       0.07415739 -0.06846696 -0.11751768 -0.031954765
000010 d8 98 3c bd d4 77 9e bd 3c 21 a0 bd 24 d3 ef bd
       -0.0460442 -0.07737699 -0.07818839 -0.11710194
000020 84 5d d6 bd b0 ca 70 3d 98 95 54 3d 90 94 fc bd
       -0.104670554 0.058787048 0.051900476 -0.123330235
000030 a0 bd 1f bd 00 2d 5f bb 80 be 2d bb d8 ce d9 3d
       -0.0389992 -0.0034053922 -0.0026511252 0.106351554
000040 00 f8 df b9 cc c9 d3 bd 98 c8 c7 3d c0 29 10 3d
       -0.0004271865 -0.10341224 0.09755057 0.035196066
000050 04 6f c4 bd 88 84 62 3d dc 59 90 3d 08 69 ed bd
       -0.09591487 0.055302173 0.07048389 -0.11592299
000060 70 d6 50 3d fc 10 a2 bd b0 34 b9 3c 18 6c 99 bd
       0.050985754 -0.07913396 0.022608131 -0.0749132
000070 54 3f c5 bd 9c 26 d1 bd 78 3c 56 3d 80 3a 61 3b
       -0.096312195 -0.10212442 0.05230376 0.0034367144
000080 08 b5 60 bd 80 cd 6f bd 20 1f 7a 3d 18 0c 86 bd
       -0.054860145 -0.05854559 0.06106484 -0.065452754
000090 00 14 2b 3b b0 01 b1 bc e4 85 df bd 80 ac 5d bd
       0.002610445 -0.02160725 -0.109142095 -0.054119587
0000a0 2c 2c c8 bd 18 63 1e bd ec e8 83 bd c0 4a c2 bc
       -0.0977405 -0.038668722 -0.06440911 -0.023717284
0000b0 1c a1 f0 3d b0 3f 94 bd 00 f0 08 3d 7c 0a f3 3d
       0.11749479 -0.0723871 0.033432007 0.11867234
0000c0 f8 c8 fc bd ac 38 96 bd 7c 1d e5 3d ac 78 c9 3d
       -0.12343019 -0.07335028 0.11187264 0.098374695
0000d0 88 19 0a 3d 68 82 64 bd 5c 9e e6 3d e8 f3 bf 3d
       0.033715755 -0.055788428 0.112606734 0.09372693
0000e0 f8 04 e6 3d b4 4d eb bd 18 45 54 3d 80 96 93 3b
       0.112314165 -0.1148943 0.051823705 0.004504025
0000f0 80 6f 66 bb 78 46 b5 3d b0 16 06 3d a4 3b f9 bd
       -0.0035161674 0.088513315 0.03273648 -0.12169579
000100 68 e3 32 bd 38 ab a7 3d 10 e3 8f 3d 18 dc 74 3d
       -0.043673903 0.08186954 0.070257306 0.05978021
000110 00 34 e1 3b f4 6f c2 bd c4 e3 b2 3d 78 a9 e2 3d
       0.006872654 -0.094940096 0.08734849 0.1106748
000120 e4 be 8c 3d 00 e7 3a 3c 94 ce 87 3d ac 32 af 3d
       0.06872347 0.011407614 0.066311985 0.08554587
000130 6c b5 8f bd e0 65 55 bc 1c 7f 94 bd d0 a0 f6 3d
       -0.07017025 -0.013024777 -0.07250807 0.12042391
000140 dc 35 9e bd 70 e7 ff 3c 9c 21 97 bd 60 cb 8b bd
       -0.077251166 0.031238288 -0.07379457 -0.068259
000150 c0 7e 5f 3c 08 da 6c 3d e0 9f f7 3c 20 0b 21 bd
       0.013641059 0.05782512 0.030227602 -0.03931725
000160 0c 80 ff bd b0 c4 d1 bd f4 8f dd 3d 40 fc 5e 3d
       -0.12475595 -0.10242593 0.108184725 0.054439783
000170 10 7d bb bd f4 84 d3 3d 74 a3 dd 3d 20 67 d4 bc
       -0.09154713 0.10328093 0.10822192 -0.02592808
000180 00 fe 24 3b 70 6b 4e 3d c0 63 bf bd 54 26 b0 bd
       0.002517581 0.05039543 -0.09345198 -0.086010605
000190 c8 50 8e 3d 00 c5 da bb 20 37 3b bc c0 c5 85 bc
       0.069490016 -0.0066763163 -0.011426717 -0.016329646
0001a0 0c f8 bf bd ec 99 b8 3d 80 22 87 3c 00 ec 83 bc
       -0.09373483 0.09013733 0.016495943 -0.016103745
0001b0 18 b8 74 bd b4 ae 82 bd 58 96 c4 3d f0 92 2a 3d
       -0.059745878 -0.06380978 0.09598988 0.041644037
0001c0 40 10 df 3d a8 51 b1 bd 28 08 75 3d d4 f0 9c 3d
       0.10891771 -0.08658153 0.05982223 0.07663122
0001d0 c0 b2 0c 3c 90 16 95 3c 40 ba df bc e0 47 57 3d
       0.008587539 0.018199235 -0.02731049 0.05255878
0001e0 1c 44 c5 3d 04 59 84 bd 10 49 5a bd 00 e6 ad ba
       0.096321315 -0.06462291 -0.053292334 -0.0013267398
0001f0 30 de 95 bc 84 c6 d7 bd 48 58 5e bd 00 d3 8e 3d
       -0.018294424 -0.10535911 -0.05428341 0.06973839
000200 b4 d4 e9 bd d8 14 95 3d b4 e2 a5 bd 18 8f c1 3d
       -0.11417523 0.07279366 -0.08099881 0.09451121
000210 f4 e5 8c bd fc 88 9b 3d c0 f4 9c 3c 38 86 b7 3d
       -0.068797976 0.07594487 0.019159675 0.08961147
000220 64 50 ac 3d e0 27 ed 3d 30 d5 a2 3c 2c 1d b8 bd
       0.08413771 0.11579871 0.019877046 -0.08989939
000230 28 5d 37 3d c0 94 ce 3d 20 7a fe bd 40 b5 f4 3c
       0.044766575 0.100869656 -0.12425637 0.029871583
000240 80 e2 64 bb 00 f7 bf bb 74 05 a6 3d c0 2d e9 3d
       -0.0034925044 -0.005858302 0.08106509 0.11385679
000250 a8 c3 b9 bd 08 01 68 bd d8 9f 5d bd 88 a8 3f bd
       -0.090705216 -0.05664161 -0.054107517 -0.046791583
000260 2c 3b 87 3d 38 06 3e 3d 34 a9 fe 3d 64 f5 8b 3d
       0.06603083 0.04639265 0.12434617 0.06833914
000270 50 6a a3 3c 60 85 2d bc c0 c8 21 3c 50 bb 42 3d
       0.019948155 -0.010590881 0.009874523 0.047541916
000280 08 5c 07 bd 00 a0 e2 b8 e0 60 36 3c 00 a0 63 38
       -0.033046752 -0.00010806322 0.011131495 5.427003e-05
000290 18 01 ac 3d c0 f8 cb bd c0 02 74 bd 80 9c 5c 3c
       0.08398646 -0.09959555 -0.059572935 0.013465047
0002a0 b4 a9 ee 3d 24 fa c4 bd 18 0c 4a 3d a0 da a7 3c
       0.11653462 -0.09618023 0.04932794 0.02048999
0002b0 50 74 f5 3c a8 f7 50 bd 14 e4 af 3d dc f3 8e bd
       0.029962689 -0.051017433 0.08588424 -0.06980106
0002c0 90 50 7c 3d 1c 00 d9 3d e0 18 70 3c f0 ed 23 bd
       0.061600268 0.10595724 0.014654368 -0.040021837
0002d0 f0 e8 8c 3d d8 62 18 3d 50 fe fb bc 78 d8 ba bd
       0.06880367 0.03720364 -0.030760914 -0.091233194
0002e0 74 c6 bd 3d 80 61 16 bd 50 db e2 3d 20 76 a7 3c
       0.092663676 -0.036714077 0.11076987 0.020442069
0002f0 00 ba 6e 3b 80 f1 6b bb 50 dd cf bd 48 ba 3f bd
       0.0036426783 -0.00360021 -0.10149634 -0.04680851
000300 c8 5d f4 bd bc 71 8d bd 50 2f 14 3d 70 64 82 3c
       -0.1193195 -0.06906459 0.036177933 0.015917033
000310 dc e1 a6 bd a8 65 30 3d e8 ef 7d 3d 54 c9 ed 3d
       -0.08148548 0.043065697 0.06199637 0.11610666
000320 24 e1 e5 bd 2c 4a f1 3d 50 fd cc bc 98 03 1e bd
       -0.11224583 0.11781725 -0.025023133 -0.038577646
000330 30 9d d7 3c 54 66 b3 bd 10 df 8d bc 40 0d 21 bd
       0.02632007 -0.08759752 -0.017318279 -0.039319277
000340 b8 c1 08 3d 4c 0f 81 bd 08 51 2a bd 74 cb f3 3d
       0.03338787 -0.06301746 -0.041581184 0.1190404
000350 f4 d1 94 bd 80 94 e3 bb f4 b9 f2 bd 10 cb 96 3c
       -0.07266608 -0.006945193 -0.11851874 0.018407375
000360 80 7b e7 bd 58 a4 02 bd f8 f6 ce 3d 70 c2 0a 3d
       -0.11302853 -0.03189501 0.10105699 0.033876836
000370 60 33 eb bc 58 4a 50 bd 60 c1 d2 bd d8 d5 1d 3d
       -0.028711021 -0.05085215 -0.102907896 0.038534015
000380 78 1b e7 3d 60 1f 53 bc 00 2a 70 bd 20 81 81 bc
       0.11284536 -0.012885898 -0.058633804 -0.015808642
000390 10 b4 81 3c 74 c9 c0 3d 40 d5 ab 3b 40 0c 87 bc
       0.01583293 0.09413424 0.0052439272 -0.016485333
0003a0 2c e5 b1 3d d8 96 20 3d 10 19 f2 bc a4 5d bf bd
       0.08686289 0.039206356 -0.029552966 -0.093440324
0003b0 80 00 44 bc 38 4f fa 3d ec 95 fa bd 70 13 7f 3d
       -0.01196301 0.12222141 -0.122356266 0.062274396
0003c0 30 d1 bd 3d 64 b9 a2 bd c0 48 4a bc bc 69 e9 bd
       0.09268415 -0.07945517 -0.0123464465 -0.1139712
0003d0 e4 f6 9f bd a8 8e cd 3d c8 04 4f bd c8 e4 38 bd
       -0.078107625 0.10036975 -0.05054167 -0.045140058
0003e0 68 0f d7 bd 9c cf 9b 3d 04 97 ed 3d f0 c9 a9 3c
       -0.105009854 0.07607958 0.116010696 0.020726174
0003f0 98 4a 57 bd ec 22 fb bd 40 79 44 3c e4 90 9d bd
       -0.052561373 -0.1226252 0.011991799 -0.07693651

model.dense_nn.layers.2.bias f4 [64]
000000 40 8d 8f bd 38 93 95 bd 58 f2 17 3d 20 58 fe bd
       -0.07009363 -0.073034704 0.03709635 -0.12419152
000010 98 74 e9 3c 78 fb 65 3c 2a 23 01 be 88 85 8e 3d
       0.028497979 0.014037006 -0.1261107 0.06959063
000020 c7 a4 30 3d b4 f1 38 3d 60 bd 4a bc 00 58 93 3d
       0.043125894 0.04515238 -0.012374252 0.07194519
000030 d7 03 ee 3c 9d c1 b6 bd 90 5b ec bd 88 0d af 3d
       0.029054565 -0.089236476 -0.11540902 0.08547503
000040 c4 1a ae 3b e8 4b 4f bd 4e 8c 65 3d 40 ff a5 bb
       0.0053132493 -0.0506095 0.056042008 -0.0050658286
000050 8e 1d 2c 3d 78 1b f2 ba 98 5c 60 bd 8b 34 02 bc
       0.042020373 -0.0018471321 -0.054775804 -0.0079470975
000060 e5 d6 4b bc 00 3c b1 bc 75 ea 2c 3d cc c4 e3 3d
       -0.012441372 -0.021635056 0.042215783 0.111215204
000070 30 eb c9 bc f0 14 c9 bd 1c a4 f1 bd 5e 63 f6 3d
       -0.024648279 -0.09818447 -0.117988795 0.120306715
000080 76 c1 5c 3c 8a 81 ad 3d b0 b5 8d bd a4 e3 c0 3d
       0.013473859 0.08471973 -0.0691942 0.09418419
000090 70 b1 df 3d 1c e6 c3 3d 70 b7 b0 3d 74 f1 ae bd
       0.109225154 0.09565374 0.08628738 -0.08542147
0000a0 28 4f a1 3d 88 b7 2f bd c0 ef e4 3d ac cc b7 3d
       0.07876426 -0.04289964 0.11178541 0.08974585
0000b0 00 22 be 3b 28 90 33 3d d5 e6 8e bd a2 e2 fd 3b
       0.005802393 0.04383865 -0.069776215 0.007747964
0000c0 c2 2f 35 3d 20 78 7d 3d 20 ce 39 3d b5 72 af 3d
       0.044235 0.06188214 0.04536259 0.085668005
0000d0 f0 df 75 3c 22 6d ba 3d 52 27 4d bd dc 85 d9 3d
       0.015007004 0.09102847 -0.050086327 0.10621235
0000e0 54 b4 b7 3d 4f ae a1 3d f0 46 f2 bc e8 48 3b bd
       0.08969942 0.07894575 -0.029574841 -0.045723826
0000f0 1b cd 81 bc 9c e5 d6 3d 30 75 c2 3d 91 29 e1 bd
       -0.015844872 0.10493013 0.09495008 -0.10994256

model.dense_nn.layers.4.weight f4 [32, 64]
000000 88 4a 0e bd b4 3d e2 bd b8 e7 5a 3d d0 df be bc
       -0.034739047 -0.11046925 0.05344364 -0.023300081
000010 2c e2 b4 bd 74 48 f8 bd c4 a2 f3 bd 50 b2 fa bc
       -0.08832201 -0.12123194 -0.118962795 -0.030602604
000020 f0 c9 e0 3c 80 82 22 bb f8 f0 ea bd 80 56 40 3b
       0.027440041 -0.0024797022 -0.114717424 0.0029348433
000030 cc d7 f8 bd f8 af 18 bd a8 c5 03 bd d0 68 3b 3d
       -0.12150535 -0.037277192 -0.03217092 0.045754254
000040 f0 51 a4 3d b8 12 08 3d 28 02 5d 3d 10 51 8b 3d
       0.08023441 0.033220977 0.053957134 0.06802571
000050 60 d6 dc bd 14 c3 ac bd c4 ef 91 bd 80 dd 2e bb
       -0.10783076 -0.08435646 -0.0712581 -0.0026682317
000060 20 62 45 3d 00 8c 29 3d e8 48 fd bd a0 30 88 3c
       0.048189282 0.04139328 -0.123674214 0.016624749
000070 30 f4 f7 3d 80 e9 5f bb 18 d2 ea bd 00 a8 8e bb
       0.12107122 -0.0034166276 -0.114658535 -0.0043535233
000080 50 52 e1 3d 50 0a ef bc c0 f7 90 bd 38 4d eb 3d
       0.11002028 -0.029179722 -0.070785046 0.11489338
000090 00 30 97 3b 00 69 24 bd 00 dd bd 3b 80 c8 4d 3c
       0.0046138763 -0.0401392 0.0057941675 0.01256001
0000a0 14 34 87 bd d4 48 ba bd 28 c9 a1 bd 50 47 95 bd
       -0.0660173 -0.09095922 -0.07899696 -0.072889924
0000b0 a0 00 a1 bc 80 0f e6 bc d8 54 51 bd 2c b1 bf bd
       -0.019653618 -0.028083563 -0.051106304 -0.09359965
0000c0 e4 c4 e3 bd 3c 55 aa bd 1c 65 9a bd d4 7e c9 3d
       -0.11121538 -0.083170384 -0.07538816 0.09838644
0000d0 00 34 76 3b 9c 94 94 3d 04 83 a2 bd a0 d5 6b 3c
       0.0037567616 0.072549075 -0.079351455 0.014394194
0000e0 4c e8 a6 3d 88 f5 8c 3d 94 67 c4 3d 98 75 1f bd
       0.08149776 0.06882769 0.095900685 -0.038930506
0000f0 dc 87 e6 bd 54 09 8b bd a0 e2 7a 3c 54 ea df bd
       -0.11256382 -0.067888886 0.015312821 -0.109333664
000100 90 6a 41 bd 20 4a 8b 3c d8 bc 2e 3d fc d6 9c bd
       -0.047220767 0.017003119 0.042660564 -0.076581925
000110 94 ce d0 3d 25 3e 93 3d bf f1 37 bd c0 51 0b 3d
       0.10195652 0.071895875 -0.04490828 0.03401351
000120 d5 02 28 bd 93 54 5f bd a0 d1 5d 3c 54 5b d2 3d
       -0.041018326 -0.054524016 0.013538748 0.10271326
000130 39 ce b0 bd 73 34 7e bd 5e 68 42 3d 80 ec 4c 3c
       -0.08633084 -0.06206174 0.047462814 0.012507558
000140 f5 c9 70 3d 4d e2 aa 3d 81 54 c0 3d 34 52 b4 bd
       0.05878635 0.08343945 0.09391118 -0.088047415
000150 cf 61 01 3e 3f 88 a1 bd 78 fd 6e bd da df f6 bc
       0.12634967 -0.07887315 -0.058347195 -0.030136038
000160 6d f0 c2 3d f4 82 eb bd 36 03 34 3d 98 55 b2 bd
       0.09518514 -0.11499587 0.043948375 -0.08707732
000170 a0 68 45 bc e0 a9 93 3d 10 b1 64 3d f3 64 ce bd
       -0.01204887 0.072101355 0.055832922 -0.10077848
000180 2d af e2 bd be 96 86 3d af 7a 3b bc a0 d2 1b 3d
       -0.110685684 0.065717205 -0.011442824 0.038042665
000190 63 fe 8e bd 58 cb 6d bd 70 7f 93 3c 60 6c c7 bc
       -0.06982114 -0.05805525 0.018005103 -0.02434367
0001a0 a8 c2 ef 3d 4c 6a 11 3d c0 e5 6f 3c 60 82 af 3d
       0.117070496 0.035501763 0.014642179 0.08569789
0001b0 ac a7 b4 bd c0 9b f8 bb 3e b6 f8 3c 71 97 f6 bd
       -0.08821043 -0.007586926 0.030360337 -0.12040604
0001c0 f7 22 9e bd e8 62 56 bd 64 c3 eb 3d 10 fa 61 3c
       -0.07721513 -0.052340418 0.11511877 0.01379253
0001d0 92 6f c2 3a 4e 86 7e bd 61 0f ba 3b ff ae 30 3d
       0.0014834276 -0.0621398 0.005678103 0.04313564
0001e0 58 33 a3 3d 52 88 cf 3d 1c 87 fd bd 2c d0 a4 bd
       0.079687774 0.10133423 -0.12379286 -0.08047518
0001f0 b1 e1 45 bd e5 3f 86 bd 4c d7 e8 bd 57 13 c5 3d
       -0.04831094 -0.06555156 -0.113691896 0.096228294
000200 a4 09 bc bd 54 7b b7 3d 20 39 18 bd 00 c8 05 bb
       -0.09181526 0.0895907 -0.037163854 -0.0020413399
000210 20 6f 76 bd f0 bc 3a 3d 78 98 65 bd d0 d9 30 bd
       -0.06016457 0.04559034 -0.05605361 -0.043176472
000220 24 32 d2 bd 78 91 e2 bd 30 b8 a1 3c 74 8c a1 3d
       -0.1026347 -0.11062902 0.019741148 0.078881174
000230 f0 58 8e bc 24 0e cc 3d 80 f9 3d bc f4 97 ec bd
       -0.017376393 0.099636346 -0.01159513 -0.1155242
000240 88 9e 1f 3d c0 c7 68 bd f4 b5 82 3d f0 49 85 bc
       0.038969547 -0.05683112 0.06382361 -0.016270608
000250 80 f6 8d bc 80 68 22 3b c8 20 54 3d c0 c0 1b 3c
       -0.017329454 0.0024781525 0.051789075 0.009506404
000260 94 4f ed bd d0 46 66 bd 88 85 f0 3d 7c 04 d4 bd
       -0.11587444 -0.056219876 0.11744219 -0.10352418
000270 50 a0 d6 bc 40 31 89 bd 98 f4 d3 3d d0 b6 95 3c
       -0.02619949 -0.06698847 0.10349387 0.018275648
000280 90 25 6c bd 5c af b4 bd 54 0f b8 bd 50 62 58 bd
       -0.05765301 -0.0882251 -0.089872986 -0.052828133
000290 64 b1 8a 3d d8 34 bb 3d f4 9c d2 3d 98 39 34 3d
       0.06772116 0.091409385 0.10283843 0.04400024
0002a0 d0 21 a5 3d 34 a6 85 3d 38 06 37 3d e0 6b 5b bc
       0.0806309 0.06525841 0.044683665 -0.013392419
0002b0 20 32 49 bc ec 55 fc bd 38 f3 06 3d 4c fc cb 3d
       -0.012280017 -0.12321076 0.032946795 0.09960231
0002c0 14 61 bc 3d 90 0a d3 bc 34 72 b7 bd 24 0e 8d 3d
       0.09198204 -0.025761873 -0.089573294 0.06887463
0002d0 b0 44 7c 3d c0 ae ca 3b a0 33 b0 3d 88 83 3e 3d
       0.061588943 0.0061853826 0.08603597 0.046512157
0002e0 dc 3b da bd a0 93 d6 3d 00 bd fb 3c c0 ca 6e 3c
       -0.106559485 0.10477376 0.03072977 0.014574707
0002f0 64 b3 8c 3d e0 ec 01 bd e0 73 de bd b0 6e ed bd
       0.068701535 -0.031720042 -0.10861945 -0.115933776
000300 e4 82 85 bd d0 f3 bc 3d f8 3e 96 bd 00 53 b7 3d
       -0.06519106 0.09226191 -0.07336229 0.08951378
000310 a5 4e e9 bd a9 e7 e9 bd 55 63 0d 3c 40 9c ae 3b
       -0.113919534 -0.11421139 0.00862964 0.005328685
000320 cd 8b bf bc d9 a3 a4 bc cc cb a0 3d 88 d2 ed 3d
       -0.023382092 -0.02009766 0.07851371 0.11612421
000330 48 db 14 bc ab ed d4 3d 72 e6 94 3d 80 a1 81 3c
       -0.009085484 0.10396894 0.072705165 0.01582408
000340 e4 f4 34 3d 0d bb a5 bb 78 11 4b bc 70 ee bd 3d
       0.04417886 -0.0050576986 -0.012394302 0.09273994
000350 73 86 e7 3d a4 e8 b5 3d c8 33 12 3d 68 f2 b4 bd
       0.11304941 0.08882263 0.035693914 -0.08835298
000360 05 33 05 bd 10 40 c5 bd 7b 63 fa 3d e8 dc 3f bd
       -0.03251936 -0.096313596 0.12226006 -0.046841532
000370 80 4d 2e bc e4 f2 a8 bd b0 e5 e7 bc b8 24 f5 3d
       -0.010638595 -0.08249453 -0.028307766 0.11969894
000380 e2 52 54 bd 4f bb ac 3d 2c 0d cb 3d 28 c2 32 bd
       -0.051836856 0.08434164 0.09914622 -0.043642193
000390 1b 54 52 3d 00 50 5d bb a4 e8 84 bd 18 0a 6c 3d
       0.05134974 -0.0033769608 -0.06489685 0.057626814
0003a0 50 94 eb bc 67 77 39 3d 9c c3 9e 3d 4c f1 e5 bd
       -0.028757244 0.045279887 0.07752153 -0.11227664
0003b0 24 9b 80 bd 68 b7 36 bd 62 a3 c1 3d fc fd f1 bc
       -0.06279591 -0.044608504 0.09454991 -0.029540055
0003c0 43 65 d5 3d d0 f2 70 bd bc 33 af 3d c6 93 9e 3c
       0.10419705 -0.058825314 0.085547894 0.019357573
0003d0 7b e0 86 bd 21 f6 b7 3d eb d0 45 bd ea 9b 87 bd
       -0.06585785 0.08982492 -0.048294943 -0.06621535
0003e0 40 97 90 3b 1b 0e 59 bd 7c 4d b2 bd 28 04 cc bd
       0.0044125617 -0.052991968 -0.08706185 -0.0996173
0003f0 0b 36 f4 bd 8e 2e a3 3d e0 cf 6b bd 20 18 25 bd
       -0.119243704 0.07967864 -0.057571292 -0.04030621

model.dense_nn.layers.4.bias f4 [32]
000000 d4 12 cc 3d 44 41 9f bd e8 bb 9b 3d d0 6a da bd
       0.09964529 -0.0777612 0.076042 -0.10664904
000010 00 5e 82 3a f2 0f b9 3d 73 b9 d2 bc 28 3e 7d 3d
       0.0009946227 0.090362445 -0.025723195 0.061826855
000020 c0 b0 a0 bb 2a 74 89 3d 5c 53 55 bd 74 c5 e0 bd
       -0.0049038827 0.0671161 -0.05208145 -0.10975161
000030 b4 a1 8c 3d 84 4e a4 3d c0 4d 0d 3d 10 df 74 bd
       0.0686678 0.08022788 0.034497976 -0.05978304
000040 92 e4 d7 3d 4f e9 64 3d f3 af 92 bc 19 9d 1a bd
       0.10541643 0.055886563 -0.017906165 -0.037747476
000050 d0 ec b8 3b 5e 33 54 3c 48 14 ce bd 18 13 18 3d
       0.0056434646 0.0129517 -0.10062462 0.037127584
000060 5f 45 f3 3d 8d f9 94 3d 78 fe 33 bd 60 ac 7d 3d
       0.11878466 0.072741605 -0.043943852 0.061931968
000070 80 3c 38 bc 90 e0 d5 bd 90 47 4b 3d e0 d2 f8 bd
       -0.011244893 -0.104432225 0.049628794 -0.12149596

model.dense_nn.layers.6.weight f4 [16, 32]
000000 1a a6 b1 3c 19 5d 46 3d 68 54 79 bc 75 55 94 bd
       0.021685649 0.04842863 -0.015217878 -0.07242862
000010 95 cf 86 3c e5 99 86 3d 5c 91 01 be 98 c8 3a bd
       0.016456405 0.06572322 -0.12653106 -0.045601457
000020 aa da 19 be a2 0f 8d bd a3 48 a2 3d 83 14 0b 3e
       -0.1502482 -0.06887747 0.079240106 0.13582043
000030 e3 ac 2b be 4c fa 34 3e 26 09 bd bc 29 68 8f bd
       -0.1676517 0.17673606 -0.023075651 -0.07002289
000040 43 0d a6 bd f4 b1 c2 3d 8f 68 56 3d f7 20 dc bd
       -0.08107998 0.09506598 0.05234581 -0.10748475
000050 01 93 34 bd be 88 b9 3d 17 0a 2e 3e 1e 7b 1b 3e
       -0.044085506 0.090592846 0.16996036 0.15183684
000060 e5 d7 ea bd e4 58 cc bd 6a 16 13 bd c1 04 bc 3d
       -0.1146696 -0.09977892 -0.035910048 0.09180594
000070 d0 aa 13 3c ee e3 c6 bd dc 22 2c 3e 3a f3 32 be
       0.009012893 -0.09711443 0.16810173 -0.17475596
000080 08 c4 ff 3d 1e cd 2d 3d 63 72 bf 3d b2 22 0d 3e
       0.12488562 0.042431943 0.093479894 0.13782766
000090 73 f1 f9 bd ac 51 57 bc bd 6c 1e 3d 3b d0 f2 bd
       -0.12204256 -0.013142031 0.03867792 -0.11856123
0000a0 be 18 b6 3d 99 d1 10 3e 18 b6 16 3d 6a 79 b8 3d
       0.08891438 0.14142455 0.036794752 0.09007533
0000b0 ea 43 b1 3d fb 8d ea bd a1 a3 28 be 73 8b e6 bc
       0.08655532 -0.11452862 -0.1646867 -0.028142666
0000c0 2b 49 90 bd 63 cd 98 3c 65 38 04 be 78 e0 fd 3c
       -0.07045206 0.018652624 -0.12912138 0.030990824
0000d0 58 77 3e b9 9e c7 2a 3e 40 25 b2 3d 68 2d 01 3e
       -0.00018164271 0.1667771 0.08698511 0.12614977
0000e0 71 0c 5e 3d e0 97 d8 3d 42 07 62 bd 6d 4b 97 bd
       0.054211084 0.10575843 -0.055182703 -0.07387433
0000f0 77 15 89 3d e1 7d 06 be c5 a3 6e 3d 1a 88 e6 bd
       0.06693547 -0.13133956 0.05826165 -0.11256428
000100 47 21 6c 3d c0 76 64 bd e1 71 4c 3d 6f b0 ac bc
       0.057648923 -0.05577731 0.04991329 -0.021080224
000110 41 03 73 bb 82 fc 9d bc 56 ed a0 bd d0 e2 27 3e
       -0.0037080797 -0.019285444 -0.07857768 0.16395116
000120 e6 94 d5 bd 73 ec 47 3a 3f 43 e0 bd 3a c6 b3 bd
       -0.10428791 0.0007626481 -0.10950326 -0.08778043
000130 2d 4f 27 3e 8c a4 bb 3d ee 50 09 bd b0 11 26 be
       0.16338797 0.09162244 -0.033524446 -0.16217685
000140 0a 1e d8 3d a1 15 2e be e4 21 70 3c c0 d9 2f be
       0.105526045 -0.17000438 0.014656518 -0.17172909
000150 6b 6d e8 bd aa 2f 84 bc 08 5e af bc a5 e8 c9 bd
       -0.11348995 -0.01613601 -0.021407142 -0.098588265
000160 aa 77 db bd 1d a6 48 bd c7 c1 88 bb 3d c9 cf 3d
       -0.107161835 -0.048986543 -0.0041734907 0.10145805
000170 61 9c 05 be 3f f0 96 bd 7b 15 28 bd 61 48 33 3e
       -0.13047935 -0.07370042 -0.04103611 0.17508079
000180 86 6f 33 3e 59 96 c5 bd bb e0 bd 3d 16 f6 87 bd
       0.17523012 -0.09647817 0.092713796 -0.06638734
000190 c7 73 31 be a0 17 08 be 27 f6 2a be 78 c7 b5 3d
       -0.17329322 -0.13290262 -0.16695462 0.08875936
0001a0 21 97 de 3d f5 b2 0b 3e dd 76 10 be 7f 36 fd 3d
       0.10868669 0.13642485 -0.14107843 0.1236391
0001b0 1c fe df 3d 69 e9 2f 3e dc 0a c4 bd c3 bf 23 be
       0.109371394 0.17178883 -0.09572384 -0.1599112
0001c0 fe b2 92 3d ab 22 2f be c0 36 94 bd 82 e2 1d be
       0.07163046 -0.17103069 -0.07237005 -0.15418437
0001d0 0f 0e aa 3c 1e a8 ca bd 84 d2 31 bd 40 06 cf 3d
       0.020758657 -0.09895347 -0.043413654 0.10108614
0001e0 12 9b f7 bd df 77 ed bb 75 35 11 be 15 6e a7 3c
       -0.12090124 -0.0072469558 -0.14180548 0.020438233
0001f0 31 21 67 bd dc f2 2a 3e a7 32 e6 3d fb 7f cf 3b
       -0.05642814 0.16694206 0.1124013 0.006332395
000200 d6 90 b7 bd 75 c4 c2 bd be 2f 22 be 45 6a f5 3d
       -0.08963172 -0.095101275 -0.15838525 0.1198316
000210 08 fd 16 be da 88 31 3e fa 2f 1d bb 35 9f 16 be
       -0.14744961 0.17337361 -0.0023984895 -0.1470917
000220 2f e9 ae 3c eb d3 e4 3d 5c a0 07 3e ae 14 2b be
       0.021351425 0.11173233 0.13244766 -0.16707107
000230 0c 00 1a be 8e 6c c3 bd 25 85 0f 3e 32 91 ad bd
       -0.1503908 -0.095421895 0.14015634 -0.084749594
000240 65 62 63 3d 39 ca 27 bb ae 9f 18 bd 4d 53 1c be
       0.05551376 -0.0025602712 -0.037261657 -0.15266152
000250 87 28 04 be 4d 27 4e 3d ff ab 8c bd b9 7b d6 bd
       -0.12906085 0.05033045 -0.06868743 -0.10472817
000260 9e fc 11 3e ae ef d5 bd 96 36 c9 3c 22 1b 0a bd
       0.14256522 -0.10446106 0.024562161 -0.033717282
000270 b6 5b 09 3e 5a d2 2f 3d 12 5e 30 3e 33 08 2c be
       0.13413891 0.042925216 0.17223385 -0.16800003
000280 65 25 a3 3d c3 e4 94 bd 26 2c 2f 3e e6 05 de 3d
       0.07966117 -0.07270195 0.17106685 0.10840969
000290 b7 42 d6 3c 55 b3 c1 bb e3 77 d5 3d 5d 3c 4f 3d
       0.026154859 -0.0059112706 0.10423257 0.050594676
0002a0 ef df c1 3d 07 13 b6 3d b8 c4 1f 3e 85 53 45 bb
       0.0946654 0.08890348 0.15602386 -0.0030109596
0002b0 ad ff 26 bd f9 db 29 bd b1 a3 a9 bd ea 94 82 bd
       -0.040771175 -0.041469548 -0.08283175 -0.06376059
0002c0 74 1e 99 3d 87 1b 78 bd 08 82 01 3e b2 f9 91 bd
       0.074765116 -0.060573127 0.12647259 -0.07127704
0002d0 fa 28 fb bd c2 6d 12 bc f2 fc 33 3e ac 03 06 3d
       -0.12263675 -0.008937301 0.1757696 0.032718346
0002e0 58 57 19 3e de bb df bd 3e 68 15 bd cc c2 01 3e
       0.14974725 -0.10924505 -0.036476366 0.12671965
0002f0 a6 f5 0c be aa 5c 0f be de f8 03 3e 4c fc 80 bd
       -0.13765582 -0.14000192 0.12887904 -0.06298122
000300 53 84 62 3d 55 89 2c 3e 22 7a 02 bc e6 5a 42 bd
       0.055301975 0.16849263 -0.007963689 -0.04744997
000310 bb 78 bf bc 4f 05 c4 bd 93 ba 01 3e 57 f9 29 be
       -0.023372998 -0.09571325 0.12668829 -0.16599022
000320 0d 8e 09 bd fc 50 d6 3d 27 fb e2 bd 73 a1 27 bb
       -0.033582736 0.10464665 -0.1108306 -0.002557841
000330 2a 90 db 3d 57 ce ba bc 12 c3 d7 3d c2 f1 0d 3e
       0.107208565 -0.022803469 0.105352536 0.13861755
000340 da 53 3b 3d c9 92 79 3b 7a 3c a4 bd e7 a2 04 bd
       0.045734264 0.0038081876 -0.080193475 -0.03238192
000350 7f a7 7e 3d 3c 3d 96 bd 04 ca 10 3e a4 9d a0 bc
       0.062171455 -0.07335898 0.14139563 -0.019606419
000360 5d c7 82 3d bf 3e 81 bd 92 e4 5c bb 01 d0 ee 3d
       0.06385682 -0.06310796 -0.0033705574 0.11660767
000370 80 3f 1b be 39 47 0a bd bd 2f af 3d 3c bd 12 3e
       -0.15160942 -0.03375933 0.08554027 0.1433
000380 9c f9 82 3d 2c 9f d4 bc 1f f9 ad 3d 57 ce e5 3d
       0.063952655 -0.025954805 0.08494782 0.11220997
000390 d7 c4 c6 bd e4 f2 eb 3d 5f 62 13 be 85 57 f5 3d
       -0.09705513 0.11520937 -0.14392994 0.11979584
0003a0 de 76 51 3d 56 b2 6f 3d aa 7f 2d 3e bf 5a d1 3d
       0.05113875 0.058519684 0.16943231 0.102223866
0003b0 54 ad 0d bd d4 36 14 3e 3f 23 ac 3c 8b ab cd bc
       -0.034589127 0.1447404 0.0210129 -0.025106212
0003c0 20 22 87 bd 91 22 19 3e ed 18 0a be 90 61 ea 3d
       -0.06598306 0.14954592 -0.13486071 0.1144439
0003d0 36 b5 9d 3d c2 fa cd bd 83 fd 6d 3d 91 6c da bd
       0.07700579 -0.10057594 0.058103096 -0.10665239
0003e0 ea a5 2e be 7b 7b d5 3d 04 22 26 bd c1 f2 d5 3d
       -0.17055479 0.10423943 -0.040559784 0.10446692
0003f0 47 5c 07 3e 5e 0b c0 3c 3c ff 1b 3e e5 05 34 3e
       0.13218795 0.02344292 0.15234083 0.17580374

model.dense_nn.layers.6.bias f4 [16]
000000 b5 1e 23 3e ad 54 1e bd 2c 08 bc 3d 09 e2 fd bd
       0.15929683 -0.038654972 0.09181246 -0.123966284
000010 a5 8f c3 3d 91 11 25 be 4b 34 10 be c7 39 cf 3d
       0.095488824 -0.16119982 -0.14082448 0.10118442
000020 77 6c ca bd 96 f5 c3 bd c2 61 fd 3c 9a 29 22 3e
       -0.09883969 -0.09568326 0.030930404 0.15836182
000030 ec cb 27 be f9 9f 11 be 56 64 b6 ba 49 91 1c 3e
       -0.16386384 -0.14221181 -0.00139154 0.15289797

model.dense_nn.layers.7.weight f4 [1, 16]
000000 e6 ab d2 bd 7f 86 09 3d dc 8d b2 3d 1e 7c 0a be
       -0.10286693 0.03357553 0.08718464 -0.1352391
000010 b4 ba 16 3e 13 8e 0b 3e e7 42 44 be 19 ff ce 3d
       0.14719659 0.13628416 -0.19166146 0.1010725
000020 70 9e 26 be 1d b8 25 3c 66 8a 50 3e 0a 37 4e be
       -0.16271377 0.010114697 0.20365295 -0.20138183
000030 77 43 14 be 76 df 0f bd c6 9c 2a 3e 06 59 d4 bd
       -0.14478861 -0.03512522 0.16661367 -0.103685424

model.linear_residual.weight f4 [1, 2]
000000 94 ea e7 3c 77 58 cb be
       0.028310098 -0.3971593

exp_avg f4 [64, 2]
000000 66 04 e2 bf 9a 78 8d bc 00 00 00 00 00 00 00 00
       -1.7657592 -0.017269421 0.0 0.0
000010 00 00 00 00 00 00 00 00 51 5e a5 3e a6 3f 46 3b
       0.0 0.0 0.3229852 0.003025034
000020 48 8f c8 bf ab 88 80 bc 00 00 00 00 00 00 00 00
       -1.5668726 -0.015690168 0.0 0.0
000030 e7 82 fd bf e0 8b a1 bc 00 00 00 00 00 00 00 00
       -1.9805573 -0.019720018 0.0 0.0
000040 96 93 8b be f1 a0 2d bb 00 00 00 00 00 00 00 00
       -0.27261037 -0.0026493634 0.0 0.0
000050 00 00 00 00 00 00 00 00 70 89 90 bf 48 d3 36 bc
       0.0 0.0 -1.1291943 -0.011158772
000060 00 00 00 00 00 00 00 00 00 00 00 00 00 00 00 00
       0.0 0.0 0.0 0.0
000070 00 00 00 00 00 00 00 00 ff 43 1b 3e 50 27 db 3a
       0.0 0.0 0.15162657 0.001672009
000080 00 00 00 00 00 00 00 00 3b 32 89 bf b8 0f 30 bc
       0.0 0.0 -1.0718454 -0.010745935
000090 00 00 00 00 00 00 00 00 00 00 00 00 00 00 00 00
       0.0 0.0 0.0 0.0
0000a0 00 00 00 00 00 00 00 00 fe 1a b8 3f 32 a2 69 3c
       0.0 0.0 1.4383237 0.014259862
0000b0 00 00 00 00 00 00 00 00 29 32 68 3f 6b 64 15 3c
       0.0 0.0 0.9070154 0.00911818
0000c0 30 f5 59 bf b6 f3 0a bc 1f 66 be 3f 26 bf 72 3c
       -0.8513975 -0.008480957 1.4874915 0.014816081
0000d0 28 c5 ff bf d5 bb a2 bc 00 00 00 00 00 00 00 00
       -1.9982042 -0.019864956 0.0 0.0
0000e0 02 f3 98 3f c4 20 43 3c 00 00 00 00 00 00 00 00
       1.194916 0.011909667 0.0 0.0
0000f0 00 00 00 00 00 00 00 00 01 f2 04 3f 4c 25 a6 3b
       0.0 0.0 0.5193177 0.005070364
000100 f8 42 d4 bf 67 9f 87 bc f9 78 da 3f 42 b1 8a 3c
       -1.6582937 -0.016555501 1.7068168 0.016930226
000110 00 00 00 00 00 00 00 00 00 00 00 00 00 00 00 00
       0.0 0.0 0.0 0.0
000120 00 00 00 00 00 00 00 00 00 00 00 00 00 00 00 00
       0.0 0.0 0.0 0.0
000130 43 1d 3d 3e 09 31 e3 3a 7c 37 ce bc cb 1a 78 b9
       0.18468194 0.0017333339 -0.025172941 -0.00023661104
000140 e6 d5 98 bf 66 19 43 bc e3 04 93 3f a2 70 3b 3c
       -1.1940277 -0.011907911 1.1485866 0.011440428
000150 a2 ce 89 bf 3c 25 30 bc 55 2a 0b 3f 88 6c ad 3b
       -1.0766184 -0.010751065 0.5436147 0.005292479
000160 53 53 2e bf aa 7c df bb 98 7b 80 3f d8 c0 26 3c
       -0.6809589 -0.006820281 1.0037718 0.0101778135
000170 00 00 00 00 00 00 00 00 6f 8a 70 3e 76 de 19 3b
       0.0 0.0 0.23490308 0.0023478544
000180 00 00 00 00 00 00 00 00 87 e1 bd 3e bd ab 74 3b
       0.0 0.0 0.37086126 0.003733381
000190 ea 24 03 3e 56 1c a1 3a 31 46 a3 3e c5 49 57 3b
       0.1280705 0.001229177 0.3188949 0.0032850367
0001a0 00 00 00 00 00 00 00 00 00 00 00 00 00 00 00 00
       0.0 0.0 0.0 0.0
0001b0 0d 75 19 40 4f 85 c1 3c da 93 31 3e 67 2f e7 3a
       2.3977692 0.023623137 0.17341557 0.0017638028
0001c0 00 00 00 00 00 00 00 00 82 04 01 40 d4 14 a3 3c
       0.0 0.0 2.0159001 0.019907393
0001d0 00 00 00 00 00 00 00 00 d8 99 d5 be 88 5d 88 bb
       0.0 0.0 -0.41718936 -0.0041615404
0001e0 68 1c 40 3f 58 b6 f2 3b 00 00 00 00 00 00 00 00
       0.75043344 0.007406991 0.0 0.0
0001f0 04 c2 ec 3e 55 1f 93 3b 00 00 00 00 00 00 00 00
       0.46241772 0.004489819 0.0 0.0

exp_avg_sq f4 [64, 2]
000000 86 b5 ec 3d c1 55 35 37 00 00 00 00 00 00 00 00
       0.1155806 1.0808407e-05 0.0 0.0
000010 00 00 00 00 00 00 00 00 55 cd f2 3b fb 77 25 35
       0.0 0.0 0.0074097314 6.1641884e-07
000020 51 51 95 3d a0 52 f9 36 00 00 00 00 00 00 00 00
       0.072909005 7.430397e-06 0.0 0.0
000030 02 88 ea 3d df 0c 40 37 00 00 00 00 00 00 00 00
       0.11451723 1.1447089e-05 0.0 0.0
000040 3c b2 2d 3b b4 42 85 34 00 00 00 00 00 00 00 00
       0.002650394 2.4821713e-07 0.0 0.0
000050 00 00 00 00 00 00 00 00 bd 9d 26 3d 01 f5 82 36
       0.0 0.0 0.040677775 3.902824e-06
000060 00 00 00 00 00 00 00 00 00 00 00 00 00 00 00 00
       0.0 0.0 0.0 0.0
000070 00 00 00 00 00 00 00 00 31 32 52 3a 54 98 b4 33
       0.0 0.0 0.00080183434 8.4096115e-08
000080 00 00 00 00 00 00 00 00 f4 56 0a 3d 27 eb 67 36
       0.0 0.0 0.03377433 3.455856e-06
000090 00 00 00 00 00 00 00 00 00 00 00 00 00 00 00 00
       0.0 0.0 0.0 0.0
0000a0 00 00 00 00 00 00 00 00 6d ef 97 3d 45 a3 f6 36
       0.0 0.0 0.07418714 7.3503784e-06
0000b0 00 00 00 00 00 00 00 00 f3 c8 e0 3c b6 d4 3f 36
       0.0 0.0 0.02743957 2.8585032e-06
0000c0 78 d7 97 3c 78 3a f6 35 93 89 93 3d ec 9b f2 36
       0.01853536 1.8345445e-06 0.072039746 7.2303137e-06
0000d0 92 cb 05 3e 70 ff 58 37 00 00 00 00 00 00 00 00
       0.13065937 1.2934077e-05 0.0 0.0
0000e0 46 c0 34 3d e1 90 96 36 00 00 00 00 00 00 00 00
       0.04412868 4.4872145e-06 0.0 0.0
0000f0 00 00 00 00 00 00 00 00 09 4e 14 3c 3a 68 62 35
       0.0 0.0 0.009051808 8.434323e-07
000100 7d 30 aa 3d e9 84 0e 37 da 55 e8 3d a5 0e 3b 37
       0.0831003 8.494805e-06 0.113445 1.1149478e-05
000110 00 00 00 00 00 00 00 00 00 00 00 00 00 00 00 00
       0.0 0.0 0.0 0.0
000120 00 00 00 00 00 00 00 00 00 00 00 00 00 00 00 00
       0.0 0.0 0.0 0.0
000130 17 f3 cc 3a 47 5c 05 34 39 aa a8 3a 59 25 15 34
       0.0015636411 1.242016e-07 0.0012868113 1.3890293e-07
000140 ef c7 3e 3d eb 64 9c 36 20 06 44 3d c0 48 9f 36
       0.04657739 4.6609107e-06 0.047857404 4.7470385e-06
000150 77 5f 16 3d 94 e5 77 36 93 aa 78 3c 8d 17 ba 35
       0.036712136 3.69395e-06 0.015177387 1.3864934e-06
000160 64 9b 3f 3c 06 b7 a0 35 42 f4 1e 3d 7d ad 8a 36
       0.011694763 1.1974196e-06 0.03880716 4.132917e-06
000170 00 00 00 00 00 00 00 00 3f 23 a7 3b c1 76 0c 35
       0.0 0.0 0.005100637 5.2326874e-07
000180 00 00 00 00 00 00 00 00 02 66 bf 3b 6a 76 24 35
       0.0 0.0 0.0058410177 6.1267076e-07
000190 d5 d5 31 3a 80 d7 62 33 70 cc 90 3b 17 9a 07 35
       0.00067838776 5.281572e-08 0.004418902 5.051565e-07
0001a0 00 00 00 00 00 00 00 00 00 00 00 00 00 00 00 00
       0.0 0.0 0.0 0.0
0001b0 77 4f 53 3e 2c 10 a5 37 d2 4a 32 3a 74 f5 a3 33
       0.20635782 1.9677063e-05 0.000680131 7.634927e-08
0001c0 00 00 00 00 00 00 00 00 e5 75 11 3e e4 ff 65 37
       0.0 0.0 0.1420513 1.3709043e-05
0001d0 00 00 00 00 00 00 00 00 ba ff 76 3b 1e b4 c8 34
       0.0 0.0 0.0037689046 3.7383955e-07
0001e0 f2 d0 04 3d 43 d4 50 36 00 00 00 00 00 00 00 00
       0.03242583 3.1117968e-06 0.0 0.0
0001f0 b3 63 52 3c d7 dd 9e 35 00 00 00 00 00 00 00 00
       0.012841153 1.1836481e-06 0.0 0.0

exp_avg f4 [64]
000000 62 af 0b bd 00 00 00 00 00 00 00 00 12 32 cc 3b
       -0.034102805 0.0 0.0 0.006231555
000010 9c 1a f8 bc 00 00 00 00 97 c2 1c bd 00 00 00 00
       -0.030286126 0.0 -0.038271513 0.0
000020 ce 5f ac bb 00 00 00 00 00 00 00 00 56 c5 b2 bc
       -0.0052604442 0.0 0.0 -0.021822613
000030 00 00 00 00 00 00 00 00 00 00 00 00 43 39 40 3b
       0.0 0.0 0.0 0.0029331006
000040 00 00 00 00 f7 b9 a9 bc 00 00 00 00 00 00 00 00
       0.0 -0.020718558 0.0 0.0
000050 00 00 00 00 aa 9f e3 3c 00 00 00 00 39 9e 8f 3c
       0.0 0.027786095 0.0 0.017531501
000060 ce d2 86 bc bc 77 eb 3c 18 2c 1e bd 00 00 00 00
       -0.016457941 0.028743617 -0.03861627 0.0
000070 0a 19 bd 3c 00 00 00 00 00 00 00 00 c0 4b 24 3c
       0.023083229 0.0 0.0 0.010027826
000080 f0 38 03 bd b4 18 07 3d 00 00 00 00 00 00 00 00
       -0.03203672 0.032982543 0.0 0.0
000090 00 00 00 00 00 00 00 00 e4 89 69 3b 53 4c 00 ba
       0.0 0.0 0.0035635168 -0.00048941857
0000a0 7e 0e bd bc 61 e0 b5 3c c3 78 aa bc ba 0d 2c 3c
       -0.0230782 0.022201719 -0.020809537 0.01050132
0000b0 82 9a 57 bc cf 05 9f 3c 00 00 00 00 2e b5 94 3b
       -0.013159396 0.01941195 0.0 0.0045382
0000c0 00 00 00 00 05 e1 ea 3b 0e 92 22 3b c0 21 ca 3b
       0.0 0.0071679377 0.0024806294 0.006168574
0000d0 00 00 00 00 00 00 00 00 eb c2 3d 3d c3 45 5b 3b
       0.0 0.0 0.046328466 0.003345833
0000e0 00 00 00 00 a7 89 1f 3d 00 00 00 00 fb 24 04 bc
       0.0 0.038949635 0.0 -0.008065457
0000f0 0a 9f 6d 3c 00 00 00 00 79 4d 12 3c 00 00 00 00
       0.01450325 0.0 0.008929604 0.0

exp_avg_sq f4 [64]
000000 25 d6 34 38 00 00 00 00 00 00 00 00 2b ad 38 36
       4.3114782e-05 0.0 0.0 2.7518934e-06
000010 99 b7 e4 37 00 00 00 00 b7 7f 33 38 00 00 00 00
       2.7265212e-05 0.0 4.279587e-05 0.0
000020 15 ba 84 35 00 00 00 00 00 00 00 00 54 df 7e 37
       9.888923e-07 0.0 0.0 1.5191577e-05
000030 00 00 00 00 00 00 00 00 00 00 00 00 9d 38 9e 34
       0.0 0.0 0.0 2.9470985e-07
000040 00 00 00 00 84 e8 53 37 00 00 00 00 00 00 00 00
       0.0 1.2630717e-05 0.0 0.0
000050 00 00 00 00 9e 90 e8 37 00 00 00 00 40 4c 2c 37
       0.0 2.7723898e-05 0.0 1.0269752e-05
000060 9d 6e e8 36 20 eb e1 37 38 d0 4c 38 00 00 00 00
       6.927016e-06 2.6931579e-05 4.883131e-05 0.0
000070 7d 63 8a 37 00 00 00 00 00 00 00 00 20 7e 62 36
       1.649721e-05 0.0 0.0 3.3750039e-06
000080 b8 4e 02 38 8c cf 31 38 00 00 00 00 00 00 00 00
       3.1067728e-05 4.239338e-05 0.0 0.0
000090 00 00 00 00 00 00 00 00 63 16 1c 35 e2 92 01 35
       0.0 0.0 5.8147106e-07 4.826999e-07
0000a0 5b 11 92 37 8c 11 96 37 97 4b 66 37 71 e1 bd 36
       1.7412638e-05 1.7889564e-05 1.3726668e-05 5.6588838e-06
0000b0 34 af 92 36 21 e1 73 37 00 00 00 00 82 1d 00 36
       4.3715354e-06 1.4536346e-05 0.0 1.9090662e-06
0000c0 00 00 00 00 96 b5 12 36 ff 5d 87 34 3d 99 de 35
       0.0 2.1861392e-06 2.52141e-07 1.6584887e-06
0000d0 00 00 00 00 00 00 00 00 e2 8e a1 38 61 fd 87 34
       0.0 0.0 7.703692e-05 2.5330067e-07
0000e0 00 00 00 00 2e 80 5e 38 00 00 00 00 53 05 bd 35
       0.0 5.30483e-05 0.0 1.4083147e-06
0000f0 af 2b 4b 37 00 00 00 00 66 be a0 36 00 00 00 00
       1.2109914e-05 0.0 4.790537e-06 0.0

exp_avg f4 [64, 64]
000000 00 00 00 00 00 00 00 00 00 00 00 00 00 00 00 00
       0.0 0.0 0.0 0.0
000010 00 00 00 00 00 00 00 00 00 00 00 00 00 00 00 00
       0.0 0.0 0.0 0.0
000020 00 00 00 00 00 00 00 00 00 00 00 00 00 00 00 00
       0.0 0.0 0.0 0.0
000030 00 00 00 00 00 00 00 00 00 00 00 00 00 00 00 00
       0.0 0.0 0.0 0.0
000040 00 00 00 00 00 00 00 00 00 00 00 00 00 00 00 00
       0.0 0.0 0.0 0.0
000050 00 00 00 00 00 00 00 00 00 00 00 00 00 00 00 00
       0.0 0.0 0.0 0.0
000060 00 00 00 00 00 00 00 00 00 00 00 00 00 00 00 00
       0.0 0.0 0.0 0.0
000070 00 00 00 00 00 00 00 00 00 00 00 00 00 00 00 00
       0.0 0.0 0.0 0.0
000080 00 00 00 00 00 00 00 00 00 00 00 00 00 00 00 00
       0.0 0.0 0.0 0.0
000090 00 00 00 00 00 00 00 00 00 00 00 00 00 00 00 00
       0.0 0.0 0.0 0.0
0000a0 00 00 00 00 00 00 00 00 00 00 00 00 00 00 00 00
       0.0 0.0 0.0 0.0
0000b0 00 00 00 00 00 00 00 00 00 00 00 00 00 00 00 00
       0.0 0.0 0.0 0.0
0000c0 00 00 00 00 00 00 00 00 00 00 00 00 00 00 00 00
       0.0 0.0 0.0 0.0
0000d0 00 00 00 00 00 00 00 00 00 00 00 00 00 00 00 00
       0.0 0.0 0.0 0.0
0000e0 00 00 00 00 00 00 00 00 00 00 00 00 00 00 00 00
       0.0 0.0 0.0 0.0
0000f0 00 00 00 00 00 00 00 00 00 00 00 00 00 00 00 00
       0.0 0.0 0.0 0.0
000100 00 00 00 00 00 00 00 00 00 00 00 00 00 00 00 00
       0.0 0.0 0.0 0.0
000110 00 00 00 00 00 00 00 00 00 00 00 00 00 00 00 00
       0.0 0.0 0.0 0.0
000120 00 00 00 00 00 00 00 00 00 00 00 00 00 00 00 00
       0.0 0.0 0.0 0.0
000130 00 00 00 00 00 00 00 00 00 00 00 00 00 00 00 00
       0.0 0.0 0.0 0.0
000140 00 00 00 00 00 00 00 00 00 00 00 00 00 00 00 00
       0.0 0.0 0.0 0.0
000150 00 00 00 00 00 00 00 00 00 00 00 00 00 00 00 00
       0.0 0.0 0.0 0.0
000160 00 00 00 00 00 00 00 00 00 00 00 00 00 00 00 00
       0.0 0.0 0.0 0.0
000170 00 00 00 00 00 00 00 00 00 00 00 00 00 00 00 00
       0.0 0.0 0.0 0.0
000180 00 00 00 00 00 00 00 00 00 00 00 00 00 00 00 00
       0.0 0.0 0.0 0.0
000190 00 00 00 00 00 00 00 00 00 00 00 00 00 00 00 00
       0.0 0.0 0.0 0.0
0001a0 00 00 00 00 00 00 00 00 00 00 00 00 00 00 00 00
       0.0 0.0 0.0 0.0
0001b0 00 00 00 00 00 00 00 00 00 00 00 00 00 00 00 00
       0.0 0.0 0.0 0.0
0001c0 00 00 00 00 00 00 00 00 00 00 00 00 00 00 00 00
       0.0 0.0 0.0 0.0
0001d0 00 00 00 00 00 00 00 00 00 00 00 00 00 00 00 00
       0.0 0.0 0.0 0.0
0001e0 00 00 00 00 00 00 00 00 00 00 00 00 00 00 00 00
       0.0 0.0 0.0 0.0
0001f0 00 00 00 00 00 00 00 00 00 00 00 00 00 00 00 00
       0.0 0.0 0.0 0.0
000200 00 00 00 00 00 00 00 00 00 00 00 00 00 00 00 00
       0.0 0.0 0.0 0.0
000210 00 00 00 00 00 00 00 00 00 00 00 00 00 00 00 00
       0.0 0.0 0.0 0.0
000220 00 00 00 00 00 00 00 00 00 00 00 00 00 00 00 00
       0.0 0.0 0.0 0.0
000230 00 00 00 00 00 00 00 00 00 00 00 00 00 00 00 00
       0.0 0.0 0.0 0.0
000240 00 00 00 00 00 00 00 00 00 00 00 00 00 00 00 00
       0.0 0.0 0.0 0.0
000250 00 00 00 00 00 00 00 00 00 00 00 00 00 00 00 00
       0.0 0.0 0.0 0.0
000260 00 00 00 00 00 00 00 00 00 00 00 00 00 00 00 00
       0.0 0.0 0.0 0.0
000270 00 00 00 00 00 00 00 00 00 00 00 00 00 00 00 00
       0.0 0.0 0.0 0.0
000280 00 00 00 00 00 00 00 00 00 00 00 00 00 00 00 00
       0.0 0.0 0.0 0.0
000290 00 00 00 00 00 00 00 00 00 00 00 00 00 00 00 00
       0.0 0.0 0.0 0.0
0002a0 00 00 00 00 00 00 00 00 00 00 00 00 00 00 00 00
       0.0 0.0 0.0 0.0
0002b0 00 00 00 00 00 00 00 00 00 00 00 00 00 00 00 00
       0.0 0.0 0.0 0.0
0002c0 00 00 00 00 00 00 00 00 00 00 00 00 00 00 00 00
       0.0 0.0 0.0 0.0
0002d0 00 00 00 00 00 00 00 00 00 00 00 00 00 00 00 00
       0.0 0.0 0.0 0.0
0002e0 00 00 00 00 00 00 00 00 00 00 00 00 00 00 00 00
       0.0 0.0 0.0 0.0
0002f0 00 00 00 00 00 00 00 00 00 00 00 00 00 00 00 00
       0.0 0.0 0.0 0.0
000300 00 00 00 00 00 00 00 00 00 00 00 00 00 00 00 00
       0.0 0.0 0.0 0.0
000310 00 00 00 00 00 00 00 00 00 00 00 00 00 00 00 00
       0.0 0.0 0.0 0.0
000320 00 00 00 00 00 00 00 00 00 00 00 00 00 00 00 00
       0.0 0.0 0.0 0.0
000330 00 00 00 00 00 00 00 00 00 00 00 00 00 00 00 00
       0.0 0.0 0.0 0.0
000340 00 00 00 00 00 00 00 00 00 00 00 00 00 00 00 00
       0.0 0.0 0.0 0.0
000350 00 00 00 00 00 00 00 00 00 00 00 00 00 00 00 00
       0.0 0.0 0.0 0.0
000360 00 00 00 00 00 00 00 00 00 00 00 00 00 00 00 00
       0.0 0.0 0.0 0.0
000370 00 00 00 00 00 00 00 00 00 00 00 00 00 00 00 00
       0.0 0.0 0.0 0.0
000380 00 00 00 00 00 00 00 00 00 00 00 00 00 00 00 00
       0.0 0.0 0.0 0.0
000390 00 00 00 00 00 00 00 00 00 00 00 00 00 00 00 00
       0.0 0.0 0.0 0.0
0003a0 00 00 00 00 00 00 00 00 00 00 00 00 00 00 00 00
       0.0 0.0 0.0 0.0
0003b0 00 00 00 00 00 00 00 00 00 00 00 00 00 00 00 00
       0.0 0.0 0.0 0.0
0003c0 00 00 00 00 00 00 00 00 00 00 00 00 00 00 00 00
       0.0 0.0 0.0 0.0
0003d0 00 00 00 00 00 00 00 00 00 00 00 00 00 00 00 00
       0.0 0.0 0.0 0.0
0003e0 00 00 00 00 00 00 00 00 00 00 00 00 00 00 00 00
       0.0 0.0 0.0 0.0
0003f0 00 00 00 00 00 00 00 00 00 00 00 00 00 00 00 00
       0.0 0.0 0.0 0.0

exp_avg_sq f4 [64, 64]
000000 00 00 00 00 00 00 00 00 00 00 00 00 00 00 00 00
       0.0 0.0 0.0 0.0
000010 00 00 00 00 00 00 00 00 00 00 00 00 00 00 00 00
       0.0 0.0 0.0 0.0
000020 00 00 00 00 00 00 00 00 00 00 00 00 00 00 00 00
       0.0 0.0 0.0 0.0
000030 00 00 00 00 00 00 00 00 00 00 00 00 00 00 00 00
       0.0 0.0 0.0 0.0
000040 00 00 00 00 00 00 00 00 00 00 00 00 00 00 00 00
       0.0 0.0 0.0 0.0
000050 00 00 00 00 00 00 00 00 00 00 00 00 00 00 00 00
       0.0 0.0 0.0 0.0
000060 00 00 00 00 00 00 00 00 00 00 00 00 00 00 00 00
       0.0 0.0 0.0 0.0
000070 00 00 00 00 00 00 00 00 00 00 00 00 00 00 00 00
       0.0 0.0 0.0 0.0
000080 00 00 00 00 00 00 00 00 00 00 00 00 00 00 00 00
       0.0 0.0 0.0 0.0
000090 00 00 00 00 00 00 00 00 00 00 00 00 00 00 00 00
       0.0 0.0 0.0 0.0
0000a0 00 00 00 00 00 00 00 00 00 00 00 00 00 00 00 00
       0.0 0.0 0.0 0.0
0000b0 00 00 00 00 00 00 00 00 00 00 00 00 00 00 00 00
       0.0 0.0 0.0 0.0
0000c0 00 00 00 00 00 00 00 00 00 00 00 00 00 00 00 00
       0.0 0.0 0.0 0.0
0000d0 00 00 00 00 00 00 00 00 00 00 00 00 00 00 00 00
       0.0 0.0 0.0 0.0
0000e0 00 00 00 00 00 00 00 00 00 00 00 00 00 00 00 00
       0.0 0.0 0.0 0.0
0000f0 00 00 00 00 00 00 00 00 00 00 00 00 00 00 00 00
       0.0 0.0 0.0 0.0
000100 00 00 00 00 00 00 00 00 00 00 00 00 00 00 00 00
       0.0 0.0 0.0 0.0
000110 00 00 00 00 00 00 00 00 00 00 00 00 00 00 00 00
       0.0 0.0 0.0 0.0
000120 00 00 00 00 00 00 00 00 00 00 00 00 00 00 00 00
       0.0 0.0 0.0 0.0
000130 00 00 00 00 00 00 00 00 00 00 00 00 00 00 00 00
       0.0 0.0 0.0 0.0
000140 00 00 00 00 00 00 00 00 00 00 00 00 00 00 00 00
       0.0 0.0 0.0 0.0
000150 00 00 00 00 00 00 00 00 00 00 00 00 00 00 00 00
       0.0 0.0 0.0 0.0
000160 00 00 00 00 00 00 00 00 00 00 00 00 00 00 00 00
       0.0 0.0 0.0 0.0
000170 00 00 00 00 00 00 00 00 00 00 00 00 00 00 00 00
       0.0 0.0 0.0 0.0
000180 00 00 00 00 00 00 00 00 00 00 00 00 00 00 00 00
       0.0 0.0 0.0 0.0
000190 00 00 00 00 00 00 00 00 00 00 00 00 00 00 00 00
       0.0 0.0 0.0 0.0
0001a0 00 00 00 00 00 00 00 00 00 00 00 00 00 00 00 00
       0.0 0.0 0.0 0.0
0001b0 00 00 00 00 00 00 00 00 00 00 00 00 00 00 00 00
       0.0 0.0 0.0 0.0
0001c0 00 00 00 00 00 00 00 00 00 00 00 00 00 00 00 00
       0.0 0.0 0.0 0.0
0001d0 00 00 00 00 00 00 00 00 00 00 00 00 00 00 00 00
       0.0 0.0 0.0 0.0
0001e0 00 00 00 00 00 00 00 00 00 00 00 00 00 00 00 00
       0.0 0.0 0.0 0.0
0001f0 00 00 00 00 00 00 00 00 00 00 00 00 00 00 00 00
       0.0 0.0 0.0 0.0
000200 00 00 00 00 00 00 00 00 00 00 00 00 00 00 00 00
       0.0 0.0 0.0 0.0
000210 00 00 00 00 00 00 00 00 00 00 00 00 00 00 00 00
       0.0 0.0 0.0 0.0
000220 00 00 00 00 00 00 00 00 00 00 00 00 00 00 00 00
       0.0 0.0 0.0 0.0
000230 00 00 00 00 00 00 00 00 00 00 00 00 00 00 00 00
       0.0 0.0 0.0 0.0
000240 00 00 00 00 00 00 00 00 00 00 00 00 00 00 00 00
       0.0 0.0 0.0 0.0
000250 00 00 00 00 00 00 00 00 00 00 00 00 00 00 00 00
       0.0 0.0 0.0 0.0
000260 00 00 00 00 00 00 00 00 00 00 00 00 00 00 00 00
       0.0 0.0 0.0 0.0
000270 00 00 00 00 00 00 00 00 00 00 00 00 00 00 00 00
       0.0 0.0 0.0 0.0
000280 00 00 00 00 00 00 00 00 00 00 00 00 00 00 00 00
       0.0 0.0 0.0 0.0
000290 00 00 00 00 00 00 00 00 00 00 00 00 00 00 00 00
       0.0 0.0 0.0 0.0
0002a0 00 00 00 00 00 00 00 00 00 00 00 00 00 00 00 00
       0.0 0.0 0.0 0.0
0002b0 00 00 00 00 00 00 00 00 00 00 00 00 00 00 00 00
       0.0 0.0 0.0 0.0
0002c0 00 00 00 00 00 00 00 00 00 00 00 00 00 00 00 00
       0.0 0.0 0.0 0.0
0002d0 00 00 00 00 00 00 00 00 00 00 00 00 00 00 00 00
       0.0 0.0 0.0 0.0
0002e0 00 00 00 00 00 00 00 00 00 00 00 00 00 00 00 00
       0.0 0.0 0.0 0.0
0002f0 00 00 00 00 00 00 00 00 00 00 00 00 00 00 00 00
       0.0 0.0 0.0 0.0
000300 00 00 00 00 00 00 00 00 00 00 00 00 00 00 00 00
       0.0 0.0 0.0 0.0
000310 00 00 00 00 00 00 00 00 00 00 00 00 00 00 00 00
       0.0 0.0 0.0 0.0
000320 00 00 00 00 00 00 00 00 00 00 00 00 00 00 00 00
       0.0 0.0 0.0 0.0
000330 00 00 00 00 00 00 00 00 00 00 00 00 00 00 00 00
       0.0 0.0 0.0 0.0
000340 00 00 00 00 00 00 00 00 00 00 00 00 00 00 00 00
       0.0 0.0 0.0 0.0
000350 00 00 00 00 00 00 00 00 00 00 00 00 00 00 00 00
       0.0 0.0 0.0 0.0
000360 00 00 00 00 00 00 00 00 00 00 00 00 00 00 00 00
       0.0 0.0 0.0 0.0
000370 00 00 00 00 00 00 00 00 00 00 00 00 00 00 00 00
       0.0 0.0 0.0 0.0
000380 00 00 00 00 00 00 00 00 00 00 00 00 00 00 00 00
       0.0 0.0 0.0 0.0
000390 00 00 00 00 00 00 00 00 00 00 00 00 00 00 00 00
       0.0 0.0 0.0 0.0
0003a0 00 00 00 00 00 00 00 00 00 00 00 00 00 00 00 00
       0.0 0.0 0.0 0.0
0003b0 00 00 00 00 00 00 00 00 00 00 00 00 00 00 00 00
       0.0 0.0 0.0 0.0
0003c0 00 00 00 00 00 00 00 00 00 00 00 00 00 00 00 00
       0.0 0.0 0.0 0.0
0003d0 00 00 00 00 00 00 00 00 00 00 00 00 00 00 00 00
       0.0 0.0 0.0 0.0
0003e0 00 00 00 00 00 00 00 00 00 00 00 00 00 00 00 00
       0.0 0.0 0.0 0.0
0003f0 00 00 00 00 00 00 00 00 00 00 00 00 00 00 00 00
       0.0 0.0 0.0 0.0
