deeper_null/lightning_logs/version_5/checkpoints/epoch=10-step=11.ckpt (torch, 13936 bytes, 21 tensors)

model.layers.0.weight f4 [10, 2]
000000 6f 0d c1 3e 50 96 fd 3c 29 b5 07 bf cc 22 c7 be
       0.37705562 0.030955464 -0.53010803 -0.38893735
000010 b4 c6 98 3e 2f 0b 11 3f 41 50 11 3f 5f d8 89 3e
       0.29839098 0.5665769 0.5676308 0.2692289
000020 a7 78 c0 3e bc 24 ba be 7f 24 05 3f cf aa 08 3f
       0.3759205 -0.3635615 0.52008814 0.53385633
000030 7e 5b 9a 3c f3 18 ae bd 75 88 5c 3e 94 e4 35 3f
       0.018842455 -0.085008524 0.21536429 0.7105191
000040 9a 09 a7 3c ba fb c1 bd 11 ba 0f 3f bf 2e 66 be
       0.02039032 -0.09471841 0.5614329 -0.2247877

model.layers.0.bias f4 [10]
000000 33 02 18 bf 90 56 92 3e 7d e6 15 3f e7 31 f0 3e
       -0.59378356 0.28581667 0.5855482 0.46913072
000010 47 97 82 3d 41 11 16 3e d0 35 09 3d 54 9b 1e be
       0.0637651 0.1465502 0.033498585 -0.1548894
000020 7c 3f 06 3e d8 fb a2 be
       0.13110155 -0.31832767

model.layers.3.weight f4 [8, 10]
000000 69 ad 56 bd 95 af b7 3d c2 5b 49 be da a6 5d be
       -0.05241147 0.089690365 -0.19663909 -0.2164568
000010 3b 04 4e 3e dd ec 17 3d 52 64 3b 3d 9c 53 92 be
       0.20118801 0.037091125 0.04574997 -0.28579414
000020 86 35 8d be 5d 8d 21 3e e9 e2 0f 3e 93 0f 9c be
       -0.27579898 0.15776582 0.14051403 -0.30480632
000030 c0 20 a7 be 03 73 98 3e d7 97 92 3e 40 50 1a 3d
       -0.32642174 0.29775247 0.2863147 0.03767419
000040 08 4a 8f be ff 78 17 be 24 34 8b 3e 5f be 65 3d
       -0.2798617 -0.1479225 0.27188218 0.056089755
000050 b9 35 0b bc 39 0f 88 3c 1b 62 32 3d 07 02 ab bd
       -0.008496695 0.016608821 0.043550592 -0.08349996
000060 3c c7 94 3e e6 e6 88 bd 67 bd 8f 3d 95 ae d2 3c
       0.29058254 -0.066846654 0.070185475 0.025718013
000070 5b a2 94 3d cc 7d 27 be de e0 5e be d9 10 56 bd
       0.07257529 -0.16356581 -0.21765468 -0.05226216
000080 23 d1 85 3e e3 4d 98 3e bf b7 69 3e e9 85 fd 3d
       0.2613612 0.29746923 0.22824 0.12379057
000090 4d 5a b3 bd 53 84 e7 bd be 2c e8 bc b2 95 85 3d
       -0.08757458 -0.11304536 -0.028341647 0.06522693
0000a0 e6 6d 1c be d0 ce 4b 3e 4d 1b 72 3c e2 30 ea bd
       -0.15276298 0.19903111 0.014777017 -0.11435105
0000b0 ff 83 89 be 27 99 82 be 0f a2 3a 3e 94 91 9f 3e
       -0.26858518 -0.2550747 0.18225883 0.31165755
0000c0 36 73 03 bd bd a8 8d 3d 0e e2 9c be d3 c1 e7 3d
       -0.032092296 0.0691695 -0.30641216 0.11316266
0000d0 87 34 1a 3d 71 62 d4 bd 5a 58 41 3d b8 74 ba 3d
       0.03764775 -0.10370339 0.0472034 0.091042936
0000e0 61 f2 84 3d 38 23 83 3e c5 9e a1 be 7b 3e 10 3e
       0.064915426 0.25612807 -0.31566444 0.14086334
0000f0 fe 02 e4 bd 04 10 08 3d 61 e3 17 3e a0 ef 90 bd
       -0.11133383 0.0332184 0.14832832 -0.07076955
000100 fa 5d fe bd 11 eb 16 be 4c db 72 bd e5 ec ae 3c
       -0.12420268 -0.14738108 -0.05929117 0.021353194
000110 dc 45 a2 be 6e 6f 34 be c4 8f 96 be 60 90 9c 3e
       -0.31693923 -0.17620632 -0.2940656 0.305789
000120 b8 53 38 bd f3 81 f1 3c d2 3e 0a 3d 97 87 92 3e
       -0.045001715 0.02948091 0.033751316 0.28619072
000130 90 d8 03 3e 22 23 cc bc fa 54 93 bd bd 51 91 be
       0.12875581 -0.024919096 -0.07193942 -0.28382674

model.layers.3.bias f4 [8]
000000 48 28 ae bd 1d dd 31 be fe 1d 24 bd dc bc c7 3d
       -0.08503777 -0.17369504 -0.040067665 0.09752819
000010 39 a6 d4 bc cf 76 67 3d d8 fb d7 bc e9 3a 83 be
       -0.025958167 0.05650979 -0.026365206 -0.25630882

model.layers.6.weight f4 [4, 8]
000000 7b c1 39 be d1 c2 c3 3d 81 7c 0f 3e 14 d1 88 3d
       -0.18140213 0.09558643 0.14012338 0.066805035
000010 c2 92 a1 3e f5 11 b2 3e fb d9 52 3e 01 29 c7 bd
       0.3155728 0.34779325 0.20590965 -0.09724618
000020 ca fc c6 bd 42 e5 12 bd 8b 55 ae be 39 98 98 3e
       -0.097161844 -0.03586317 -0.3404964 0.29803637
000030 9e bd 2e bc 43 17 bc 3d f0 44 70 be 0d b7 19 3e
       -0.010665325 0.09184124 -0.23463798 0.15011235
000040 0f f6 9c be e9 00 13 3d c7 f6 73 be 55 0c 6f be
       -0.30656478 0.03588954 -0.23824607 -0.23344548
000050 e2 1b 94 3e de 12 a7 be 28 fb f0 bd 3f f5 90 be
       0.28927523 -0.32631582 -0.11766654 -0.28312108
000060 a4 1b 4a 3e d8 e5 80 be bd af 9d be 5f be 8a 3e
       0.19737107 -0.25175357 -0.3079814 0.27098367
000070 87 21 28 3e 37 3c 4f 3e 2f bd 07 3d 7e 1e 16 bd
       0.1641904 0.20237814 0.033139404 -0.036650173

model.layers.6.bias f4 [4]
000000 22 43 79 3e 71 4a 9c be 32 2d 7b bb 5a d0 f0 3c
       0.24342015 -0.30525544 -0.00383265 0.029396225

model.layers.7.weight f4 [1, 4]
000000 8e c7 c4 be 42 cf 5e 3e 6d be aa 3b e3 06 da 3e
       -0.38433498 0.2175875 0.005210689 0.4258338

exp_avg f4 [10, 2]
000000 18 ab 6b 3f d4 bc 16 ba 00 00 00 00 00 00 00 00
       0.92057943 -0.00057501835 0.0 0.0
000010 48 b4 09 b9 87 d9 83 3c 21 f7 f4 3f 50 25 a4 3c
       -0.00013132498 0.016094936 1.9137918 0.020037323
000020 36 90 21 40 ad 64 ad 3c 72 d8 b5 3e 3f 08 de 3b
       2.524427 0.02116617 0.35516697 0.0067758854
000030 53 9f a6 bf f5 9e 07 bc 00 b3 30 bf dc 3d f9 bb
       -1.3017372 -0.008277644 -0.6902313 -0.007606251
000040 6c 3f ca 3f 5b 2c e2 3b d1 d5 85 3e 46 d1 46 3b
       1.5800605 0.0069022602 0.2613969 0.003033714

exp_avg_sq f4 [10, 2]
000000 25 12 b8 3c 6f 59 44 33 00 00 00 00 00 00 00 00
       0.02246959 4.5716146e-08 0.0 0.0
000010 0c ba 0b 3a a5 70 d2 36 11 f9 c0 3d 11 d0 30 37
       0.00053301523 6.2716013e-06 0.09422506 1.0538862e-05
000020 14 a8 2d 3e c8 81 48 37 82 fc 58 3b fd 4e 9e 35
       0.16958648 1.1951146e-05 0.003310949 1.1794906e-06
000030 20 e3 2c 3d 6d e5 f4 35 bf 5d 3d 3c 4c 74 be 35
       0.04220879 1.8246188e-06 0.011557995 1.418995e-06
000040 7a 3e 88 3d b6 5c c5 35 b5 da cb 3a fc bf 73 34
       0.066525415 1.4704626e-06 0.0015552851 2.2700982e-07

exp_avg f4 [10]
000000 e2 6e 97 3c 00 00 00 00 04 e7 89 ba 3e 4f 17 3d
       0.01848549 0.0 -0.0010521119 0.036940806
000010 19 ec 48 3d d7 64 d9 3b ff bf d0 bc 40 87 59 bc
       0.049053285 0.0066343355 -0.025482176 -0.013276875
000020 0d 5b ff 3c 3f b2 a2 3b
       0.031171346 0.0049650962

exp_avg_sq f4 [10]
000000 f1 e1 17 37 00 00 00 00 5d be 68 34 6b 47 13 38
       9.052907e-06 0.0 2.1675937e-07 3.5114044e-05
000010 e8 8f 86 38 1c 06 9b 35 a9 9c 87 37 99 c8 8f 36
       6.4164225e-05 1.1550178e-06 1.6166205e-05 4.2850847e-06
000020 ba ea d8 37 15 e9 16 35
       2.585851e-05 5.6218533e-07

exp_avg f4 [8, 10]
000000 c5 99 f7 bd 00 00 00 00 78 3c 26 bc 92 00 66 bd
       -0.12089876 0.0 -0.010146253 -0.056152888
000010 2f b6 be bd 3e 51 b6 bd 05 59 4a bb f1 dd 0a bd
       -0.093120925 -0.089022145 -0.0030875814 -0.033903066
000020 98 b3 e0 bb ad 21 03 be 81 09 14 40 00 00 00 00
       -0.0068573467 -0.12805815 2.31308 0.0
000030 a1 db 6d 3f ba ca 3a 40 7a a3 03 40 c3 a4 14 40
       0.9291325 2.9186234 2.0568528 2.3225563
000040 fd c9 8a 3d cd 56 85 3f 97 c9 10 3e 90 2a 18 40
       0.067768075 1.0417114 0.141394 2.3775978
000050 11 51 7b 3f 00 00 00 00 50 56 1b 3f d2 17 84 3f
       0.9817057 0.0 0.6067858 1.0319769
000060 db c9 6c 3f 7c f0 5e 3f 12 05 e9 3c ad af f3 3e
       0.92495507 0.870857 0.0284448 0.47594967
000070 d8 36 82 3d 17 70 8a 3e 59 de 76 bc 00 00 00 00
       0.06358117 0.27038643 -0.01506766 0.0
000080 38 15 85 3f 48 1c 82 3f 18 6d db 3e 76 13 8e 3f
       1.03971 1.0164881 0.4285667 1.1099689
000090 d7 95 84 3c ec fa 9a 3e 40 04 f1 3c f3 d2 99 3f
       0.01618473 0.30269563 0.029420972 1.2017502
0000a0 cb 9e 3a 3a 00 00 00 00 22 5d 4e 38 39 f8 2d ba
       0.0007118999 0.0 4.9200964e-05 -0.00066364143
0000b0 4d 48 86 b9 00 00 00 00 7e 6a ea b5 b5 c5 a7 37
       -0.0002561234 0.0 -1.7465352e-06 2.0000016e-05
0000c0 e4 c3 11 38 8d 58 84 36 cc 66 d6 3d 00 00 00 00
       3.475313e-05 3.944215e-06 0.10468826 0.0
0000d0 f7 91 f6 bc 21 32 4d 3d 0d e0 7b 3d c9 ef 8a 3d
       -0.030098898 0.050096635 0.06149297 0.06784017
0000e0 ef 12 05 3b 96 4e 01 3d 1d 77 88 3b df 3a 98 3d
       0.0020305475 0.031569086 0.00416459 0.07433104
0000f0 2e be 08 39 00 00 00 00 01 ce 4b 39 b6 f7 20 39
       0.00013040818 0.0 0.00019436331 0.00015351069
000100 00 00 00 00 00 00 00 00 85 82 cd 36 00 da 07 39
       0.0 0.0 6.1246706e-06 0.00012955815
000110 f4 09 9d 37 00 00 00 00 1f 4f c2 bd 00 00 00 00
       1.8720493e-05 0.0 -0.094877474 0.0
000120 3d af a5 3c de b2 ad 3c f3 de 13 bc 9e 88 ca bb
       0.020225162 0.021203455 -0.009025323 -0.006180837
000130 0f e4 6e b9 a3 7d 1c ba dd ad 41 ba c7 04 f5 3d
       -0.00022782407 -0.0005969649 -0.00073882734 0.11963802

exp_avg_sq f4 [8, 10]
000000 fa 7e e3 39 00 00 00 00 b7 c9 94 37 a8 92 e1 38
       0.0004339142 0.0 1.7736906e-05 0.00010756153
000010 ab c0 99 39 a5 ec c8 39 03 cd 85 34 50 4d 36 38
       0.00029325983 0.00038323287 2.4922346e-07 4.3464184e-05
000020 39 25 df 35 73 9f 1e 3a b3 d2 0c 3e 00 00 00 00
       1.6625628e-06 0.00060509815 0.1375225 0.0
000030 9d a3 bc 3c 5f 36 5c 3e 6c 22 de 3d 74 a0 10 3e
       0.023027236 0.21505116 0.10846409 0.14123708
000040 45 83 d2 38 3d 2f e1 3c 00 d6 14 3a 6c 6f 15 3e
       0.00010038031 0.027488345 0.00056776404 0.14593285
000050 0a 76 e9 3c 00 00 00 00 0f d0 36 3c 19 24 f6 3c
       0.028498668 0.0 0.0111580035 0.03004651
000060 0a 82 d4 3c 12 6b bb 3c 62 40 a5 37 36 ba de 3b
       0.025940914 0.022878204 1.9699513e-05 0.0067971004
000070 2a 24 12 39 4e b3 a7 3b 2f 40 9e 39 00 00 00 00
       0.00013937117 0.0051178103 0.0003018393 0.0
000080 20 e2 dc 3c 83 0a e9 3c f5 39 a6 3b d8 c8 01 3d
       0.026963294 0.028447395 0.005072827 0.03168568
000090 bc bf cf 36 96 39 1a 3b 1f b0 dc 37 74 94 1a 3d
       6.1914016e-06 0.002353286 2.6308056e-05 0.037739232
0000a0 7a 87 2c 33 00 00 00 00 56 83 95 33 99 ab d8 33
       4.0170086e-08 0.0 6.962243e-08 1.0089497e-07
0000b0 40 e0 a3 32 00 00 00 00 9d 21 f3 2e 9c 15 05 33
       1.9077675e-08 0.0 1.10563315e-10 3.098613e-08
0000c0 64 08 22 30 d9 24 54 34 9f 8e 82 39 00 00 00 00
       5.894718e-10 1.9757444e-07 0.00024901793 0.0
0000d0 53 f3 f1 37 1e 54 a0 38 c0 53 cf 38 e8 55 04 39
       2.8842745e-05 7.6450626e-05 9.886129e-05 0.00012620504
0000e0 bc 4e de 33 a2 d9 d2 37 da 62 ee 34 f7 b6 1b 39
       1.0352002e-07 2.5135294e-05 4.4402879e-07 0.00014850112
0000f0 9b a4 fd 31 00 00 00 00 01 1d 1c 32 af bd 58 32
       7.3819826e-09 0.0 9.08699e-09 1.2615984e-08
000100 00 00 00 00 00 00 00 00 32 35 1e 2d aa 21 8b 31
       0.0 0.0 8.993072e-12 4.0492596e-09
000110 d3 c2 b8 2e 00 00 00 00 24 c7 6c 39 00 00 00 00
       8.401959e-11 0.0 0.000225809 0.0
000120 68 d8 af 37 ab 2c 4c 38 fe 5f 8d 37 5b 48 de 37
       2.0962398e-05 4.867899e-05 1.685321e-05 2.6498155e-05
000130 e5 84 8f 32 11 61 48 36 56 3c ce 33 7a 17 cc 39
       1.6707824e-08 2.9858822e-06 9.6035976e-08 0.00038927404

exp_avg f4 [8]
000000 32 95 96 bb bc 2b c8 3d 4e b3 2f 3d f0 8f c3 3c
       -0.004595422 0.09773967 0.042895608 0.023872346
000010 04 e4 20 37 56 28 32 3b 71 44 52 37 5f 03 b2 b9
       9.589832e-06 0.0027184687 1.2532911e-05 -0.00033953317

exp_avg_sq f4 [8]
000000 09 01 36 35 20 41 80 39 e6 f7 68 38 3e 0d 7e 37
       6.780179e-07 0.00024462584 5.5543984e-05 1.5142663e-05
000010 21 36 8a 2f 61 bf 47 34 51 9f 25 2e 8f 71 ed 32
       2.5140515e-10 1.8602942e-07 3.7658158e-11 2.7642072e-08

exp_avg f4 [4, 8]
000000 b6 e0 ac 3c 67 08 7e 40 5d 78 56 3e c0 5b 07 c0
       0.021103244 3.9692628 0.20944352 -2.114975
000010 a1 fc b0 39 72 15 25 be 33 e2 d7 36 fc b5 5f 3d
       0.0003375756 -0.16121462 6.4338324e-06 0.054616913
000020 11 1a 46 bc 0b 67 11 c0 b0 af f5 bd aa f2 9a 3f
       -0.012091176 -2.2719142 -0.119964 1.2105305
000030 6f f3 4b b9 34 b0 bc 3d 64 98 78 b6 20 15 00 bd
       -0.00019450275 0.092132956 -3.7043583e-06 -0.031270146
000040 53 70 d8 37 53 55 b0 b9 ad 25 2d 39 6b 14 8d 39
       2.5801512e-05 -0.00033632907 0.00016512601 0.00026908828
000050 fb b2 37 36 eb 88 b1 39 4e 71 4a 33 fc b1 58 37
       2.7373305e-06 0.00033862083 4.713484e-08 1.29160435e-05
000060 7e 74 bf bc c7 ad 8c c0 d1 87 6d be 66 eb 15 40
       -0.023370977 -4.396213 -0.23196341 2.3424926
000070 3a fa c3 b9 7d de 36 3e 89 07 ef b6 e9 c6 77 bd
       -0.00037379732 0.1785831 -7.1236323e-06 -0.06049243

exp_avg_sq f4 [4, 8]
000000 ba 8b 98 37 77 83 ce 3e ce e1 a3 3a d5 df eb 3d
       1.8184877e-05 0.40334675 0.0012503208 0.11517302
000010 9b 5c 5b 33 40 a2 55 3a 6e 9d 46 2d c5 29 bb 38
       5.1074135e-08 0.00081494823 1.1289953e-11 8.924635e-05
000020 98 58 c9 36 1e 17 08 3e 6d 6f d8 39 8d 5c 1b 3d
       6.0005805e-06 0.13290069 0.0004128175 0.03793006
000030 b2 f1 90 32 af f1 8b 39 1e 9f 83 2c 5d 41 f6 37
       1.6873717e-08 0.00026692214 3.7409095e-12 2.9355922e-05
000040 14 c0 c5 30 b9 d7 fd 37 ae 31 d0 33 74 1b 0c 37
       1.4388228e-09 3.0260404e-05 9.6947915e-08 8.351042e-06
000050 79 ff 39 2c c4 03 0f 33 ae 43 22 26 b8 d2 ad 31
       2.6431897e-12 3.3298207e-08 5.6296764e-16 5.0589186e-09
000060 78 07 bb 37 01 3a fd 3e ff ec c8 3a 48 9f 10 3e
       2.2295615e-05 0.49458316 0.0015329419 0.14123261
000070 fb 7b 86 33 9b 0d 83 3a c6 80 73 2d 3a 8c e5 38
       6.262413e-08 0.0009998562 1.3841544e-11 0.0001094569

exp_avg f4 [4]
000000 10 d7 e6 3d b0 16 84 bd 4e 79 57 b8 b2 ac ff bd
       0.11271489 -0.0644964 -5.137297e-05 -0.12484111

exp_avg_sq f4 [4]
000000 85 65 a6 39 75 09 db 38 96 71 c2 32 a5 0d cc 39
       0.00031737625 0.00010444495 2.2636225e-08 0.00038920078

exp_avg f4 [1, 4]
000000 d6 78 2d bf e8 7a 17 40 61 f7 cf bf a0 a2 8b 40
       -0.67762506 2.3668766 -1.6247369 4.3636017

exp_avg_sq f4 [1, 4]
000000 3c 67 69 3c 1d e5 14 3e 58 9a 89 3d 95 34 f9 3e
       0.014245804 0.14540525 0.06718892 0.4867293
