deeper_null/lightning_logs/version_35/checkpoints/epoch=9-step=10.ckpt (torch, 13936 bytes, 21 tensors)

model.layers.0.weight f4 [10, 2]
00000000: 3891 57be 2afb 163e ca9c d33e d54e 833e
00000010: 9121 1d3f 7d96 d73e 2365 53be e71d c9be
00000020: 13d1 393e b528 5abe d97e 85be 330c e3be
00000030: 4360 27bf 4b4a 063f dd76 1dbf a5c0 08bf
00000040: cfbd 8cbe 1d01 afbe a7b5 9d3e b1e3 d53e
-0.2105149 0.14744249 0.41330558 0.25646082 0.61379343 0.42107 -0.2064405 -0.39280626
0.18146162 -0.21304591 -0.2607334 -0.44345245 -0.6538126 0.5245711 -0.61509496 -0.5341895
-0.27488562 -0.34180537 0.30802652 0.41775277

model.layers.0.bias f4 [10]
00000000: 923d 1a3f 4a7d a03e d35c f6be b465 22bf
00000010: 2f66 493d 3d66 babe ccc9 033f ed28 67be
00000020: c9f8 b6be 2d29 26bf
0.602502 0.31345588 -0.48117694 -0.63436437 0.049169715 -0.36406127 0.5147979 -0.22574206
-0.35736683 -0.6490658

model.layers.3.weight f4 [8, 10]
00000000: a716 913e 9b4b 0bbc e599 91be 6491 ffbd
00000010: b0e8 0e3e 2a40 56be 9324 9e3e 15ce 07bb
00000020: fa1e 7f3e 1dc9 433e 86f7 2a3e 3a19 9fbe
00000030: 4b64 19be c9ed 75bd 51d5 dc3d bf77 4d3d
00000040: 859e 703e a4b7 06bd 97f3 37be a1d9 4c3e
00000050: 4898 fe3c 992b 913c 88b1 53be 7413 453e
00000060: e71b 98be 2362 4f3d 578b 93be 7e5c 2abe
00000070: 63a6 703d 5dff 56bd 0d36 88be a64f 943e
00000080: 730c 063d 09bd 563e 1f83 943c 3295 cabd
00000090: 74c1 91be 1304 1b3e d7bd 42be 5e36 683e
000000a0: 6430 f3bb fc53 66be 2e8c 1e3e 2b31 2a3e
000000b0: 21e0 83be 045e 8d3d 295c c1bd 75dd 97be
000000c0: c07e 72bd 82e5 78be 8dbb 923d aa40 5b3d
000000d0: d81e 623e 88a4 b3bc f07b 2e3e 5107 e23d
000000e0: 3b9c 6abe a6fc 383e c6f2 36be a459 573e
000000f0: 2397 873d d156 4dbe f2e1 053e ef66 3e3e
00000100: f9bd ebbd 1be9 fc3d 08b9 973d af1a 2b3e
00000110: 8e0c 353d 26c2 163c b352 883d 1a46 8cbe
00000120: a4fd 2fbe 5266 043e dec6 01be bba0 0cbe
00000130: c037 3abe 886d 8abe fc14 773e 90b4 983e
0.28337595 -0.0085019125 -0.28437725 -0.12478903 0.1395595 -0.20922914 0.3088728 -0.00207222
0.2491416 0.19119687 0.16695985 -0.31073934 -0.14979665 -0.060041223 0.107828744 0.050163027
0.2349797 -0.032889977 -0.17964016 0.20004894 0.031078473 0.017720984 -0.20673192 0.19245702
-0.29708788 0.0506307 -0.28817245 -0.16636845 0.05875243 -0.052489627 -0.26603737 0.28967017
0.032726716 0.20970549 0.01812893 -0.09891738 -0.28467906 0.15138273 -0.1901773 0.2267699
-0.00742154 -0.22492975 0.15483162 0.16620319 -0.25756934 0.06902698 -0.09441406 -0.29661146
-0.05920291 -0.243063 0.07164679 0.053528465 0.22082078 -0.02192904 0.17039466 0.11036552
-0.2291116 0.18065128 -0.17866048 0.21030289 0.06620624 -0.20052649 0.13074473 0.18593954
-0.11510844 0.12349149 0.07408339 0.16709398 0.044201426 0.009201562 0.066563986 -0.27397233
-0.171866 0.12929657 -0.12673518 -0.13733189 -0.1818533 -0.2703669 0.24129099 0.29825258

model.layers.3.bias f4 [8]
00000000: 3eaa 493e e613 e5bd 9e2d 423e b1de c8bc
00000010: b81f 1bbe 9258 943e 84d9 51be 6c1b 923e
0.19693848 -0.11185436 0.18962714 -0.02452025 -0.15148818 0.28973824 -0.20493132 0.28536546

model.layers.6.weight f4 [4, 8]
00000000: a6be 143d 6bdf 9bbe cb94 a7bd d0e1 2cbe
00000010: d8ad 9bbe 3290 af3e ea8d a53e 5ed6 373e
00000020: 72a1 92be b82e 933e 5150 113e 4f13 2e3e
00000030: cb21 f33d cdaf ecbd 54e0 f33d d218 733e
00000040: 4d66 e4bd 4b18 363d efc9 653e c720 ecbd
00000050: 2617 c33d 3344 2c3e e73a cabd 188b 44be
00000060: 1a19 3ebd d685 5cbe 2c82 b2be 8a7b 68be
00000070: 9044 bb3d 851c 6b3e c909 43bd 108c 4d3e
0.03631463 -0.30443892 -0.08182677 -0.16883016 -0.3040607 0.342897 0.32334834 0.17952868
-0.28638798 0.2874658 0.14190795 0.16999553 0.1187168 -0.11556969 0.119080216 0.23739937
-0.11152325 0.04445676 0.22440313 -0.11529689 0.095258996 0.16822891 -0.09874516 -0.19193685
-0.046410657 -0.2153543 -0.34864938 -0.22703376 0.09143937 0.22960098 -0.047616754 0.20072961

model.layers.6.bias f4 [4]
00000000: 7fd0 97be 62b4 97be 29f1 8fbe 6f99 14be
-0.29651257 -0.2962981 -0.28113678 -0.14511655

model.layers.7.weight f4 [1, 4]
00000000: 530c 913e 9696 a8be ecbe a6be 1bc3 c8be
0.28329715 -0.32927388 -0.32567537 -0.39211354

exp_avg f4 [10, 2]
00000000: 0000 0000 0000 0000 3e16 493d d957 d93a
00000010: 98ed 1d3d dc7f c939 0000 0000 0000 0000
00000020: 0d2b bc3d 8432 803a 0000 0000 0000 0000
00000030: 0000 0000 0000 0000 0000 0000 0000 0000
00000040: 0000 0000 0000 0000 77f5 5f3e 162a 5c3b
0.0 0.0 0.049093477 0.0016581967 0.038556665 0.0003843297 0.0 0.0
0.09187899 0.000978068 0.0 0.0 0.0 0.0 0.0 0.0
0.0 0.0 0.21870981 0.003359442

exp_avg_sq f4 [10, 2]
00000000: 0000 0000 0000 0000 4522 6d39 c742 d733
00000010: 792c 4838 982d fa31 0000 0000 0000 0000
00000020: 4801 7739 efe4 ed32 0000 0000 0000 0000
00000030: 0000 0000 0000 0000 0000 0000 0000 0000
00000040: 0000 0000 0000 0000 9ed4 d83a d7c7 bc34
0.0 0.0 0.00022614848 1.00238644e-07 4.7725134e-05 7.281141e-09 0.0 0.0
0.00023556233 2.7694538e-08 0.0 0.0 0.0 0.0 0.0 0.0
0.0 0.0 0.0016542857 3.5163131e-07

exp_avg f4 [10]
00000000: 0000 0000 90aa 843a f1a6 423a 0000 0000
00000010: 40ba ec3a 0000 0000 0000 0000 0000 0000
00000020: 0000 0000 2e8f 8d3b
0.0 0.0010121632 0.0007425389 0.0 0.0018060878 0.0 0.0 0.0
0.0 0.004320047

exp_avg_sq f4 [10]
00000000: 0000 0000 f58f bf33 b7d6 9932 0000 0000
00000010: b044 c333 0000 0000 0000 0000 0000 0000
00000020: 0000 0000 d228 2c35
0.0 8.920316e-08 1.7909185e-08 0.0 9.092889e-08 0.0 0.0 0.0
0.0 6.4134395e-07

exp_avg f4 [8, 10]
00000000: 0000 0000 e90d bb3e 0000 0000 0000 0000
00000010: 4e9d 163e 0000 0000 0000 0000 0000 0000
00000020: 0000 0000 94c3 823e 0000 0000 0000 0000
00000030: 0000 0000 0000 0000 7e03 d43a 0000 0000
00000040: 0000 0000 0000 0000 0000 0000 096f 4f3b
00000050: 0000 0000 77be 8337 0000 0000 0000 0000
00000060: 0000 0000 0000 0000 0000 0000 0000 0000
00000070: 0000 0000 0000 0000 0000 0000 e1cd ae3d
00000080: 9d88 2f3d 0000 0000 335c 153d 0000 0000
00000090: 0000 0000 0000 0000 0000 0000 a5a3 943d
000000a0: 0000 0000 e31c 383b 1d37 593d 0000 0000
000000b0: 3a14 543c 0000 0000 0000 0000 0000 0000
000000c0: 0000 0000 17d5 8439 0000 0000 96e3 80bb
000000d0: 3845 993c 0000 0000 0b93 d0ba 0000 0000
000000e0: 0000 0000 0000 0000 0000 0000 20c2 d4bb
000000f0: 0000 0000 b27f 173c e5c6 8a3d 0000 0000
00000100: 11d8 823c 0000 0000 0000 0000 0000 0000
00000110: 0000 0000 605e 333d 0000 0000 0000 0000
00000120: 0000 0000 0000 0000 d990 8a39 0000 0000
00000130: 0000 0000 0000 0000 0000 0000 20f0 523a
0.0 0.3653405 0.0 0.0 0.14708444 0.0 0.0 0.0
0.0 0.2553984 0.0 0.0 0.0 0.0 0.0016175357 0.0
0.0 0.0 0.0 0.0031651875 0.0 1.5705109e-05 0.0 0.0
0.0 0.0 0.0 0.0 0.0 0.0 0.0 0.08535362
0.042854894 0.0 0.03646488 0.0 0.0 0.0 0.0 0.07257775
0.0 0.002809339 0.053031076 0.0 0.0129442755 0.0 0.0 0.0
0.0 0.00025335766 0.0 -0.0039333804 0.018709764 0.0 -0.0015912963 0.0
0.0 0.0 0.0 -0.006492868 0.0 0.0092467535 0.06776217 0.0
0.01597217 0.0 0.0 0.0 0.0 0.043791175 0.0 0.0
0.0 0.0 0.0002642933 0.0 0.0 0.0 0.0 0.00080466457

exp_avg_sq f4 [8, 10]
00000000: 0000 0000 64d2 6f3b 0000 0000 0000 0000
00000010: 7426 1f3a 0000 0000 0000 0000 0000 0000
00000020: 0000 0000 1dc2 ef3a 0000 0000 0000 0000
00000030: 0000 0000 0000 0000 a427 1e34 0000 0000
00000040: 0000 0000 0000 0000 0000 0000 02c5 0735
00000050: 0000 0000 aa84 9e2e 0000 0000 0000 0000
00000060: 0000 0000 0000 0000 0000 0000 0000 0000
00000070: 0000 0000 0000 0000 0000 0000 5f19 253a
00000080: cfa1 333a 0000 0000 d839 0139 0000 0000
00000090: 0000 0000 0000 0000 0000 0000 e2f3 d039
000000a0: 0000 0000 55cd a035 8181 8a38 0000 0000
000000b0: c883 8236 0000 0000 0000 0000 0000 0000
000000c0: 0000 0000 16d4 1635 0000 0000 045e 3e37
000000d0: 8cad e437 0000 0000 5e03 1a36 0000 0000
000000e0: 0000 0000 0000 0000 0000 0000 a542 f536
000000f0: 0000 0000 eeaf 2d37 e33d b039 0000 0000
00000100: 884d 8737 0000 0000 0000 0000 0000 0000
00000110: 0000 0000 ccab db38 0000 0000 0000 0000
00000120: 0000 0000 0000 0000 8200 d332 0000 0000
00000130: 0000 0000 0000 0000 0000 0000 0101 c933
0.0 0.0036593908 0.0 0.0 0.00060710986 0.0 0.0 0.0
0.0 0.0018292103 0.0 0.0 0.0 0.0 1.4729318e-07 0.0
0.0 0.0 0.0 5.0578103e-07 0.0 7.208574e-11 0.0 0.0
0.0 0.0 0.0 0.0 0.0 0.0 0.0 0.0006298031
0.00068524195 0.0 0.00012323947 0.0 0.0 0.0 0.0 0.00039854558
0.0 1.1980688e-06 6.604475e-05 0.0 3.8896433e-06 0.0 0.0 0.0
0.0 5.618798e-07 0.0 1.1346772e-05 2.7260532e-05 0.0 2.2949748e-06 0.0
0.0 0.0 0.0 7.3093274e-06 0.0 1.0352565e-05 0.00033615445 0.0
1.6129357e-05 0.0 0.0 0.0 0.0 0.000104747334 0.0 0.0
0.0 0.0 2.4563864e-08 0.0 0.0 0.0 0.0 9.3599745e-08

exp_avg f4 [8]
00000000: 09c0 773c b09f 3d39 7840 3c35 d50a 823b
00000010: cad2 c13a 10b5 80b9 9b2d fc3a ae54 2c38
0.015121468 0.00018083933 7.012927e-07 0.0039685764 0.0014787551 -0.00024548965 0.0019239666 4.108686e-05

exp_avg_sq f4 [8]
00000000: b75e d436 a5c9 e230 c335 0e2a 1a3b b035
00000010: a854 5b33 c4be d132 b7ec 9034 b7ae a32f
6.3291186e-06 1.6500975e-09 1.2630786e-13 1.3130223e-06 5.1066905e-08 2.4417552e-08 2.6994323e-07 2.977367e-10

exp_avg f4 [4, 8]
00000000: bfa4 003e c76c 03bb 3417 31b7 7fd9 bb3e
00000010: a657 c8bb e03b 8b3c 6dfe 753c 07ec aeba
00000020: 18eb 12be 9890 163b 4b7f 4337 0fd2 d3be
00000030: 3a80 e53b 2dda 4bbc 0634 8bbc 4800 ca3a
00000040: 0f06 16be 898b 193b dbf2 4f37 3ad7 dbbe
00000050: 0f7e e93b b28d b2bc 25d2 8fbc 0381 cc3a
00000060: 6f13 34be ac50 383b f6b8 7837 d5bf 03bf
00000070: 8a2d 0c3c 8756 cebc 5173 acbc fca1 f53a
0.12562846 -0.002005385 -1.05554245e-05 0.36689374 -0.006113964 0.016996324 0.015014273 -0.0013345488
-0.14347494 0.0022974368 1.1652543e-05 -0.413712 0.007003811 -0.012442154 -0.01699258 0.0015411461
-0.14650749 0.0023429117 1.2394706e-05 -0.42937642 0.007125623 -0.021796081 -0.01755626 0.0015602413
-0.17585538 0.0028124256 1.48250165e-05 -0.5146459 0.008555779 -0.025187744 -0.02105108 0.0018740292

exp_avg_sq f4 [4, 8]
00000000: d95d eb39 a8ad 5b34 87ab 642e 075b 353c
00000010: 5232 7e35 84e1 d93b 8455 7c37 7c44 8334
00000020: ee4c 173a 0b99 8f34 5a36 922e 0729 643c
00000030: 6e5d a535 6e03 0a3c 6612 9f37 832a ab34
00000040: a69b 203a 42e4 9534 3574 9c2e 9049 783c
00000050: da19 ad35 a7a4 143c 58b2 ac37 c8fa b234
00000060: 0d07 673a 32eb d734 d6e3 e02e 8532 b23c
00000070: 1b4d f935 548f 553c 67f0 f737 9ce4 0035
0.00044892615 2.045914e-07 5.1993545e-11 0.011069066 9.46956e-07 0.006649198 1.5040281e-05 2.445048e-07
0.0005771656 2.674718e-07 6.648966e-11 0.013925797 1.232065e-06 0.008423669 1.8962844e-05 3.1882163e-07
0.0006126709 2.7919492e-07 7.114701e-11 0.015154257 1.2897028e-06 0.009072459 2.0587046e-05 3.333755e-07
0.00088130013 4.0217998e-07 1.02268125e-10 0.021752605 1.8574386e-06 0.01303466 2.955664e-05 4.8016386e-07

exp_avg f4 [4]
00000000: 8952 9c3c b9dc aebc c459 b7bc a290 dbbc
0.019082325 -0.021345483 -0.02238167 -0.026802365

exp_avg_sq f4 [4]
00000000: b2ff 5b38 b546 8a38 818a 9638 0915 d838
5.2451804e-05 6.593523e-05 7.178356e-05 0.00010303601

exp_avg f4 [1, 4]
00000000: bcae 27be 041e 563d f954 6abe d252 a8be
-0.1637525 0.05227472 -0.22883977 -0.32875687

exp_avg_sq f4 [1, 4]
00000000: 89fb 373b f1cf 8838 af97 973a 505a 2a3b
0.002807351 6.5237175e-05 0.0011565591 0.0025993772
