deeper_null/lightning_logs/version_1/checkpoints/epoch=543-step=544.ckpt (torch, 13936 bytes, 21 tensors)

model.layers.0.weight f4 [10, 2]
00000000: b005 883d 3cfb 46bf ac03 2cbf 1098 263f
00000010: f775 423d 6c5d 903f 250a 82be 8af3 d13c
00000020: 08ea 043f 8ff9 c63e 3ae5 0a3f 2e31 c0bd
00000030: 9169 09bf ab77 2a3f 80af b0bc e28a 263f
00000040: 2ba2 c23c cf24 6ebf e566 e63e 7a2b d63e
0.0664171 -0.77727103 -0.671931 0.6507578 0.04747578 1.127851 -0.25398365 0.025628824
0.51919603 0.38862273 0.5425602 -0.0938438 -0.53676707 0.6658885 -0.02156806 0.6505567
0.023758968 -0.93024915 0.45000377 0.41830045

model.layers.0.bias f4 [10]
00000000: 5bde 143e d595 3bbe 4c1a ebbe 4e7d 08bf
00000010: 0b46 33bf a025 11bf cc22 e0bd 4bd9 00bd
00000020: 67d3 05be dcce c7be
0.14537947 -0.18318875 -0.459185 -0.533162 -0.7002875 -0.56698036 -0.10944137 -0.031457227
-0.13068925 -0.3902501

model.layers.3.weight f4 [8, 10]
00000000: 0673 2abe 6371 993e 7fb0 9f3d 7f60 97be
00000010: 398e 48bc 51b8 93be 9126 2fba e3dd ed3d
00000020: fdef 05be a1a2 99bd 9019 41be 0aa1 b43c
00000030: 213b 42be 025b 333d a572 60be 6ce6 943d
00000040: 5120 d8bc d2bf 46be 8d6f e7bd df90 2bbd
00000050: dec9 10be 9c39 47bd f9bb c23d 3fe0 6bbe
00000060: 4076 7f3e 1094 6ebe 9c3c cdbd 9e29 23be
00000070: a57a 4dbe c495 473e ddf0 acbb 4c7d 7d3e
00000080: 7cc9 7cbe 4625 34be f5ab f33d 8619 32be
00000090: 47ac 33be fe40 85be 2729 553e 8cc3 e5bc
000000a0: 7f9f 25be b674 b8bd 94cb 90be ac76 32be
000000b0: 9dbf 7fbe 9012 853e 5530 493c 02bb 5bbe
000000c0: ac7e 353e 1614 c13d 505f a6bd 4e82 913e
000000d0: a975 f03e 383f 163e fdb8 8aba e1fe 12bc
000000e0: 705c 513e ec77 9e3e 5d02 fdbe 42e9 44bb
000000f0: 9067 5b3c 30b8 08be 22c1 913e 070d 9bbd
00000100: a48c 983e 59bd 1c3d e31a 95be f88e 3a3e
00000110: baad e83d 739b 79be f707 523d 6a1a 8a3e
00000120: eee5 5bbe ec5c 16be 1080 543c 4865 59be
00000130: 6c3e 7c3e 114b 0ebe 75d8 20bc f049 91be
-0.1664544 0.2996932 0.07797336 -0.29565808 -0.01224094 -0.2885156 -0.0006681467 0.11614587
-0.1307983 -0.07501722 -0.18857408 0.022049446 -0.18967868 0.043787964 -0.21918733 0.07270512
-0.026382597 -0.19409111 -0.113005735 -0.041886207 -0.14139506 -0.048638925 0.09508509 -0.23034762
0.24947453 -0.23298669 -0.10021326 -0.15933844 -0.20066316 0.19490725 -0.0052777366 0.24754828
-0.24686235 -0.17592344 0.118980326 -0.17392549 -0.17546187 -0.26026148 0.2081648 -0.028047346
-0.16174124 -0.09006636 -0.28280318 -0.17428082 -0.24975438 0.25990725 0.01227959 -0.21458057
0.17724103 0.09427659 -0.08123648 0.28419727 0.46964768 0.14672554 -0.0010583695 -0.008971901
0.20445418 0.30950868 -0.49415866 -0.003004626 0.01339139 -0.13351512 0.2846766 -0.07570844
0.297948 0.038266513 -0.29122075 0.18218601 0.11361261 -0.24375705 0.051277127 0.26973277
-0.2147443 -0.14683884 0.012969986 -0.21230042 0.24633187 -0.13895823 -0.009817232 -0.28376722

model.layers.3.bias f4 [8]
00000000: 5df2 36be 5227 f23d c066 84bb 0fbc cb3d
00000010: 395e 40be 91e4 2a3e 8ddc 5b3e dd52 873c
-0.17865892 0.11823906 -0.004040569 0.09947979 -0.18785943 0.16688754 0.21470852 0.016519004

model.layers.6.weight f4 [4, 8]
00000000: 4b8a bb3d f5b1 26be a59a 483d 0cbc 3cbe
00000010: b2f0 54be 697a 983e b5c4 de3d 50fb 603d
00000020: 52ea 66be 0286 523e bd6c afbd a2f1 073e
00000030: 72d8 4d3e 3aa5 843e 1c37 a1bd a416 9a3d
00000040: 094f f73c 1b8c 733c 9bbc 4bbe 772f 963e
00000050: 9f65 4c3e b007 75bd a506 94be a50f 1b3d
00000060: dbdb 6f3e 3743 33bc 4fdd 6a3e 7807 23be
00000070: b9ad 1cbc 594b 693d b290 763d 89bc 8dbe
0.09157237 -0.16278823 0.048975606 -0.18431109 -0.20794943 0.29780892 0.10877363 0.05492717
-0.22550324 0.20558932 -0.08565662 0.1327577 0.20102099 0.25907308 -0.078718394 0.075238496
0.030189054 0.014864947 -0.19896166 0.29333088 0.1996064 -0.059821784 -0.2891132 0.037856717
0.23423712 -0.010941318 0.22935985 -0.15920818 -0.009562903 0.056956623 0.060196586 -0.27682903

model.layers.6.bias f4 [4]
00000000: bda8 60be 9454 6abe 713f b7bd 3540 273e
-0.21939369 -0.22883826 -0.08947647 0.16333087

model.layers.7.weight f4 [1, 4]
00000000: 328b 14bf f263 94be 1cdd 60be 54aa 0bbe
-0.58024895 -0.28982502 -0.21959347 -0.13639194

exp_avg f4 [10, 2]
00000000: b71a 913c 8016 2b3a 0000 0000 0000 0000
00000010: 1777 a43b 1b4b d5bb 0000 0000 0000 0000
00000020: 8bef 833b 8bee de39 cd05 2d38 67a7 0a3a
00000030: 0000 0000 0000 0000 0000 0000 0000 0000
00000040: 01ab 8b3b 0577 733b 9179 c1ba 006c 22b7
0.017712934 0.0006526485 0.0 0.0 0.0050190794 -0.0065091974 0.0 0.0
0.0040263585 0.00042520868 4.1251817e-05 0.0005289227 0.0 0.0 0.0 0.0
0.0042623286 0.0037149799 -0.0014760961 -9.681098e-06

exp_avg_sq f4 [10, 2]
00000000: 49c4 1e3b 69df 6f35 0000 0000 0000 0000
00000010: be7a 8e3b 28d7 4b37 0000 0000 0000 0000
00000020: b05f ee3a a6ff 2736 77af 9b3c 4d51 2d36
00000030: 0000 0000 0000 0000 0000 0000 0000 0000
00000040: d889 f43b aa55 3b37 7934 333c 0ce2 6c36
0.0024225882 8.935954e-07 0.0 0.0 0.004348128 1.2149838e-05 0.0 0.0
0.0018186476 2.5033746e-06 0.019004567 2.5826332e-06 0.0 0.0 0.0 0.0
0.0074627213 1.1166014e-05 0.010937803 3.5298317e-06

exp_avg f4 [10]
00000000: e7bf e239 0000 0000 4044 9eba 0000 0000
00000010: 41d4 2039 6b94 d838 0000 0000 0000 0000
00000020: bacd 053a 7418 f6b7
0.00043249057 0.0 -0.0012074783 0.0 0.0001533786 0.000103273276 0.0 0.0
0.0005104203 -2.9336872e-05

exp_avg_sq f4 [10]
00000000: de73 8435 0000 0000 755e e135 0000 0000
00000010: 3b0d 4a35 34b2 d136 0000 0000 0000 0000
00000020: de0f 3336 5773 9736
9.868488e-07 0.0 1.6791297e-06 0.0 7.5270117e-07 6.249431e-06 0.0 0.0
2.6682314e-06 4.513578e-06

exp_avg f4 [8, 10]
00000000: 136e 950e 0000 0000 7996 2134 0000 0000
00000010: cc1c 0b24 0000 0000 0000 0000 0000 0000
00000020: 5657 8532 0000 0000 fa65 113a 0000 0000
00000030: 8231 be39 0000 0000 0000 0000 3e92 ac3b
00000040: 0000 0000 0000 0000 6471 85b7 d460 803b
00000050: 9029 14ba 0000 0000 e8e6 6239 0000 0000
00000060: 86dd 0bba 117e 15bb 0000 0000 0000 0000
00000070: ef3d 5bba 62f2 13bb dbb6 6e39 0000 0000
00000080: f0e2 9239 0000 0000 3e05 483b 3b1a 631b
00000090: 0000 0000 0000 0000 37cf 40b9 ee66 fd3a
000000a0: 21af d1ba 0000 0000 4202 5a38 0000 0000
000000b0: c93c fdbb 0e36 b7bb 0000 0000 0000 0000
000000c0: 1c8d ddba e21a 90bb 9e21 d7bb 0000 0000
000000d0: 22de 62bc 0000 0000 4dba 64ba 6b6a 5bbd
000000e0: 0000 0000 0000 0000 f3a2 cd3b ddd2 b2ba
000000f0: 6a12 5bba 0000 0000 578e 003a 0000 0000
00000100: 040c 3bb9 5f36 15bb 0000 0000 0000 0000
00000110: 012a b2ba 9815 d4ba ebbe 8837 0000 0000
00000120: 5d22 f637 0000 0000 7056 7d36 0000 0000
00000130: 0000 0000 0000 0000 c2c5 1237 0000 0000
3.6837334e-30 0.0 1.5049035e-07 0.0 3.0165212e-17 0.0 0.0 0.0
1.5522954e-08 0.0 0.0005546507 0.0 0.0003627651 0.0 0.0 0.005266457
0.0 0.0 -1.5907637e-05 0.003917793 -0.0005651945 0.0 0.00021639059 0.0
-0.0005335439 -0.0022810737 0.0 0.0 -0.0008363416 -0.0022574891 0.00022765568 0.0
0.00028016372 0.0 0.0030520703 1.8785475e-22 0.0 0.0 -0.0001838774 0.0019333044
-0.0015997627 0.0 5.1977353e-05 0.0 -0.0077281934 -0.0055911606 0.0 0.0
-0.0016903016 -0.004397736 -0.006565287 0.0 -0.013846906 0.0 -0.0008725271 -0.053568285
0.0 0.0 0.0062755286 -0.0013643164 -0.0008356931 0.0 0.0004904023 0.0
-0.00017838186 -0.0022768003 0.0 0.0 -0.001359284 -0.0016180752 1.6301366e-05 0.0
2.9341487e-05 0.0 3.775025e-06 0.0 0.0 0.0 8.748322e-06 0.0

exp_avg_sq f4 [8, 10]
00000000: a4c8 382d 0000 0000 2bd4 532f 0000 0000
00000010: d35a b331 0000 0000 0000 0000 0000 0000
00000020: 58bc 1f2d 0000 0000 8f84 4138 0000 0000
00000030: 60da 0538 0000 0000 0000 0000 431b 283b
00000040: 0000 0000 0000 0000 c05b cc36 68db c83a
00000050: 3659 8538 0000 0000 4d4a 1c39 0000 0000
00000060: 9c3f 1f3c f576 ab3b 0000 0000 0000 0000
00000070: b6bd 2d37 2056 853c 5ba6 2a36 0000 0000
00000080: aa20 db35 0000 0000 bb06 0e39 165f 1c3a
00000090: 0000 0000 0000 0000 2fe5 2035 b32a 023a
000000a0: b52a e539 0000 0000 64b6 a939 0000 0000
000000b0: 37db 783c c99c 4b3d 0000 0000 0000 0000
000000c0: e0c1 4339 fa34 ae3c b54d 8639 0000 0000
000000d0: d3de 2339 0000 0000 e080 e73b f85f c83c
000000e0: 0000 0000 0000 0000 01a7 bc38 2e33 b23b
000000f0: fae4 0337 0000 0000 5078 9f36 0000 0000
00000100: cb4f 183a f35b 1c3b 0000 0000 0000 0000
00000110: d46f a536 6589 0d3a eae3 ca33 0000 0000
00000120: 8469 7933 0000 0000 95e5 9636 0000 0000
00000130: 0000 0000 0000 0000 198d 6132 0000 0000
1.050374e-11 0.0 1.9265715e-10 0.0 5.219911e-09 0.0 0.0 0.0
9.079924e-12 0.0 4.613824e-05 0.0 3.191305e-05 0.0 0.0 0.0025651015
0.0 0.0 6.090355e-06 0.0015324177 6.358551e-05 0.0 0.00014904999 0.0
0.0097197555 0.0052326866 0.0 0.0 1.0355774e-05 0.01627642 2.5428806e-06 0.0
1.6326278e-06 0.0 0.00013544683 0.00059650966 0.0 0.0 5.993815e-07 0.0004965469
0.00043710103 0.0 0.00032370083 0.0 0.015188984 0.04971007 0.0 0.0
0.00018668873 0.021265496 0.00025616368 0.0 0.000156279 0.0 0.0070649236 0.024459824
0.0 0.0 8.9956455e-05 0.00543823 7.861521e-06 0.0 4.7525755e-06 0.0
0.000581023 0.0023858517 0.0 0.0 4.9304017e-06 0.00053991965 9.447815e-08 0.0
5.8070796e-08 0.0 4.497075e-06 0.0 0.0 0.0 1.3128806e-08 0.0

exp_avg f4 [8]
00000000: 125b 1b33 0d5a 7439 aede 1139 e0fe 2439
00000010: b7ef 2439 39fd 1dbb 6c9c a139 c5d2 19b6
3.6171578e-08 0.000233032 0.00013911232 0.00015735207 0.0001572956 -0.0024107231 0.00030824856 -2.292146e-06

exp_avg_sq f4 [8]
00000000: 44e1 802d d471 3136 97c9 6637 d6ad 1f34
00000010: 7888 3038 4585 5b37 e6ad 2535 4a8e a531
1.4651953e-11 2.6441312e-06 1.3756005e-05 1.487127e-07 4.2088766e-05 1.3084446e-05 6.1720345e-07 4.8183084e-09

exp_avg f4 [4, 8]
00000000: 9149 a433 a09b aeba c7c3 64bc 1566 9ebb
00000010: c985 1d3a 1782 aebc 6058 3dbc 365a 11b9
00000020: d035 2633 a01a 2fba e32a e5bb 0bf2 1ebb
00000030: a08a a339 32ea 2ebc 9122 bdbb 51ca 91b8
00000040: fcb8 fc32 a1df 04ba e7e3 adbb ef4b f1ba
00000050: 1824 7a39 7ab5 04bc ee60 8fbb 5851 5db8
00000060: ede5 9b32 fa32 a4b9 5a5f 56bb e7d1 94ba
00000070: 9d04 1939 bf05 a4bb 2750 31bb 0977 08b8
7.650227e-08 -0.0013321526 -0.013962693 -0.0048339465 0.000600901 -0.021302266 -0.011556715 -0.00013861884
3.869883e-08 -0.00066796876 -0.006993638 -0.0024253156 0.00031193066 -0.010675954 -0.005771943 -6.951823e-05
2.9420782e-08 -0.00050687237 -0.005306709 -0.0018409471 0.00023855304 -0.008099908 -0.0043755686 -5.2766263e-05
1.8148933e-08 -0.00031318498 -0.0032710643 -0.001135406 0.00014592936 -0.005005568 -0.002705583 -3.2535787e-05

exp_avg_sq f4 [4, 8]
00000000: 351e fa2e 8270 9937 1022 633d 97d9 413a
00000010: 7e2e 353d 9e92 a93a 2ffc 1d3c add6 2e35
00000020: 5568 762e 0ec3 0237 320e 0a3d dd52 e339
00000030: ec0d ea3c db78 523a 751d bf3b 1d80 b934
00000040: be1d 242e 81a4 a736 70f0 bc3c 66c4 9a39
00000050: 4400 a23c cd80 113a 1ff6 823b 0b9e 7734
00000060: 4c68 de2c 9125 ad35 4037 253b 8bc3 1538
00000070: 35fc 053b 2b75 8938 74e3 f939 b81c 0f33
1.13740496e-10 1.8291412e-05 0.055452406 0.0007394789 0.04423379 0.0012937372 0.009642645 6.5132446e-07
5.602659e-11 7.7940185e-06 0.033704944 0.00043358552 0.028571092 0.0008028873 0.005832369 3.455215e-07
3.73157e-11 4.9961386e-06 0.023063868 0.00029519497 0.019775517 0.0005550504 0.003996625 2.3061163e-07
6.3211988e-12 1.2900438e-06 0.0025209934 3.5706482e-05 0.0020444517 6.554493e-05 0.00047662447 3.33209e-08

exp_avg f4 [4]
00000000: e44d 9abb 2472 1abb 304b eaba 4cc0 90ba
-0.0047089923 -0.0023566568 -0.0017875191 -0.0011043637

exp_avg_sq f4 [4]
00000000: ab21 1a39 d7dc c638 a1d6 8938 3bea ef36
0.00014699127 9.48251e-05 6.572647e-05 7.150023e-06

exp_avg f4 [1, 4]
00000000: 6eda 2e3c 5446 ae3b 6775 39bc 9c17 0c3c
0.010672195 0.0053184424 -0.011319495 0.008550551

exp_avg_sq f4 [1, 4]
00000000: a847 2b3a 46d2 183d 7175 1c3d 4caf 0c3b
0.000653381 0.037309907 0.03819794 0.002146679
