deeper_null/lightning_logs/version_4/checkpoints/epoch=86-step=87.ckpt (torch, 13936 bytes, 21 tensors)

model.layers.0.weight f4 [10, 2]
000000 75 a1 cf be 34 4e 8f be 27 66 f0 be ae db 22 3f
       -0.4055287 -0.27989352 -0.46952936 0.63616455
000010 57 32 80 3e 3e 47 8c bd 50 56 26 bf 8d a2 6f 3e
       0.25038406 -0.06849526 -0.6497545 0.23401852
000020 e3 9d 16 3f 9a 3d cf 3d a7 79 dd 3e 85 49 7a 3e
       0.58834666 0.101191714 0.43256876 0.24442108
000030 96 e9 07 be ab 23 d6 be 2e 35 58 be 23 39 0a 3f
       -0.132727 -0.41824088 -0.21114036 0.53993434
000040 8a 19 f9 3e bb e7 d1 3e 42 46 df 3e 72 0a 61 3e
       0.48652297 0.4099711 0.4360829 0.21976641

model.layers.0.bias f4 [10]
000000 78 90 ad be c8 44 90 be fa 76 f5 3e 52 b8 1e 3f
       -0.33899283 -0.28177476 0.47942334 0.62
000010 82 ea 1e bf 82 72 8f 3e 1f b7 6b be d0 f8 b9 be
       -0.6207658 0.2801705 -0.23019074 -0.3632264
000020 ad 11 0b be c0 ba 84 3e
       -0.13580962 0.2592373

model.layers.3.weight f4 [8, 10]
000000 6b 70 2e be c4 15 52 be 03 30 8a ba b4 ec dc 3d
       -0.17035072 -0.20516115 -0.0010542873 0.10787335
000010 bb ef ad bc 58 8e 8f 3c c1 6b 9c be d9 4b 19 3e
       -0.021232476 0.01752393 -0.3055096 0.1497034
000020 a4 4e 9f 3e 50 c3 fa bd 2a b7 29 bb f6 fc 14 be
       0.31114686 -0.12244284 -0.0025896528 -0.14549622
000030 aa 89 3f 3e 81 22 90 be 5b 05 a2 3d 66 25 86 be
       0.18704858 -0.28151324 0.07911178 -0.26200408
000040 f4 57 0e bd 4c 95 7b be 4b 67 31 3e e2 2f 07 3e
       -0.034751847 -0.24568671 0.1732456 0.1320186
000050 21 90 9c 3e e9 51 9a be df f3 b9 3d fd e6 80 3e
       0.30578712 -0.30140617 0.09079718 0.2517623
000060 2f 81 0e be 29 e4 da 3d 4e f2 00 3e 10 bc 92 3b
       -0.13916467 0.10688049 0.12592432 0.004477985
000070 63 5f 34 be 72 f0 67 be 7d a1 85 3e 48 10 3d 3e
       -0.17614512 -0.22650316 0.26099768 0.18463242
000080 c2 df 0a 3e 80 39 8d 3e d9 5d fc bd 0d 47 07 3e
       0.1356192 0.27582932 -0.123225875 0.13210697
000090 82 d9 55 3d b1 1e 37 3e fb 0a 9e 3d 66 55 a4 3e
       0.052209385 0.17882802 0.07716938 0.32096404
0000a0 72 1b 16 3e 19 89 b3 3d 55 78 39 be cc b5 8a 3e
       0.14658907 0.08766384 -0.1811231 0.27091825
0000b0 55 f1 b8 3e 9f 17 5a be 22 fb b9 bd 66 4c 56 3e
       0.36121622 -0.21298073 -0.09081103 0.20927581
0000c0 6c 34 82 3e b2 99 37 be ad f7 84 be 0e 71 65 be
       0.2543062 -0.17929724 -0.25970212 -0.22406408
0000d0 e4 50 42 3e f9 47 50 be 6a db ea bd f5 40 43 be
       0.1897617 -0.20339955 -0.11467631 -0.19067748
0000e0 92 ca c9 bd 1e b4 d2 bd 0c bd 48 be 01 a2 e7 bb
       -0.0985309 -0.10288261 -0.19603366 -0.007068873
0000f0 6d 45 30 3e f4 17 97 bd be cb 10 bd bb 06 8e 3e
       0.17213984 -0.073776156 -0.035350554 0.2773951
000100 87 af 83 3d fd 6b a4 3e 42 1a 33 3e cd 37 6f be
       0.064299636 0.3211364 0.17490485 -0.2336113
000110 9a ce 28 3e be 63 2d 3e 06 b9 29 3e 64 64 85 3e
       0.16485062 0.1693258 0.16574487 0.26053154
000120 52 ba 7c 3e 48 c0 74 be f2 fb 9c 3c 73 a4 ea bd
       0.2468045 -0.23901474 0.019163106 -0.114571474
000130 c6 6a 76 be b0 ee 88 be a8 22 7b 3e 21 f2 ad bd
       -0.24064168 -0.26744604 0.24524939 -0.08493448

model.layers.3.bias f4 [8]
000000 62 cd 87 3e 09 c9 54 be 2b 4a c1 3d 85 f4 ab 3e
       0.26523882 -0.20779814 0.094379745 0.3358499
000010 70 46 03 3e 69 c0 19 bc bd a8 04 3e 6e 7d 7a be
       0.12819839 -0.009384253 0.12954994 -0.2446191

model.layers.6.weight f4 [4, 8]
000000 73 ef 44 be 96 65 8c 3e 4f 78 81 3e 14 f5 09 be
       -0.19231968 0.27421254 0.252871 -0.13472396
000010 c2 5b 8e be 6a 70 cc 3d 21 11 1d be c5 79 6d 3e
       -0.2780438 0.09982379 -0.15338565 0.23190983
000020 00 ab e4 bc 70 54 73 be 84 69 3c be f2 91 c1 be
       -0.02791357 -0.23762679 -0.18399626 -0.3780666
000030 d8 fc 30 bd 23 53 8e 3d 4e d9 81 3e 6d 70 5d be
       -0.04320988 0.06949451 0.25361103 -0.21624918
000040 a7 a4 9d 3e 7a 78 8a be f1 0f 9a be 0c 8f 91 3d
       0.30789682 -0.2704504 -0.30090287 0.07107362
000050 d0 c2 7d bc a7 f3 59 be 06 fb 50 3e c4 29 b3 be
       -0.015488341 -0.21284352 0.20408258 -0.34992802
000060 96 21 0a be e2 9e 1e 3e ac 08 a2 be a3 c3 6d 3e
       -0.13489375 0.15490296 -0.3164724 0.2321916
000070 ec 9e 4b 3e d4 07 35 be 6d 67 45 3e f1 82 3b bd
       0.19884843 -0.17678767 0.19277735 -0.045779172

model.layers.6.bias f4 [4]
000000 19 3d df 3d f9 0b 9a be ce 3c 26 be 1f ea 22 3e
       0.10900325 -0.3008726 -0.16234133 0.15909623

model.layers.7.weight f4 [1, 4]
000000 42 47 9c be 1d 50 16 bd 7d ac a1 bc cd 37 be bd
       -0.30523115 -0.036697496 -0.01973557 -0.09287987

exp_avg f4 [10, 2]
000000 00 00 00 00 00 00 00 00 00 00 00 00 00 00 00 00
       0.0 0.0 0.0 0.0
000010 d3 47 96 3e 22 bb a3 bb 00 00 00 00 00 00 00 00
       0.29351673 -0.004996673 0.0 0.0
000020 23 d5 63 3e 16 7a 9e 3b c8 c1 1b bd 87 54 b7 3b
       0.22249274 0.004836331 -0.0380266 0.0055947932
000030 00 00 00 00 00 00 00 00 00 00 00 00 00 00 00 00
       0.0 0.0 0.0 0.0
000040 0c ec d9 3e c1 a6 f3 3b 36 68 54 3d 7a e2 0d bb
       0.42562902 0.00743565 0.051857196 -0.0021649883

exp_avg_sq f4 [10, 2]
000000 00 00 00 00 00 00 00 00 00 00 00 00 00 00 00 00
       0.0 0.0 0.0 0.0
000010 16 17 d7 40 5b ee 14 3a 00 00 00 00 00 00 00 00
       6.721568 0.00056812697 0.0 0.0
000020 60 41 91 3d d7 6a e9 36 8d 17 9c 3f 52 5e d1 38
       0.070925474 6.956379e-06 1.2194687 9.983465e-05
000030 00 00 00 00 00 00 00 00 00 00 00 00 00 00 00 00
       0.0 0.0 0.0 0.0
000040 12 35 c3 3f 77 5f 0c 39 6f b4 c0 3f 3c 56 07 39
       1.5250571 0.00013387004 1.5055064 0.00012906728

exp_avg f4 [10]
000000 00 00 00 00 00 00 00 00 fb a9 c1 3b 00 00 00 00
       0.0 0.0 0.005910156 0.0
000010 ff 09 8b 3b 51 68 60 ba 00 00 00 00 00 00 00 00
       0.004243135 -0.0008560466 0.0 0.0
000020 3c 9d 05 3c 3d 29 8c 3a
       0.008155163 0.0010693442

exp_avg_sq f4 [10]
000000 00 00 00 00 00 00 00 00 fa b0 25 3b 00 00 00 00
       0.0 0.0 0.0025282488 0.0
000010 8b b6 e0 37 32 a2 f0 39 00 00 00 00 00 00 00 00
       2.6787884e-05 0.00045897212 0.0 0.0
000020 99 0c 16 3a ee 58 14 3a
       0.0005723923 0.00056590035

exp_avg f4 [8, 10]
000000 00 00 00 00 00 00 00 00 88 2e 18 3c 00 00 00 00
       0.0 0.0 0.009288438 0.0
000010 da bd 8e 3e 0b 92 b6 3e 00 00 00 00 00 00 00 00
       0.2787922 0.35658297 0.0 0.0
000020 14 61 64 3e dc 58 9c 3d 00 00 00 00 00 00 00 00
       0.22302657 0.07634136 0.0 0.0
000030 66 88 90 3e 00 00 00 00 c4 fb 96 3e fc 9d 88 bc
       0.28229064 0.0 0.29488957 -0.016676895
000040 00 00 00 00 00 00 00 00 dc a4 50 3e e5 e9 ce 3e
       0.0 0.0 0.20375389 0.40412822
000050 00 00 00 00 00 00 00 00 c2 2b 2c 3a 00 00 00 00
       0.0 0.0 0.00065678 0.0
000060 93 ec 15 38 22 8a 92 3a 00 00 00 00 00 00 00 00
       3.5744695e-05 0.0011180083 0.0 0.0
000070 f6 11 2d 37 00 00 00 00 00 00 00 00 00 00 00 00
       1.0315785e-05 0.0 0.0 0.0
000080 07 03 1c bc 00 00 00 00 bd 06 bf 3d 34 4a 1a 3e
       -0.009522206 0.0 0.09327457 0.15067369
000090 00 00 00 00 00 00 00 00 4d 8a d5 3d 44 67 91 3c
       0.0 0.0 0.104267694 0.017749436
0000a0 00 00 00 00 00 00 00 00 17 29 fb 3c 00 00 00 00
       0.0 0.0 0.030659242 0.0
0000b0 d8 cc a2 3e 4d e4 c5 3e 00 00 00 00 00 00 00 00
       0.31796908 0.38650742 0.0 0.0
0000c0 ee fd 90 3e 31 f5 d4 3d 00 00 00 00 00 00 00 00
       0.28318733 0.10398329 0.0 0.0
0000d0 e6 fe 7d 39 00 00 00 00 65 77 08 37 00 00 00 00
       0.00024222917 0.0 8.13403e-06 0.0
0000e0 00 00 00 00 00 00 00 00 00 00 00 00 e8 9f d0 39
       0.0 0.0 0.0 0.0003979199
0000f0 00 00 00 00 00 00 00 00 84 5c 3d bc 00 00 00 00
       0.0 0.0 -0.011557702 0.0
000100 0b cb 18 3d 2e 0c 8f 3d 00 00 00 00 00 00 00 00
       0.037303012 0.06984745 0.0 0.0
000110 c5 cf 34 3d aa 34 2c bb 00 00 00 00 00 00 00 00
       0.044143457 -0.0026276507 0.0 0.0
000120 55 82 ef 3d 00 00 00 00 b2 ac 5b 3d d6 40 c1 bd
       0.11694781 0.0 0.053631492 -0.094361946
000130 00 00 00 00 00 00 00 00 c2 87 5b 3d a9 a4 0f 3e
       0.0 0.0 0.053596266 0.14027657

exp_avg_sq f4 [8, 10]
000000 00 00 00 00 00 00 00 00 94 d5 87 3e 00 00 00 00
       0.0 0.0 0.26530135 0.0
000010 cf 2f 88 3f 52 b5 f0 3e 00 00 00 00 00 00 00 00
       1.063959 0.47013336 0.0 0.0
000020 e7 7f 72 3f b4 ed 34 3f 00 00 00 00 00 00 00 00
       0.94726413 0.70675206 0.0 0.0
000030 48 ec 19 40 00 00 00 00 ab 53 19 41 58 e7 80 40
       2.4050465 0.0 9.582927 4.02824
000040 00 00 00 00 00 00 00 00 c6 e0 eb 40 b2 37 ca 40
       0.0 0.0 7.371188 6.3192987
000050 00 00 00 00 00 00 00 00 00 31 c5 37 00 00 00 00
       0.0 0.0 2.3507047e-05 0.0
000060 4f 9e a6 37 d4 67 31 38 00 00 00 00 00 00 00 00
       1.986246e-05 4.2296786e-05 0.0 0.0
000070 a7 c6 b5 37 00 00 00 00 00 00 00 00 00 00 00 00
       2.1669386e-05 0.0 0.0 0.0
000080 8a 77 0d 3c 00 00 00 00 7c 71 0d 3d 98 7f 82 3c
       0.008634457 0.0 0.034532055 0.015929982
000090 00 00 00 00 00 00 00 00 82 bd d7 3c 72 2d c3 3c
       0.0 0.0 0.026335482 0.023825381
0000a0 00 00 00 00 00 00 00 00 40 a8 82 3e 00 00 00 00
       0.0 0.0 0.2551899 0.0
0000b0 eb a0 9b 3f 00 69 e0 3e 00 00 00 00 00 00 00 00
       1.2158483 0.4383011 0.0 0.0
0000c0 5e 72 5e 3f b4 6e 2c 3f 00 00 00 00 00 00 00 00
       0.8689326 0.6735642 0.0 0.0
0000d0 23 af 75 36 00 00 00 00 7e fa 48 37 00 00 00 00
       3.6609788e-06 0.0 1.1979251e-05 0.0
0000e0 00 00 00 00 00 00 00 00 00 00 00 00 90 06 12 37
       0.0 0.0 0.0 8.703806e-06
0000f0 00 00 00 00 00 00 00 00 cd 3d 3e 3c 00 00 00 00
       0.0 0.0 0.011611414 0.0
000100 dd b9 3d 3d ad 37 a4 3c 00 00 00 00 00 00 00 00
       0.04631983 0.02004608 0.0 0.0
000110 c6 37 11 3d 59 54 fa 3c 00 00 00 00 00 00 00 00
       0.03545358 0.030557798 0.0 0.0
000120 8a a5 86 3f 00 00 00 00 ad 80 84 40 4f 96 df 3f
       1.0519269 0.0 4.1407075 1.7467746
000130 00 00 00 00 00 00 00 00 9a 7e 4e 40 d8 56 2e 40
       0.0 0.0 3.2264771 2.7240505

exp_avg f4 [8]
000000 be 79 ec 3b da 4d 44 3c 81 b2 49 38 3f 07 19 3b
       0.0072166612 0.011981452 4.808838e-05 0.0023350266
000010 1c 80 0d 3c 6a 9a 80 37 fe 76 4d 3a 23 30 5a 3b
       0.008636501 1.5330694e-05 0.00078378606 0.0033292852

exp_avg_sq f4 [8]
000000 32 ba 95 3a d3 26 21 3c 59 49 b3 33 e0 5b 1b 38
       0.0011423288 0.009835917 8.348679e-08 3.7040445e-05
000010 dd 4f 8b 3a 75 fb 5c 32 50 6f 4a 38 b0 88 8b 3b
       0.001062866 1.286286e-08 4.826422e-05 0.004258238

exp_avg f4 [4, 8]
000000 6c 3d 98 be b5 a6 1a 3f f2 29 c2 3a 67 43 40 be
       -0.2973436 0.60410625 0.0014813526 -0.18775712
000010 00 88 bd be 96 61 7d 3a 5a 6a 16 bf 14 67 75 3e
       -0.37017822 0.00096657255 -0.5875603 0.23965102
000020 32 07 15 bd df 92 84 3d 1a c1 33 39 9d b0 d8 bc
       -0.036383815 0.06473326 0.00017142706 -0.026451403
000030 ab 13 3b bd 20 c3 e8 38 83 a2 9b bd 2d 1d c0 3c
       -0.045673054 0.00011098967 -0.07599356 0.023451412
000040 cf 18 97 bc ad 5b 08 3d cf 5a b8 38 5f 26 5a bc
       -0.018444447 0.033290554 8.790718e-05 -0.013314812
000050 c9 9e bd bc 11 44 71 38 13 f4 1c bd dc 8b 47 3c
       -0.023147004 5.752227e-05 -0.038318705 0.012179341
000060 63 52 b6 bd e2 ec 3f 3e 79 59 ec 39 30 5f 5c bd
       -0.08902433 0.18742707 0.0004508009 -0.053801715
000070 6d 5c e2 bd df c8 9a 39 86 00 31 be 63 aa 9b 3d
       -0.11052785 0.0002952283 -0.17285356 0.07600858

exp_avg_sq f4 [4, 8]
000000 62 f2 2d 3e 02 be 1c 41 19 bd 3c 36 e9 4d 59 40
       0.16986993 9.796389 2.8124252e-06 3.3953803
000010 90 fe 34 3f 76 38 06 36 7c cf 18 41 3d ac db 40
       0.7070093 2.000042e-06 9.550655 6.864775
000020 b5 5c 19 3a 65 4b e9 3b 4a c4 4e 31 42 ca 72 3b
       0.0005850301 0.0071195834 3.0088523e-09 0.0037046825
000030 58 7a ab 3a 35 4e 34 31 2f c8 42 3c e2 9d 97 3b
       0.0013082726 2.6237903e-09 0.011888548 0.0046269754
000040 2b ed 59 39 43 12 94 3b de 86 05 31 8e 0f 00 3b
       0.00020783085 0.0045187785 1.943071e-09 0.0019540521
000050 d9 ef 08 3a b0 a2 ab 30 16 0b b5 3b af 76 49 3b
       0.00052237284 1.2488126e-09 0.005525003 0.0030740907
000060 32 da b0 3c 98 06 bc 3f 9b f2 e6 34 04 b0 ff 3e
       0.021588419 1.4689512 4.3017357e-07 0.49938977
000070 8e bf c9 3d 30 f4 9e 34 cb ca b0 3f a7 1f 84 3f
       0.09850989 2.9607463e-07 1.3811888 1.032216

exp_avg f4 [4]
000000 38 1c b9 3b 5b 14 e3 38 7c 57 b3 38 c9 68 0a 3b
       0.005649116 0.00010827995 8.5516804e-05 0.0021119586

exp_avg_sq f4 [4]
000000 c2 6b 81 3d c5 d3 84 38 88 d3 09 38 f9 28 18 3c
       0.06319381 6.333696e-05 3.286035e-05 0.009287112

exp_avg f4 [1, 4]
000000 40 7c d3 bf 85 92 41 3f 26 ad bd 3f 45 f4 a8 3e
       -1.6522293 0.75614196 1.4818466 0.32998863

exp_avg_sq f4 [1, 4]
000000 7d e0 07 41 d1 59 c1 40 38 62 9d 40 c2 af 09 42
       8.492307 6.042214 4.9182396 34.42164
