deeper_null/lightning_logs/version_28/checkpoints/epoch=9-step=10.ckpt (torch, 13936 bytes, 21 tensors)

model.layers.0.weight f4 [10, 2]
000000 60 7c 7a be 40 19 2e bf e2 94 8a 3e 33 b5 6f be
       -0.24461508 -0.6800728 0.27066714 -0.23408966
000010 8a 09 f7 3c a8 36 0b bf 8f c9 e1 bd 1d 4e 1c be
       0.030155916 -0.54380274 -0.110247724 -0.15264173
000020 93 96 12 bf 2c 55 9e be eb 0b af be 91 1a 01 be
       -0.5726101 -0.30924356 -0.3418878 -0.1260779
000030 76 ac a2 3e 99 5c 93 3d 71 fd 07 bf b5 bf 21 bf
       0.31772202 0.07195396 -0.53121096 -0.63183147
000040 f7 d3 d5 bd 57 fb 31 3f 38 28 a8 bd 96 e0 f6 bd
       -0.1044082 0.6952414 -0.08210796 -0.12054555

model.layers.0.bias f4 [10]
000000 8c 17 2e bf 2c f2 6f be 18 53 2b 3f ed a2 0a 3d
       -0.6800468 -0.23432225 0.66923666 0.033846784
000010 ec 9c 61 be 9d d1 28 bf 37 83 26 3f 33 52 be be
       -0.22032517 -0.65944844 0.6504397 -0.37172088
000020 f5 8d 30 bf 2d ed d9 be
       -0.6896661 -0.42563763

model.layers.3.weight f4 [8, 10]
000000 f2 3d 9d be 34 be 8a be c7 96 53 be 26 b0 73 be
       -0.30711323 -0.27098238 -0.20662986 -0.23797664
000010 58 90 d2 3c cc b3 1b bd d6 e8 67 3e c7 11 02 3e
       0.025703594 -0.038013265 0.22647414 0.12702094
000020 f7 23 88 3e 9b cf 8e bd ce a9 8c bc a6 5a 60 be
       0.2658994 -0.06973191 -0.017170813 -0.2190958
000030 b0 69 29 be 2f 85 b3 bd 95 90 12 be 80 63 82 be
       -0.16544223 -0.08765637 -0.14312966 -0.25466537
000040 7d 62 58 bd ed ee e7 bb e5 50 de 3d d2 72 97 be
       -0.0528283 -0.0070780427 0.10855273 -0.29579788
000050 d6 93 e8 bd 3e 94 79 3e 84 29 6d 3d af e8 84 bc
       -0.113563225 0.24372956 0.05790092 -0.016224233
000060 a5 bb 93 3e 93 60 02 bd 1d 3a e9 bd 35 19 c9 bd
       0.288541 -0.03183038 -0.11388037 -0.09819261
000070 e5 94 19 3e 0e 34 4a be d9 e5 c6 3d fc 00 67 be
       0.14998205 -0.1974642 0.09711809 -0.2255897
000080 f2 c6 9c 3e 5e 19 49 3e 94 12 3b be 34 b5 18 3e
       0.30620533 0.19638583 -0.18268806 0.14912874
000090 39 3d a5 3e e4 82 9b be ea ed 91 3e dc 17 08 3e
       0.32273272 -0.303733 0.28501827 0.13290352
0000a0 30 4d 92 bd 23 ea df 3d ed 09 22 3e 69 6d 00 be
       -0.071436286 0.1093333 0.15824099 -0.12541737
0000b0 9a e2 35 3e dc c7 1e 3e 92 99 1b 3e e2 fa 6a be
       0.17762223 0.15505928 0.15195301 -0.22947267
0000c0 39 13 43 3e b5 74 a7 bd 2a e3 4d be 68 9a c3 3c
       0.19050302 -0.08176557 -0.20106187 0.023877338
0000d0 b5 31 9f be 7e f2 72 be a2 03 80 bd 60 10 19 be
       -0.3109261 -0.23725316 -0.06250693 -0.14947653
0000e0 d9 bf 61 be fc c6 b7 3d d4 d4 79 bd 45 e3 81 3d
       -0.2204584 0.089735 -0.060993984 0.06342176
0000f0 c7 a2 ae bd 7e d9 87 3d 21 f3 21 3e 77 98 45 be
       -0.08527141 0.0663328 0.15815403 -0.19296442
000100 96 e6 47 3d 51 8b 7e be d5 ed 8c bd 7c 47 47 3e
       0.04880389 -0.24857832 -0.068813 0.19460863
000110 68 aa 31 bd fc 7e 27 3e e4 fa 0b be 45 f8 9c 3e
       -0.043375403 0.16357034 -0.13669926 0.30658165
000120 ce 18 15 3e 2c 72 06 be db bd 0e be 1e ae d7 3d
       0.14560243 -0.1312949 -0.13939612 0.10531257
000130 1b 9f b5 3d a4 cb 8f bd f3 7c 21 3e db d2 19 3e
       0.088682376 -0.07021263 0.1577032 0.15021841

model.layers.3.bias f4 [8]
000000 9b 27 4c 3e 4a 47 a1 be a2 72 15 3e 4b f9 e4 3d
       0.19936983 -0.31499702 0.1459451 0.11180361
000010 bb 3f 57 be c3 5d c2 bd 33 ea 77 be 35 b9 23 bd
       -0.21020405 -0.0949054 -0.24210434 -0.03997155

model.layers.6.weight f4 [4, 8]
000000 6f 31 06 bd 29 7c 57 3e 31 a6 b5 bd 08 7b f5 3d
       -0.032761987 0.21043457 -0.08869589 0.11986357
000010 ce cb d3 3d 45 a8 a7 be 5b d8 b9 bd bd 2d 0d bd
       0.10341607 -0.32745567 -0.0907447 -0.034467448
000020 40 9b 45 3d 90 ff 37 bc 88 e2 58 3e df 25 5a be
       0.04824376 -0.011230364 0.21180165 -0.21303509
000030 72 f1 35 3d 65 24 49 be de 20 5a bb 70 6c 4d 3e
       0.044419713 -0.1964279 -0.003328375 0.20060897
000040 cd 8a 93 be 73 fa 8b 3e da 55 e8 bd a7 8d 46 bd
       -0.28816834 0.27339515 -0.113445 -0.048474934
000050 2b cf 75 3d c6 9e f2 bd fe 4e a2 3e 1c 3d aa be
       0.060012024 -0.1184669 0.3170089 -0.33249748
000060 5e 5e 08 3e 31 6a 36 be fe 0c 97 3e 85 d4 29 3e
       0.13317248 -0.17813946 0.295021 0.16584976
000070 f9 4b 99 be 97 80 82 3c d2 33 b5 bc f5 83 8c 3e
       -0.29940775 0.015930457 -0.022119436 0.27444425

model.layers.6.bias f4 [4]
000000 a3 ae 6d 3e e8 a3 fa bd bd 1d a5 be 3a 58 a8 3e
       0.2321115 -0.12238294 -0.3224925 0.32879812

model.layers.7.weight f4 [1, 4]
000000 aa a1 8a 3e 4f b2 e1 be 90 df 16 3e 7f 3b 87 3e
       0.27076465 -0.4408135 0.1473372 0.2641258

exp_avg f4 [10, 2]
000000 00 00 00 00 00 00 00 00 b6 e3 4e 40 46 4e 9a 3c
       0.0 0.0 3.2326484 0.018836152
000010 64 cc 89 be c4 2f 1c ba 00 00 00 00 00 00 00 00
       -0.2691375 -0.00059580454 0.0 0.0
000020 00 00 00 00 00 00 00 00 00 00 00 00 00 00 00 00
       0.0 0.0 0.0 0.0
000030 6b 84 74 bf 6d 5c 63 bb 00 00 00 00 00 00 00 00
       -0.95514554 -0.0034692541 0.0 0.0
000040 00 00 00 00 00 00 00 00 00 00 00 00 00 00 00 00
       0.0 0.0 0.0 0.0

exp_avg_sq f4 [10, 2]
000000 00 00 00 00 00 00 00 00 eb bd 9b 3e 83 b4 44 37
       0.0 0.0 0.30418333 1.1724539e-05
000010 4a f9 1a 3b 88 9d a7 33 00 00 00 00 00 00 00 00
       0.0023647123 7.805198e-08 0.0 0.0
000020 00 00 00 00 00 00 00 00 00 00 00 00 00 00 00 00
       0.0 0.0 0.0 0.0
000030 8b 09 d1 3c 91 64 0e 35 00 00 00 00 00 00 00 00
       0.025517246 5.3045466e-07 0.0 0.0
000040 00 00 00 00 00 00 00 00 00 00 00 00 00 00 00 00
       0.0 0.0 0.0 0.0

exp_avg f4 [10]
000000 00 00 00 00 c4 c0 7a 3d 4a a4 a2 bb 00 00 00 00
       0.0 0.061218992 -0.0049634324 0.0
000010 00 00 00 00 00 00 00 00 db cf 91 bc 00 00 00 00
       0.0 0.0 -0.017799309 0.0
000020 00 00 00 00 00 00 00 00
       0.0 0.0

exp_avg_sq f4 [10]
000000 00 00 00 00 63 a6 e5 38 36 23 5f 35 00 00 00 00
       0.0 0.00010950563 8.312521e-07 0.0
000010 00 00 00 00 00 00 00 00 62 3d 15 37 00 00 00 00
       0.0 0.0 8.895384e-06 0.0
000020 00 00 00 00 00 00 00 00
       0.0 0.0

exp_avg f4 [8, 10]
000000 00 00 00 00 73 b7 14 3e 20 00 1d 3c 00 00 00 00
       0.0 0.14523105 0.009582549 0.0
000010 00 00 00 00 00 00 00 00 11 77 12 3e 00 00 00 00
       0.0 0.0 0.14303233 0.0
000020 00 00 00 00 00 00 00 00 00 00 00 00 00 00 00 00
       0.0 0.0 0.0 0.0
000030 00 00 00 00 00 00 00 00 00 00 00 00 00 00 00 00
       0.0 0.0 0.0 0.0
000040 00 00 00 00 00 00 00 00 00 00 00 00 00 00 00 00
       0.0 0.0 0.0 0.0
000050 00 00 00 00 a3 74 3d 3f a2 3f ad 3d 00 00 00 00
       0.0 0.740061 0.084594026 0.0
000060 00 00 00 00 00 00 00 00 1d df 44 3f 00 00 00 00
       0.0 0.0 0.76902944 0.0
000070 00 00 00 00 00 00 00 00 00 00 00 00 30 bd b1 bf
       0.0 0.0 0.0 -1.388586
000080 dc f5 11 be 00 00 00 00 00 00 00 00 00 00 00 00
       -0.14253944 0.0 0.0 0.0
000090 d8 90 bd bf 00 00 00 00 00 00 00 00 00 00 00 00
       -1.4809828 0.0 0.0 0.0
0000a0 00 00 00 00 09 fa 46 3f 26 94 ab 3d 00 00 00 00
       0.0 0.77725273 0.083778664 0.0
0000b0 00 00 00 00 00 00 00 00 03 79 3f 3f 00 00 00 00
       0.0 0.0 0.74794024 0.0
0000c0 00 00 00 00 00 00 00 00 00 00 00 00 c1 5c 63 3b
       0.0 0.0 0.0 0.0034692737
0000d0 e5 44 46 38 00 00 00 00 00 00 00 00 00 00 00 00
       4.727104e-05 0.0 0.0 0.0
0000e0 00 00 00 00 00 00 00 00 00 00 00 00 00 00 00 00
       0.0 0.0 0.0 0.0
0000f0 00 00 00 00 4c 17 b9 bc bb fb 2e bb 00 00 00 00
       0.0 -0.022594117 -0.0026700336 0.0
000100 00 00 00 00 00 00 00 00 00 00 00 00 00 00 00 00
       0.0 0.0 0.0 0.0
000110 00 00 00 00 00 00 00 00 00 00 00 00 2e 3b 83 3f
       0.0 0.0 0.0 1.0252435
000120 c8 59 e2 3d 00 00 00 00 00 00 00 00 00 00 00 00
       0.11052281 0.0 0.0 0.0
000130 80 7d 7d 3f 00 00 00 00 00 00 00 00 00 00 00 00
       0.9901962 0.0 0.0 0.0

exp_avg_sq f4 [8, 10]
000000 00 00 00 00 c0 6f 4f 3a 38 72 a0 36 00 00 00 00
       0.0 0.00079130754 4.7816684e-06 0.0
000010 00 00 00 00 00 00 00 00 30 12 6b 3a 00 00 00 00
       0.0 0.0 0.0008967249 0.0
000020 00 00 00 00 00 00 00 00 00 00 00 00 00 00 00 00
       0.0 0.0 0.0 0.0
000030 00 00 00 00 00 00 00 00 00 00 00 00 00 00 00 00
       0.0 0.0 0.0 0.0
000040 00 00 00 00 00 00 00 00 00 00 00 00 00 00 00 00
       0.0 0.0 0.0 0.0
000050 00 00 00 00 8e 64 86 3c d6 7f 4b 39 00 00 00 00
       0.0 0.01640537 0.00019407211 0.0
000060 00 00 00 00 00 00 00 00 8d 02 93 3c 00 00 00 00
       0.0 0.0 0.017945552 0.0
000070 00 00 00 00 00 00 00 00 00 00 00 00 19 13 65 3d
       0.0 0.0 0.0 0.055926416
000080 08 db 11 3a 00 00 00 00 00 00 00 00 00 00 00 00
       0.0005563949 0.0 0.0 0.0
000090 6e c4 86 3d 00 00 00 00 00 00 00 00 00 00 00 00
       0.06580435 0.0 0.0 0.0
0000a0 00 00 00 00 eb cf 8e 3c 55 2e 45 39 00 00 00 00
       0.0 0.017433127 0.00018804644 0.0
0000b0 00 00 00 00 00 00 00 00 5d 5a 8a 3c 00 00 00 00
       0.0 0.0 0.016888792 0.0
0000c0 00 00 00 00 00 00 00 00 00 00 00 00 cb 16 17 35
       0.0 0.0 0.0 5.628505e-07
0000d0 9d c7 ca 30 00 00 00 00 00 00 00 00 00 00 00 00
       1.4754168e-09 0.0 0.0 0.0
0000e0 00 00 00 00 00 00 00 00 00 00 00 00 00 00 00 00
       0.0 0.0 0.0 0.0
0000f0 00 00 00 00 d8 36 3e 37 cb f0 26 34 00 00 00 00
       0.0 1.1337652e-05 1.5547555e-07 0.0
000100 00 00 00 00 00 00 00 00 00 00 00 00 00 00 00 00
       0.0 0.0 0.0 0.0
000110 00 00 00 00 00 00 00 00 00 00 00 00 6a a2 fc 3c
       0.0 0.0 0.0 0.030839164
000120 4c e8 ad 39 00 00 00 00 00 00 00 00 00 00 00 00
       0.00033170206 0.0 0.0 0.0
000130 09 4c f6 3c 00 00 00 00 00 00 00 00 00 00 00 00
       0.030065553 0.0 0.0 0.0

exp_avg f4 [8]
000000 79 9d 00 3c 00 00 00 00 1d cf 3f 3d 28 bf 9d bd
       0.007850044 0.0 0.046828378 -0.07702476
000010 62 8d 3b 3d 39 76 61 39 fc ec be ba 95 b1 78 3d
       0.04578913 0.00021501713 -0.0014566476 0.06071623

exp_avg_sq f4 [8]
000000 cc c8 3b 36 00 00 00 00 17 07 89 38 68 e6 3d 39
       2.798205e-06 0.0 6.53399e-05 0.00018110278
000010 4c 88 81 38 5a 62 05 31 03 60 4a 33 e7 72 e7 38
       6.1765866e-05 1.9409954e-09 4.7119112e-08 0.000110363406

exp_avg f4 [4, 8]
000000 1f b7 32 3d 00 00 00 00 a0 07 ee be ba 9b ae be
       0.04363167 0.0 -0.46490192 -0.34103185
000010 8a 8b 57 bf d8 81 6a ba 58 dd d9 bc fb 48 ad bf
       -0.84197295 -0.000894574 -0.026594803 -1.3537897
000020 64 86 94 bd 00 00 00 00 01 cc 47 3f d6 bb 12 3f
       -0.072521955 0.0 0.7804566 0.57317865
000030 be f8 b4 3f 2b 05 c4 3a a5 f5 35 3d 2c 6a 11 40
       1.413841 0.0014955153 0.044423718 2.2721052
000040 f1 94 c9 3c 00 00 00 00 6a 8d 88 be db bc 48 be
       0.024607154 0.0 -0.2667039 -0.19603293
000050 2b 6b f7 be ec 92 05 ba 01 d7 77 bc ba bb 46 bf
       -0.4832395 -0.00050954404 -0.0151269445 -0.776302
000060 6d 52 2e 3d 00 00 00 00 02 2a e8 be fb 4d aa be
       0.042559076 0.0 -0.4534455 -0.3326262
000070 b8 3b 52 bf ec bb 64 ba 92 80 d4 bc e4 03 a9 bf
       -0.82122374 -0.00087255123 -0.025940213 -1.3204312

exp_avg_sq f4 [4, 8]
000000 ec e5 32 38 00 00 00 00 01 1d c8 3b 2c 2b 65 3b
       4.265264e-05 0.0 0.006106973 0.003496836
000010 2c 15 a6 3c 45 fb a9 32 1b c0 86 37 15 8e 50 3d
       0.020273767 1.9788454e-08 1.60635e-05 0.05091675
000020 4c e2 f6 38 00 00 00 00 a3 7b 8f 3c 88 b1 24 3c
       0.00011772345 0.0 0.01751501 0.010052092
000030 f6 3e 6e 3d 08 f2 6f 33 ed 7a 3d 38 d8 5b 15 3e
       0.058165513 5.586665e-08 4.5175595e-05 0.14585817
000040 c3 47 63 37 00 00 00 00 c0 c0 07 3b 3c 10 9c 3a
       1.3546963e-05 0.0 0.0020714253 0.0011906694
000050 bc 75 e1 3b a1 85 e0 31 54 d1 b0 36 d3 31 8d 3c
       0.00688049 6.53445e-09 5.2695777e-06 0.017235672
000060 3d 36 2a 38 00 00 00 00 43 59 be 3b ee fb 59 3b
       4.058167e-05 0.0 0.0058089807 0.0033261734
000070 93 fa 9d 3c 93 b4 a1 32 46 31 80 37 74 61 46 3d
       0.019284522 1.8824982e-08 1.5281734e-05 0.048432782

exp_avg f4 [4]
000000 50 8d 32 be 0e df 95 3e 06 dc cc bd f3 26 2e be
       -0.17436719 0.2927174 -0.10002904 -0.17007045

exp_avg_sq f4 [4]
000000 1e 51 60 3a 6b bf 20 3b d2 06 98 39 70 5f 55 3a
       0.0008557009 0.0024528157 0.0002899678 0.00081395265

exp_avg f4 [1, 4]
000000 e4 7f 72 be e1 c4 9d bf 02 e0 fa 3f bf 91 a7 bf
       -0.23681599 -1.2325708 1.9599612 -1.3091353

exp_avg_sq f4 [1, 4]
000000 f8 ae c3 3a 48 cf 32 3d ac a9 e5 3d ed f1 41 3d
       0.0014929464 0.04365471 0.11214003 0.04734986
