deeper_null/lightning_logs/version_44/checkpoints/epoch=9-step=10.ckpt (torch, 14192 bytes, 21 tensors)

model.layers.0.weight f4 [10, 2]
0	0xbd96bbb3	-0.073600195
1	0xbec3a4b4	-0.38211596
2	0xbf335df5	-0.7006524
3	0x3e470cfd	0.19438548
4	0xbdb5ba96	-0.08873479
5	0x3efe2da5	0.496442
6	0xbd9dddb7	-0.077083044
7	0x3f00127c	0.50028205
8	0x3eb64199	0.35596922
9	0xbe8e0c16	-0.27743596
10	0xbe8361d2	-0.25660568
11	0xbc34d6fd	-0.011037585
12	0xbf1fee2b	-0.6247279
13	0xbf049fa7	-0.5180611
14	0x3dd515a1	0.10404516
15	0x3ec1b407	0.37832662
16	0x3d4f6155	0.050629932
17	0x3cd0316a	0.025414187
18	0x3dab35ad	0.08359847
19	0x3ede72ca	0.43446952

model.layers.0.bias f4 [10]
0	0xbeb8c3c4	-0.36086857
1	0x3f2ed27a	0.6828991
2	0xbe4641ea	-0.19361082
3	0x3ef48b14	0.47762358
4	0x3eca1639	0.3947008
5	0x3dae9865	0.08525161
6	0xbdd97f00	-0.106199265
7	0x3e074f7f	0.13213919
8	0x3ebeb5e0	0.37248135
9	0x3e9e6aa3	0.30940732

model.layers.3.weight f4 [8, 10]
0	0x3e95e4d6	0.2927615
1	0xbd82b7bc	-0.06382701
2	0x3e4c2ab8	0.19938171
3	0xbe6196c7	-0.22030173
4	0x3bd99851	0.006640472
5	0xbe0d8859	-0.13821544
6	0xbe80ca0e	-0.25154155
7	0x3db717be	0.08940075
8	0x3d00ac32	0.03141422
9	0x3cf1c75f	0.029514013
10	0x3e8d721b	0.27626118
11	0x3e49f3c3	0.19721894
12	0xbdc461f8	-0.095889986
13	0x3d559d08	0.05215171
14	0xbdcdc16d	-0.10046659
15	0xbbb398fd	-0.005480884
16	0xbdd73b03	-0.105093025
17	0xbd852d8b	-0.06502827
18	0xbe0c6446	-0.13710126
19	0xbe869446	-0.26285
20	0xbe9d68b2	-0.3074394
21	0xbd8f9457	-0.070107155
22	0x3c733b25	0.014845644
23	0x3d9231a3	0.07138374
24	0x3e2b5290	0.16730714
25	0x3ddb3f07	0.10705381
26	0x3e4ada3b	0.19809811
27	0xbe1f9c56	-0.15586981
28	0x3e2a21dc	0.16614479
29	0x3e8d0c39	0.27548388
30	0x3e837e45	0.25682274
31	0xbd13123c	-0.03590606
32	0x3e6bf18a	0.23041359
33	0xbe01d31f	-0.12678193
34	0x3dc0f6bc	0.09422061
35	0xbe8c6c6d	-0.27426472
36	0xbdce73bd	-0.10080669
37	0xbe52315d	-0.20526643
38	0xbcf3eb58	-0.029775307
39	0x3e1c0e45	0.15239818
40	0xbd0db032	-0.03459186
41	0xbe099675	-0.13436301
42	0xbe462095	-0.19348367
43	0xbdaff858	-0.0859229
44	0x3e1378d7	0.14401565
45	0xbe5652d7	-0.20930038
46	0x3e24c942	0.16092399
47	0xbe6be9d2	-0.23038414
48	0x3d55bfba	0.052184798
49	0xbe986324	-0.29763138
50	0x3d331232	0.043718524
51	0xbe48bc4c	-0.1960308
52	0x3e4a445c	0.1975264
53	0xbdeba7cc	-0.11506614
54	0xbe8b6065	-0.2722198
55	0xbe8dfccf	-0.2773194
56	0xbe3413e7	-0.17585717
57	0x3daa0475	0.08301631
58	0x3dac2cb1	0.08406962
59	0xbd2d90e4	-0.042374507
60	0xbd13b06e	-0.03605693
61	0xbb714fba	-0.0036821202
62	0xbe81e104	-0.25366986
63	0x3bead1a2	0.0071661035
64	0xbe694ba0	-0.22782755
65	0xbb3d108e	-0.0028848979
66	0xbe9aeebb	-0.30260262
67	0x3e31d68d	0.17367001
68	0x3e5a44c7	0.21315299
69	0x3e8022f5	0.2502667
70	0xbe895321	-0.26821235
71	0xbe3a4df7	-0.18193804
72	0x3d8219c8	0.06352574
73	0xbe193088	-0.1495992
74	0x3ea41eba	0.32054693
75	0x3ea16335	0.31521
76	0xbe52b36d	-0.20576258
77	0xbe285067	-0.16436921
78	0x3e2b9720	0.16756868
79	0xbd95c5dc	-0.07313129

model.layers.3.bias f4 [8]
0	0xbe421378	-0.18952739
1	0x3db39a92	0.08769716
2	0x3ddd2a9c	0.10799143
3	0xbe0f3f9b	-0.13989107
4	0x3e6232b5	0.22089656
5	0x3e47f987	0.19528781
6	0x3b999294	0.004686663
7	0x3e26501d	0.16241498

model.layers.6.weight f4 [4, 8]
0	0xbe96637c	-0.29372776
1	0x3e7464b8	0.23866546
2	0xbe52801b	-0.20556681
3	0xbe3b0251	-0.18262602
4	0xbda49997	-0.080371074
5	0x3e0525a1	0.13002636
6	0xbc826f44	-0.015922196
7	0x3e742a44	0.23844248
8	0x3e14d5ee	0.14534733
9	0x3ea6acc6	0.3255369
10	0x3d937791	0.0720054
11	0xbd6bf2e2	-0.057604678
12	0xbd0487b3	-0.032355975
13	0x3e232e5f	0.15935658
14	0x3dd87bd3	0.105704926
15	0xbe6ca02f	-0.2310798
16	0x3d8a2ca2	0.06746794
17	0x3e729c88	0.23692524
18	0xbea8f578	-0.32999778
19	0xbea1201e	-0.31469816
20	0xbe1739ea	-0.14768186
21	0xbe6f2ca2	-0.2335687
22	0x3e172b40	0.14762592
23	0x3dce6674	0.10078135
24	0xbea89f10	-0.32933855
25	0x3de3ec5f	0.111290686
26	0x3e5a73df	0.21333264
27	0x3ea2d5b3	0.31803665
28	0x3d15e079	0.036591027
29	0x3cc51f72	0.024062846
30	0xbe31b6d8	-0.17354906
31	0x3c0b0cab	0.008486907

model.layers.6.bias f4 [4]
0	0xbe912ac8	-0.28352952
1	0x3e8f8c2b	0.28036627
2	0xbea24f9f	-0.3170137
3	0x3e83a97e	0.2571525

model.layers.7.weight f4 [1, 4]
0	0x3e60b4a7	0.21943913
1	0x3ec4f8e7	0.38471147
2	0xbea45f65	-0.3210403
3	0x3e4023c7	0.18763648

exp_avg f4 [10, 2]
0	0x00000000	0.0
1	0x00000000	0.0
2	0x00000000	0.0
3	0x00000000	0.0
4	0x00000000	0.0
5	0x00000000	0.0
6	0x00000000	0.0
7	0x00000000	0.0
8	0x3ecf10d3	0.40442523
9	0x3bd3d297	0.0064643133
10	0x00000000	0.0
11	0x00000000	0.0
12	0x00000000	0.0
13	0x00000000	0.0
14	0xbf01a5d8	-0.5064368
15	0xbc38cde4	-0.011279557
16	0x3e6352a9	0.22199501
17	0x3b710af0	0.00367802
18	0x3f408bbc	0.7521322
19	0x3c6836f9	0.014173263

exp_avg_sq f4 [10, 2]
0	0x00000000	0.0
1	0x00000000	0.0
2	0x00000000	0.0
3	0x00000000	0.0
4	0x00000000	0.0
5	0x00000000	0.0
6	0x00000000	0.0
7	0x00000000	0.0
8	0x3bcb5942	0.0062057087
9	0x35b99f49	1.3829932e-06
10	0x00000000	0.0
11	0x00000000	0.0
12	0x00000000	0.0
13	0x00000000	0.0
14	0x3c3a7219	0.011379742
15	0x3680dd5e	3.840468e-06
16	0x3afa4840	0.0019095019
17	0x34f2bc90	4.521321e-07
18	0x3cb47065	0.02202625
19	0x36c9e2c1	6.0166644e-06

exp_avg f4 [10]
0	0x00000000	0.0
1	0x00000000	0.0
2	0x00000000	0.0
3	0x00000000	0.0
4	0x3c0309db	0.007997955
5	0x00000000	0.0
6	0x00000000	0.0
7	0xbc271b10	-0.010199323
8	0x3b909991	0.004412838
9	0x3c7677a2	0.015043171

exp_avg_sq f4 [10]
0	0x00000000	0.0
1	0x00000000	0.0
2	0x00000000	0.0
3	0x00000000	0.0
4	0x36217d67	2.4063863e-06
5	0x00000000	0.0
6	0x00000000	0.0
7	0x36976720	4.512156e-06
8	0x3547a3df	7.437174e-07
9	0x37115a35	8.663676e-06

exp_avg f4 [8, 10]
0	0x00000000	0.0
1	0x00000000	0.0
2	0x00000000	0.0
3	0x00000000	0.0
4	0xbea5e4a9	-0.32401016
5	0x00000000	0.0
6	0x00000000	0.0
7	0xbd8d619f	-0.06903385
8	0xbd44961e	-0.047994725
9	0xbdbb1d45	-0.09136442
10	0x00000000	0.0
11	0x00000000	0.0
12	0x00000000	0.0
13	0x00000000	0.0
14	0x00000000	0.0
15	0x00000000	0.0
16	0x00000000	0.0
17	0x00000000	0.0
18	0x00000000	0.0
19	0x00000000	0.0
20	0x00000000	0.0
21	0x00000000	0.0
22	0x00000000	0.0
23	0x00000000	0.0
24	0x3f4dfb73	0.80461806
25	0x00000000	0.0
26	0x00000000	0.0
27	0x3e3720c8	0.17883599
28	0x3dfd814f	0.12378179
29	0x3e60f651	0.21968962
30	0x00000000	0.0
31	0x00000000	0.0
32	0x00000000	0.0
33	0x00000000	0.0
34	0x3efb63df	0.49099633
35	0x00000000	0.0
36	0x00000000	0.0
37	0x3de96d23	0.11397769
38	0x3da4ae1f	0.080410235
39	0x3e156e15	0.14592774
40	0x00000000	0.0
41	0x00000000	0.0
42	0x00000000	0.0
43	0x00000000	0.0
44	0x3e074062	0.13208154
45	0x00000000	0.0
46	0x00000000	0.0
47	0x3cfa13be	0.030526992
48	0x3cb13f9b	0.021636775
49	0x3d2075cd	0.039174844
50	0x00000000	0.0
51	0x00000000	0.0
52	0x00000000	0.0
53	0x00000000	0.0
54	0x00000000	0.0
55	0x00000000	0.0
56	0x00000000	0.0
57	0xbc94e7cb	-0.018176934
58	0xbc1494cb	-0.009068678
59	0xbc62e617	-0.013848803
60	0x00000000	0.0
61	0x00000000	0.0
62	0x00000000	0.0
63	0x00000000	0.0
64	0x00000000	0.0
65	0x00000000	0.0
66	0x00000000	0.0
67	0x3bd17e28	0.006393213
68	0x3b5a90be	0.0033350433
69	0x3ba5a852	0.0050554657
70	0x00000000	0.0
71	0x00000000	0.0
72	0x00000000	0.0
73	0x00000000	0.0
74	0xbe42fcbd	-0.19041725
75	0x00000000	0.0
76	0x00000000	0.0
77	0xbd2cd67c	-0.042196736
78	0xbd01c83f	-0.03168511
79	0xbd7d08b7	-0.06177589

exp_avg_sq f4 [8, 10]
0	0x00000000	0.0
1	0x00000000	0.0
2	0x00000000	0.0
3	0x00000000	0.0
4	0x3b8d9439	0.004320648
5	0x00000000	0.0
6	0x00000000	0.0
7	0x398527d3	0.00025397408
8	0x38df60e8	0.00010651519
9	0x39ae450c	0.0003323931
10	0x00000000	0.0
11	0x00000000	0.0
12	0x00000000	0.0
13	0x00000000	0.0
14	0x00000000	0.0
15	0x00000000	0.0
16	0x00000000	0.0
17	0x00000000	0.0
18	0x00000000	0.0
19	0x00000000	0.0
20	0x00000000	0.0
21	0x00000000	0.0
22	0x00000000	0.0
23	0x00000000	0.0
24	0x3cce31ff	0.025170324
25	0x00000000	0.0
26	0x00000000	0.0
27	0x3aab1b71	0.0013054443
28	0x3a28e4c8	0.00064427825
29	0x3af56d90	0.0018724669
30	0x00000000	0.0
31	0x00000000	0.0
32	0x00000000	0.0
33	0x00000000	0.0
34	0x3c36025a	0.011108959
35	0x00000000	0.0
36	0x00000000	0.0
37	0x3a1eb18f	0.000605368
38	0x39a0c4fd	0.00030664346
39	0x3a6d29ad	0.00090470427
40	0x00000000	0.0
41	0x00000000	0.0
42	0x00000000	0.0
43	0x00000000	0.0
44	0x3a68fc57	0.0008887699
45	0x00000000	0.0
46	0x00000000	0.0
47	0x384a8361	4.828291e-05
48	0x37cc92fc	2.438714e-05
49	0x38963042	7.161546e-05
50	0x00000000	0.0
51	0x00000000	0.0
52	0x00000000	0.0
53	0x00000000	0.0
54	0x00000000	0.0
55	0x00000000	0.0
56	0x00000000	0.0
57	0x36fa33cd	7.456611e-06
58	0x35f9ad8b	1.8602453e-06
59	0x36909bd5	4.3096757e-06
60	0x00000000	0.0
61	0x00000000	0.0
62	0x00000000	0.0
63	0x00000000	0.0
64	0x00000000	0.0
65	0x00000000	0.0
66	0x00000000	0.0
67	0x35815943	9.637228e-07
68	0x348d454c	2.6313717e-07
69	0x351d7a19	5.8664733e-07
70	0x00000000	0.0
71	0x00000000	0.0
72	0x00000000	0.0
73	0x00000000	0.0
74	0x3b04a9d0	0.0020242818
75	0x00000000	0.0
76	0x00000000	0.0
77	0x38e9d6b6	0.00011150299
78	0x386ad589	5.5988818e-05
79	0x39371c1e	0.00017462714

exp_avg f4 [8]
0	0xbc6e0df1	-0.014529691
1	0x36d8d28b	6.461812e-06
2	0x3d1ae75a	0.03781829
3	0x3cc84a36	0.024449449
4	0x3bd6cb73	0.0065550148
5	0xbb3b764c	-0.0028604446
6	0x3a8672ac	0.0010257564
7	0xbc1f8678	-0.00973665

exp_avg_sq f4 [8]
0	0x3719a5d9	9.158125e-06
1	0x2dd1abea	2.3836894e-11
2	0x386caa2b	5.6425266e-05
3	0x37df0099	2.658395e-05
4	0x360d5a93	2.1063358e-06
5	0x34453a77	1.8368324e-07
6	0x32d1f985	2.444427e-08
7	0x36a5e10c	4.943582e-06

exp_avg f4 [4, 8]
0	0x3c864aff	0.016393183
1	0x3588ffe6	1.0207266e-06
2	0x3e9da956	0.30793256
3	0x3dafbd0f	0.08580982
4	0x3cdea0c5	0.02717627
5	0xbb31794b	-0.0027080353
6	0xbc6420d3	-0.0139238415
7	0x3e409621	0.1880727
8	0x3cef073d	0.029178256
9	0x35f2be17	1.8085728e-06
10	0x3f0c3524	0.54768586
11	0x3e1c66eb	0.15273635
12	0x3d4695bf	0.048482653
13	0xbb9d16d4	-0.004793981
14	0xbcca0bf1	-0.024663897
15	0x3eaba8ef	0.33527324
16	0xbccd97d3	-0.02509681
17	0xb5ce7253	-1.5381469e-06
18	0xbef0d35e	-0.4703626
19	0xbe068efe	-0.13140485
20	0xbd2bbfdc	-0.04193102
21	0x3b857295	0.004072497
22	0x3cabdf5c	0.02098053
23	0xbe943324	-0.28945267
24	0x3c7331f2	0.014843451
25	0x35732ac5	9.058679e-07
26	0x3e8e5a8b	0.27803454
27	0x3d9f2ec8	0.07772595
28	0x3ccb9455	0.024851004
29	0xbb1d1ca0	-0.002397336
30	0xbc4a74c4	-0.012356941
31	0x3e2f8ca0	0.17143488

exp_avg_sq f4 [4, 8]
0	0x373b5683	1.1166211e-05
1	0x2b27f4b9	5.966994e-13
2	0x3b697f28	0.003562877
3	0x39a7a3fa	0.00031974894
4	0x384bc6a4	4.858397e-05
5	0x34304141	1.6415017e-07
6	0x3692f1e1	4.3792975e-06
7	0x3b030399	0.0019991158
8	0x38152bd6	3.5565194e-05
9	0x2c058fd3	1.8980275e-12
10	0x3c3a0758	0.01135429
11	0x3a85bed9	0.0010203972
12	0x3922dfdc	0.00015532918
13	0x350a2d04	5.147451e-07
14	0x3766ecc1	1.3764192e-05
15	0x3bd1443a	0.006386307
16	0x37dfa716	2.6661477e-05
17	0x2bc77dc6	1.417471e-12
18	0x3c0bb3c9	0.008526751
19	0x3a498df7	0.0007688696
20	0x38f69015	0.000117570315
21	0x34c7c114	3.720712e-07
22	0x3727cd7d	1.000182e-05
23	0x3b9e12e0	0.0048240274
24	0x371d40a3	9.372979e-06
25	0x2b0c1000	4.9760196e-13
26	0x3b4494c8	0.0029995907
27	0x398dfb88	0.0002708102
28	0x382df941	4.147855e-05
29	0x340a8a72	1.2902618e-07
30	0x36693bd7	3.4754537e-06
31	0x3adee832	0.0017006455

exp_avg f4 [4]
0	0x3d22ceb5	0.039747912
1	0x3d90f77a	0.070784524
2	0xbd79b7e6	-0.060966395
3	0x3d13c534	0.03607674

exp_avg_sq f4 [4]
0	0x389b6611	7.409987e-05
1	0x3977fc03	0.00023649637
2	0x393ae1cf	0.00017822463
3	0x3883a724	6.277699e-05

exp_avg f4 [1, 4]
0	0xbe68aa95	-0.22721322
1	0xbd629cfb	-0.05532549
2	0xbf1c3b33	-0.6102783
3	0x3eff6fb4	0.4988991

exp_avg_sq f4 [1, 4]
0	0x3ac2bd0c	0.0014857366
1	0x39a2b56f	0.00031034226
2	0x3c6dd128	0.014515199
3	0x3c278652	0.010224896
