deeper_null/lightning_logs/version_22/checkpoints/epoch=9-step=10.ckpt (torch, 13936 bytes, 21 tensors)

model.layers.0.weight f4 [10, 2]
00000000: 6b32 9a3e 137a 1fbf bf13 d33e ab61 913e
00000010: 6b80 bf3e fb89 653d b760 983e 81ea 663e
00000020: b25e 2dbf 202a ab3e 905c 1ebf 8044 6c3c
00000030: 646f 103f b68e ad3e 1810 9abe 79d1 a13e
00000040: 5827 293e e2ec b2be 874a b2be 6c1e 273f
0.3011659 -0.62295645 0.41226003 0.28394827 0.37402663 0.05603979 0.29761288 0.22550394
-0.6772262 0.33430576 -0.6185999 0.014420629 0.5641997 0.33897942 -0.30090404 0.31605127
0.16518915 -0.34946352 -0.34822485 0.65280795

model.layers.0.bias f4 [10]
00000000: 3427 93be 838e f9be d96e ea3e 30a6 b7be
00000010: c240 d83e ec26 9e3e 6aeb 07bf 75f8 013f
00000020: e290 763e 99e2 d4be
-0.28740847 -0.4874154 0.45787695 -0.35868979 0.42236906 0.3088907 -0.5309359 0.5076974
0.24078706 -0.4157913

model.layers.3.weight f4 [8, 10]
00000000: f978 793e 5a76 a23d 75e7 813d d862 7ebe
00000010: e90a 513d 6ebd 463e 57af c23d af35 8b3e
00000020: 0d88 58bc b542 013c a47a 1dbd efe7 c43c
00000030: 64a5 0bbe 3095 923e daab 2b3e 51fd 8c3e
00000040: fee4 d83d 467f 0cbd 750e c53d 0e02 973c
00000050: 1d19 a23c 5d86 fdbd 20c3 4d3e 2645 033e
00000060: 6ad6 163e 0b9a 48be c0ae 8f3e 3b86 233b
00000070: 9bd8 b6bd 5cf6 e1bd ddec 843e 046b 813c
00000080: 9338 97be 4627 a6be 3149 9bbe b0eb e1bc
00000090: 1507 363e 3845 353e 54d0 043b c567 9cbd
000000a0: af30 65be 8bfb 08be 0bf8 5bbe f641 9b3d
000000b0: 516d f83d 3f60 773d 0da2 15be c305 563e
000000c0: ef3f 21be b959 40bb 484d 8ebe e650 083e
000000d0: d1a2 df3d df67 30be c222 6a3d 8ba5 743e
000000e0: 3ca8 86be d6ef 713e 39f5 603e c36d e33d
000000f0: e0c8 98bd 69a7 8c3e ccdb 4b3e 3e3b 103e
00000100: 9547 77bd 78d4 8e3d 6e4e 46be a7c8 9a3e
00000110: 5e42 91be 4f2c 1abd 33d3 803e cf08 81be
00000120: fc8c 543e 4761 80be 391b 0fbe 6fb8 833e
00000130: f761 b03c a221 f73c 378a 90be 266e 5bbd
0.24362554 0.0793273 0.06342975 -0.24842393 0.051035795 0.19408199 0.095061 0.27189395
-0.013216031 0.007889439 -0.038447037 0.024036376 -0.1363731 0.28629446 0.16764775 0.27537015
0.10590552 -0.034301065 0.09621898 0.018433597 0.019787366 -0.123791434 0.20093966 0.12819347
0.1473023 -0.19590013 0.2806301 0.0024951834 -0.08928033 -0.110333174 0.25961962 0.0157981
-0.2953535 -0.32451838 -0.30329278 -0.027578205 0.17776139 0.17702186 0.0020265775 -0.0763698
-0.22381853 -0.13377206 -0.2148134 0.075809404 0.121302254 0.06039452 -0.14612599 0.20900635
-0.15747045 -0.0029350354 -0.27793336 0.1331211 0.10919727 -0.17227124 0.057162054 0.23891275
-0.26300228 0.23626646 0.21968545 0.1110492 -0.07460189 0.27471474 0.19908065 0.14085099
-0.060371 0.06974119 -0.19365856 0.3023121 -0.28370947 -0.037639912 0.25161132 -0.25202033
0.20756906 -0.25074217 -0.13975228 0.2572665 0.021531088 0.030167405 -0.2823045 -0.053571843

model.layers.3.bias f4 [8]
00000000: f158 7fbe fe1d c8bd 97f3 06b9 adb6 87be
00000010: 62a0 5c3e 6b69 42bd a3b8 75be 7fbe 13be
-0.24936272 -0.097713456 -0.0001286998 -0.26506558 0.21545556 -0.047463816 -0.23996215 -0.14428137

model.layers.6.weight f4 [4, 8]
00000000: a2d2 92bd 9ffa e2bd ff27 b23e ae3b 34bd
00000010: 5ae0 193d c9e8 a7be 3577 443d d291 9bbe
00000020: a52f a33e 8ac6 413e bdd1 bb3d 9f7a 023e
00000030: 494b e2bd 1412 213e 46fa 83be 9953 8fbe
00000040: 46c6 4d3e d734 413c 136e 973e c6c6 ca3d
00000050: f35a e63c 5599 8abe 66ea 233d 95eb 32be
00000060: d65f 08be 4dcd 01be d855 3f3e 43ba 6abe
00000070: 013a c2bd 65e2 893d 799d 2fbe 78d4 733e
-0.07169081 -0.110829584 0.3479614 -0.044002227 0.037567474 -0.32794788 0.047965247 -0.3038469
0.31872287 0.18923393 0.09170864 0.12742089 -0.11049516 0.15729553 -0.2577688 -0.27993467
0.20095167 0.011792383 0.29576167 0.09901194 0.02811954 -0.27070108 0.04001846 -0.1747268
-0.13317809 -0.12675972 0.1868509 -0.22922616 -0.094837196 0.067326345 -0.17149915 0.23811519

model.layers.6.bias f4 [4]
00000000: 9cab 093e a195 48be 2f2e 01be e16f bb3d
0.1344437 -0.19588329 -0.12615274 0.091521986

model.layers.7.weight f4 [1, 4]
00000000: e9f9 c53e 3111 083e c792 c8be d490 03be
0.3866723 0.13287808 -0.39174482 -0.12848216

exp_avg f4 [10, 2]
00000000: cf80 5c3f 0213 b43b f8c9 e53d 6a50 bb39
00000010: 4fe2 ea3e b0f2 423b 4f24 e7be cb10 29bb
00000020: 0000 0000 0000 0000 0000 0000 0000 0000
00000030: 5dd5 8c3e abaf e53a 0000 0000 0000 0000
00000040: 51df b9be c9f4 1ebb 0000 0000 0000 0000
0.86134046 0.00549543 0.11220163 0.00035727333 0.45875785 0.0029746704 -0.4514489 -0.0025797363
0.0 0.0 0.0 0.0 0.27506533 0.0017523667 0.0 0.0
-0.3630319 -0.002425479 0.0 0.0

exp_avg_sq f4 [10, 2]
00000000: d717 c43c ffb2 9935 598d be39 baec e631
00000010: deac f63b 9e2e c734 2c68 c83b bf9d 8334
00000020: 0000 0000 0000 0000 0000 0000 0000 0000
00000030: fea9 573b 8f22 2934 0000 0000 0000 0000
00000040: 022e 7f3b 64b8 5634 0000 0000 0000 0000
0.023937149 1.1451483e-06 0.00036344936 6.7207937e-09 0.0075279316 3.7100557e-07 0.006115934 2.4515427e-07
0.0 0.0 0.0 0.0 0.003290772 1.5751924e-07 0.0 0.0
0.0038937335 1.9997384e-07 0.0 0.0

exp_avg f4 [10]
00000000: 9d8b 863c 1388 073b 4c72 0f3c 637d 0cbc
00000010: 0000 0000 0000 0000 d2bc ab3b 0000 0000
00000020: 606a e3bb 0000 0000
0.016423995 0.0020680472 0.008755278 -0.008574816 0.0 0.0 0.005241015 0.0
-0.006940171 0.0

exp_avg_sq f4 [10]
00000000: 20ee 1237 22ba 0634 f600 3936 c384 1536
00000010: 0000 0000 0000 0000 505f a135 0000 0000
00000020: 578d bf35 0000 0000
8.757721e-06 1.2547437e-07 2.7567708e-06 2.2280008e-06 0.0 0.0 1.2023174e-06 0.0
1.4271744e-06 0.0

exp_avg f4 [8, 10]
00000000: 8e8d 233f 50d8 513f 6fc2 4e3f af2f 0b3f
00000010: 0000 0000 0000 0000 3c8f 983f 0000 0000
00000020: 2537 a73e 0000 0000 fae2 fe3d 55c4 233e
00000030: 64d3 213e 479c dd3d 0000 0000 0000 0000
00000040: f5d4 703e 0000 0000 a02f 833d 0000 0000
00000050: c3ae 0a3d 5476 323d 96dd 313d b813 f23c
00000060: 0000 0000 0000 0000 73a0 833d 0000 0000
00000070: e172 883c 0000 0000 a839 153d 9247 393d
00000080: df61 f73c 90cf 3c3c 0000 0000 0000 0000
00000090: 3c6b 903d 0000 0000 9876 943c 0000 0000
000000a0: 0000 0000 0000 0000 0000 0000 0b30 7234
000000b0: 0000 0000 0000 0000 0000 0000 0000 0000
000000c0: 4fad 0934 0000 0000 c328 db3b 04d6 263c
000000d0: a0e1 1c3c 763f c23b 0000 0000 0000 0000
000000e0: 0000 0000 0000 0000 838a 803b 0000 0000
000000f0: 1641 f23d 9f0c 313e 5c06 273e 975a d33d
00000100: 0000 0000 0000 0000 88a7 5f3e 0000 0000
00000110: c5be 783d 0000 0000 3246 c83e 4500 993e
00000120: 24e9 023f be79 343e 0000 0000 0000 0000
00000130: 2bdc 313f 0000 0000 660f 283e 0000 0000
0.6388787 0.8197069 0.8076543 0.54369634 0.0 0.0 1.1918712 0.0
0.3265926 0.0 0.12445636 0.15992863 0.15803295 0.10820823 0.0 0.0
0.23518737 0.0 0.06405568 0.0 0.033858072 0.043569878 0.04342421 0.029550418
0.0 0.0 0.06427088 0.0 0.016656341 0.0 0.03643194 0.04523427
0.030198036 0.011524096 0.0 0.0 0.07051703 0.0 0.018122956 0.0
0.0 0.0 0.0 2.2555484e-07 0.0 0.0 0.0 0.0
1.2822169e-07 0.0 0.006688209 0.010182861 0.009575278 0.0059279753 0.0 0.0
0.0 0.0 0.003922762 0.0 0.118288204 0.17289971 0.1631102 0.10320013
0.0 0.0 0.21841252 0.0 0.060728807 0.0 0.39116055 0.29883018
0.51136994 0.17624566 0.0 0.0 0.69476575 0.0 0.16412124 0.0

exp_avg_sq f4 [8, 10]
00000000: d1ef 523c c753 ad3c ffa4 a83c b8e7 193c
00000010: 0000 0000 0000 0000 e90c 393d 0000 0000
00000020: b393 553b 0000 0000 d497 1f3a f212 843a
00000030: 2503 813a 2b6b f239 0000 0000 0000 0000
00000040: dba5 0f3b 0000 0000 e4a0 2339 0000 0000
00000050: 0c3a 6639 63f2 be39 e06c bb39 6fc5 2a39
00000060: 0000 0000 0000 0000 821c 4d3a 0000 0000
00000070: 8149 6538 0000 0000 c5e4 4838 4010 9a38
00000080: 0cda 0538 7101 ae36 0000 0000 0000 0000
00000090: c901 3d39 0000 0000 0fce 4337 0000 0000
000000a0: 0000 0000 0000 0000 0000 0000 a952 f528
000000b0: 0000 0000 0000 0000 0000 0000 0000 0000
000000c0: b48e 1e28 0000 0000 c020 c535 0a11 6536
000000d0: d696 4b36 c1d5 a235 0000 0000 0000 0000
000000e0: 0000 0000 0000 0000 4b04 0435 0000 0000
000000f0: 319b fd39 28e9 883a 103d 733a 9bf2 c339
00000100: 0000 0000 0000 0000 b477 db3a 0000 0000
00000110: a6f7 0139 0000 0000 b690 a23b 2ce9 463b
00000120: 91b4 0a3c b860 9f3a 0000 0000 0000 0000
00000130: c45f 823c 0000 0000 10c1 453a 0000 0000
0.0128745595 0.021158112 0.020586489 0.009393625 0.0 0.0 0.045178328 0.0
0.0032589256 0.0 0.0006087993 0.0010076447 0.0009842856 0.00046237683 0.0 0.0
0.0021918926 0.0 0.00015604828 0.0 0.00021956133 0.00036420216 0.00035748538 0.00016286013
0.0 0.0 0.00078243774 0.0 5.466631e-05 0.0 4.7896774e-05 7.346319e-05
3.1912743e-05 5.185772e-06 0.0 0.0 0.0001802511 0.0 1.16708825e-05 0.0
0.0 0.0 0.0 2.7236312e-14 0.0 0.0 0.0 0.0
8.801706e-15 0.0 1.4687175e-06 3.4133577e-06 3.0337155e-06 1.2132151e-06 0.0 0.0
0.0 0.0 4.918008e-07 0.0 0.00048371547 0.0010445463 0.00092788134 0.00037374053
0.0 0.0 0.0016744048 0.0 0.00012394655 0.0 0.0049610985 0.0030351384
0.008465902 0.0012159562 0.0 0.0 0.015914805 0.0 0.0007543722 0.0

exp_avg f4 [8]
00000000: a89e 1e3d f89a f83b cdae 083b 9596 0d3b
00000010: 6989 5832 9d01 db39 e118 ed3b ef75 bb3c
0.038725525 0.007586833 0.0020856143 0.0021604646 1.2604098e-08 0.00041772137 0.007235632 0.022883384

exp_avg_sq f4 [8]
00000000: cb44 4738 bcd8 1836 4f7c 5c35 6c87 3534
00000010: dd1b c424 e6ce c831 eff4 f435 2fc5 8d37
4.7509366e-05 2.277592e-06 8.213728e-07 1.6906205e-07 8.504865e-17 5.8442877e-09 1.8250702e-06 1.690033e-05

exp_avg f4 [4, 8]
00000000: 05e9 e9bf dd98 bbbf aba6 46c0 b3a2 8ebe
00000010: c626 77b4 e62e 93bc 295b 58bf ea62 4bbe
00000020: fb8f 1cbf 050d fbbe 6ff3 84bf 34f6 bebd
00000030: 1977 a2b3 c512 c5bb c1af 90be b9f4 87bd
00000040: 355b f33f 393b c33f d9b0 4e40 0161 943e
00000050: b9d3 8234 8317 993c 3649 613f 3bde 533e
00000060: cb57 233f 7d13 033f 45be 8a3f 382b c73d
00000070: bf6d b233 ae78 cd3b bf54 973e ae5e 8e3d
-1.8274237 -1.4656025 -3.1039226 -0.27858505 -2.3017773e-07 -0.017966699 -0.845141 -0.19861951
-0.61157197 -0.4903337 -1.038679 -0.09324303 -7.5653766e-08 -0.0060142004 -0.2825909 -0.06638474
1.9012209 1.5252448 3.229544 0.28980258 2.4368435e-07 0.01868797 0.88002336 0.20690243
0.63805836 0.5120161 1.0839316 0.0972504 8.3087336e-08 0.0062704897 0.29556844 0.069516525

exp_avg_sq f4 [4, 8]
00000000: dd8e d03d 2b0d 893d 1945 973e f7b0 1b3b
00000010: 607b ff28 ed6f 2637 06eb be3c f011 ae3a
00000020: e8f0 373c 4891 f13b 7464 053d 453a 8939
00000030: efca 5c27 e0d7 9235 4dee 273b 4602 1939
00000040: f650 e53d dbcc 963d 3b5a a63e fd4b 2b3b
00000050: 1a2c 0f29 eaf1 3637 3276 d23c 5f02 c03a
00000060: aaa5 513c c7f3 093c cb1a 183d bbb4 9c39
00000070: 2128 8527 2c36 a735 30db 403b a80a 3039
0.10183499 0.06691965 0.29544905 0.0023756602 2.8364193e-14 9.920431e-06 0.023305427 0.0013280492
0.01122687 0.007372055 0.032566503 0.0002617409 3.0641144e-15 1.0940676e-06 0.0025624216 0.00014592064
0.11197083 0.07363292 0.32490715 0.0026137822 3.179063e-14 1.090437e-05 0.025691126 0.0014649144
0.012795845 0.008419937 0.037134927 0.00029889293 3.6958423e-15 1.2458236e-06 0.002942752 0.00016788638

exp_avg f4 [4]
00000000: d75d 84be 3b45 b1bd 23a7 893e 24b7 b83d
-0.25852844 -0.08655783 0.26885328 0.09019306

exp_avg_sq f4 [4]
00000000: 6424 013b 8327 6439 59c8 0d3b f571 8139
0.0019705528 0.00021758494 0.002163431 0.00024689702

exp_avg f4 [1, 4]
00000000: e3f3 f8bf 8610 09c0 21a8 5fc0 955d 14be
-1.9449428 -2.1416335 -3.4946368 -0.14488824

exp_avg_sq f4 [1, 4]
00000000: 47f9 e53d f957 0a3e 31b4 c43e a299 773a
0.112291865 0.13510121 0.38418725 0.00094451953
