deeper_null/lightning_logs/version_19/checkpoints/epoch=41-step=42.ckpt (torch, 13936 bytes, 21 tensors)

model.layers.0.weight f4 [10, 2]
00000000: 1c20 39be c098 193f bfa5 47ba 9ca7 133f
00000010: fc47 15be d3f5 a53e 754a 083f 5a35 ce3c
00000020: 5ad3 2f3d 3272 223f 8f5b 743e fd8b 3a3e
00000030: 1f78 3a3d 7ea4 603d aeb7 f83d 51d2 383f
00000040: 8f3f 9a3d 8001 1bbf cedb 163f 8fe8 dcbe
-0.18078655 0.59998703 -0.00076159457 0.57677627 -0.14578241 0.32414111 0.5323861 0.025171924
0.04292617 0.634555 0.23863052 0.18217464 0.045524713 0.054844372 0.12144409 0.7219592
0.07531654 -0.60549164 0.58929145 -0.43146178

model.layers.0.bias f4 [10]
00000000: 5b8f 20bf 4dd3 b03e b80a 2abf 8c7f e93e
00000010: e447 c53e 6ada fcbd b889 c6bc 1bb4 95be
00000020: e853 2e3f 0b74 c43e
-0.62718743 0.3453621 -0.66422606 0.45605123 0.3853141 -0.12346347 -0.024235591 -0.29238972
0.6809678 0.38369784

model.layers.3.weight f4 [8, 10]
00000000: 7bf9 613e 060f 163c cfd3 903b ff31 063e
00000010: 1374 853e 2842 00be 0311 7f3e 7844 90bd
00000020: d512 3abe 6cb0 0c3e d3b7 0a3e bbda d9bc
00000030: 775c 79be a56e 63be f299 15be 50fb 753e
00000040: 75b8 233e 0a99 8b3e 541c 67be a027 973e
00000050: e215 7c3e b43a 013e a037 193e 30cf 78be
00000060: 75cd 5fbd 71a4 223d a6c4 433b 95cc 99be
00000070: 5f35 2fbe 97ad a1bd 0de4 f33d f670 0a3e
00000080: e22e 9b3e cc5b 9bbc d016 953e 088f 603e
00000090: 386b 7bbe 677b bb3c 4077 3fbd 88bf 7f3e
000000a0: b893 9cbe 9327 cabd 8e5b 253e 93d8 873e
000000b0: 5aa3 a93e 00e7 02be 347a a1bd d9ea 8b3e
000000c0: b115 623e 00fa 0f3e 714b 1bbe bddc 0b3e
000000d0: 40bd 97be 0ac6 913e dd70 1b3e 0c2f 35be
000000e0: 4fd4 8b3d ee15 45be 5aa9 91be e5ce 163e
000000f0: d696 1d3d ef2f 563e 65dc 3b3d 6c82 8b3e
00000100: 06bd 843d bd70 ec3d 43f6 d63d 5357 acbd
00000110: a02e 5cbe ff53 b93c 28a7 fd3c de1c 85be
00000120: 5a02 4bbe 4aa3 63bd 113c 29be fd03 8cbd
00000130: 3b56 733d 8d82 0b3e 2151 8fbe 51cb 803e
0.22067825 0.009158855 0.004419781 0.1310501 0.2606512 -0.12525237 0.24908833 -0.070443094
-0.18171246 0.13739175 0.13546686 -0.026593557 -0.24351679 -0.22210176 -0.14609507 0.2402165
0.15988334 0.27265197 -0.225694 0.2952242 0.24617723 0.1262005 0.14962626 -0.24297786
-0.0546393 0.039707605 0.002987185 -0.30038896 -0.17110203 -0.07894438 0.119087316 0.13519654
0.30309206 -0.01896467 0.29118967 0.21929562 -0.2455262 0.022885991 -0.046744585 0.24975407
-0.3058145 -0.098708294 0.16148207 0.2653242 0.3313244 -0.12783432 -0.078846365 0.27327612
0.22078587 0.14060211 -0.15165497 0.13658424 -0.29636574 0.28471404 0.15179773 -0.17693728
0.06827604 -0.19246647 -0.28449517 0.14727362 0.038473926 0.20916723 0.04586448 0.27247941
0.06481366 0.115449406 0.104961894 -0.08415093 -0.21502161 0.02262306 0.030963495 -0.25998586
-0.19825116 -0.055575646 -0.1652682 -0.06836698 0.059408408 0.1362402 -0.27991584 0.25155118

model.layers.3.bias f4 [8]
00000000: 49ab 99be 24f3 9d3e a0a2 6fbe 5562 e33b
00000010: 33ef 6cbd 7d8c 19be 3f61 d73d c3a6 943e
-0.30013493 0.30849564 -0.2340188 0.0069392123 -0.057845306 -0.14994998 0.10516595 0.2903348

model.layers.6.weight f4 [4, 8]
00000000: 7dc9 033e 50af 063e 1126 313e 4250 43be
00000010: 1361 3dbe 9dc1 93be 3e7a 853e 4a56 efbd
00000020: cfbb 3bbd c527 fdbd ece5 203e 3e28 71be
00000030: 4072 223e 389a 693e 1f28 4abe 7c06 c03e
00000040: 4f8f 87bc 3552 a43e 9ee1 7bbe 984d f33d
00000050: 2c08 84bb a075 70be 99e9 77be 1a85 a1be
00000060: 8f5a 573e c8a9 79be a01a 0fbe e9ac 76be
00000070: 5c65 80be 11a8 f63d 1eeb a8bd 4791 9ebe
0.1286983 0.13152814 0.17299677 -0.19073585 -0.18494062 -0.28858653 0.26069826 -0.1168638
-0.045833405 -0.12361101 0.15712708 -0.23550507 0.15863895 0.22812736 -0.19741867 0.37504947
-0.016547827 0.3209397 -0.24597785 0.11880034 -0.0040292945 -0.2348237 -0.24210204 -0.3154686
0.21030639 -0.24381173 -0.13975 -0.24089397 -0.2507733 0.12043775 -0.0824797 -0.30970213

model.layers.6.bias f4 [4]
00000000: 026e a63e 710b bbbb 4e8e 4d3d cd29 a4be
0.32505804 -0.005708151 0.05018454 -0.3206314

model.layers.7.weight f4 [1, 4]
00000000: 7971 7b3e 1e2f b33e 4637 c23e d1e1 a1be
0.24555005 0.34996885 0.37932795 -0.31617597

exp_avg f4 [10, 2]
00000000: 0000 0000 0000 0000 17ff 4d3f af8e bcbb
00000010: 0000 0000 0000 0000 85a4 6d40 f569 a53c
00000020: 3d37 863f f439 8038 52da 343f 6ba0 823c
00000030: 014d a33f 6f97 473c dd75 ad3f 760b 193d
00000040: 42f5 0cc0 4346 97bc 4c1f 1040 c338 0d3d
0.0 0.0 0.8046736 -0.005754314 0.0 0.0 3.7131665 0.020192126
1.0485607 6.11431e-05 0.7064563 0.015945634 1.2757875 0.012182101 1.3551594 0.037364446
-2.2024693 -0.01846612 2.2519102 0.03447796

exp_avg_sq f4 [10, 2]
00000000: 0000 0000 0000 0000 c379 2a41 4344 7f3a
00000010: 0000 0000 0000 0000 ffc2 e841 16f4 2d3b
00000020: 221f 4c41 0885 983a 15f2 b83f 152e 0939
00000030: f00e 423f b9ff 9238 18ba 5241 ad8a 9c3a
00000040: 8bc6 1a40 f253 6a39 72e0 bc3e e888 3a38
0.0 0.0 10.654727 0.000973765 0.0 0.0 29.095213 0.0026543192
12.757601 0.0011636326 1.4448878 0.00013082505 0.7580404 7.0094546e-05 13.170433 0.0011943184
2.418368 0.00022347251 0.36889988 4.447336e-05

exp_avg f4 [10]
00000000: 0000 0000 2142 843c 0000 0000 0e4c 943d
00000010: f87a a93c 6014 5a3c 8a14 cb3c aa82 cf3c
00000020: da7f 2fbd 68f4 303d
0.0 0.016144814 0.0 0.07241069 0.020688519 0.013310522 0.024790067 0.02533086
-0.042846538 0.043201834

exp_avg_sq f4 [10]
00000000: 0000 0000 db03 833b 0000 0000 c9e9 323c
00000010: 56c2 9c3b 7819 0e3a 2a61 9539 fc08 a23b
00000020: 88f4 6d3a 7bef 0f39
0.0 0.0039982623 0.0 0.010919997 0.004783909 0.0005420665 0.00028491887 0.0049449187
0.00090772705 0.00013726756

exp_avg f4 [8, 10]
00000000: 0000 0000 d8a3 093d 0000 0000 469d c63f
00000010: f86b bc3d 8fba 343e 1029 a93d e185 783d
00000020: fbc3 993d 0d5c 9a3e 0000 0000 ba34 303c
00000030: 0000 0000 b1b0 8bbf 17e8 0a3e 0344 8a3f
00000040: 4e1d d23d 120a 203f 14df 8e3e 5d4f 0240
00000050: 0000 0000 f92e 0d36 0000 0000 0000 0000
00000060: 82f0 cd36 342b c537 5608 9836 0000 0000
00000070: 0000 0000 0000 0000 0000 0000 168a 963c
00000080: 0000 0000 c12c 0a3f d841 453d e3ad 023e
00000090: 45c8 2c3d c3ee 653d 5982 243d 19b6 a23e
000000a0: 0000 0000 b080 7cba 0000 0000 2334 50bf
000000b0: ccb4 bf3c 31b4 943e e1f4 603c b118 443e
000000c0: d2a7 8a3d 11cd 833f 0000 0000 8aa3 a73d
000000d0: 0000 0000 a034 6f40 f64a 773e e2fc 133f
000000e0: 6530 5b3e 4266 743e 96d1 663e 2268 983f
000000f0: 0000 0000 c63d 483d 0000 0000 28e6 0a40
00000100: 9791 0f3e 5e41 9e3e 7bd6 ff3d 7a37 fa3d
00000110: ff11 fe3d 6d67 1c3f 0000 0000 4f7a a63b
00000120: 0000 0000 3167 04bf f071 333d a77f b83e
00000130: 219d 083d 7d8b 5a3e 4129 b53d 6e51 293f
0.0 0.03360352 0.0 1.5516746 0.09200281 0.17649291 0.08259785 0.060674552
0.075080834 0.30148354 0.0 0.0107547585 0.0 -1.0913297 0.13565098 1.0802006
0.10259496 0.62515366 0.2790457 2.036094 0.0 2.103798e-06 0.0 0.0
6.137475e-06 2.3504348e-05 4.5309234e-06 0.0 0.0 0.0 0.0 0.018376391
0.0 0.5397454 0.048158497 0.12761645 0.04218318 0.056135904 0.04016337 0.31779554
0.0 -0.0009632213 0.0 -0.81329554 0.02340164 0.29043725 0.013730259 0.19150044
0.067702904 1.0296956 0.0 0.081854895 0.0 3.737587 0.24149689 0.57807744
0.2140518 0.23867133 0.22540888 1.1906779 0.0 0.048887037 0.0 2.1702976
0.14020382 0.30909246 0.12492081 0.122176126 0.12405776 0.61095315 0.0 0.0050804983
0.0 -0.5171996 0.04380983 0.3603489 0.033352975 0.21342273 0.08845759 0.66139877

exp_avg_sq f4 [8, 10]
00000000: 0000 0000 73a9 323c 0000 0000 1488 8140
00000010: b291 783d 10fa e83e 9693 3f3d 2265 cf3d
00000020: e70e 103d 408d 6240 0000 0000 0bdf 163d
00000030: 0000 0000 94f2 6841 86ee 573e ff54 d13f
00000040: 4b5f 263e 0d18 bd3e 7723 053e c69a 6e41
00000050: 0000 0000 0e2b 432d 0000 0000 0000 0000
00000060: 2a5a e32e 15b3 9630 3e37 ad2e 0000 0000
00000070: 0000 0000 0000 0000 0000 0000 47a8 6d3b
00000080: 0000 0000 5420 9d3f 5561 9e3c 53ab 0e3e
00000090: 0af7 753c ec4e fa3c 7a82 293c 3c0c 8c3f
000000a0: 0000 0000 9a4d 863b 0000 0000 5020 e43f
000000b0: d080 ca3c 24dc 4f3e 9248 9b3c e7f9 3b3d
000000c0: f9a8 873c 420e c43f 0000 0000 fb80 333d
000000d0: 0000 0000 e7ae 8441 6296 7b3e 9cdb ed3f
000000e0: 17b2 413e 10a7 d43e a21c 143e eec8 6641
000000f0: 0000 0000 f73e a33c 0000 0000 5997 eb40
00000100: c4d3 e23d 71fc 543f 6dea ae3d 4428 3d3e
00000110: 244e 833d a47e cd40 0000 0000 56e7 1a3b
00000120: 0000 0000 f764 883f 314e 6e3c f0e0 fa3d
00000130: ef49 353c af37 e53c 46f8 253c 30a1 8b3f
0.0 0.010904658 0.0 4.047861 0.06068582 0.45503283 0.04677161 0.101267114
0.035170462 3.5398712 0.0 0.036833804 0.0 14.559223 0.21087083 1.6354064
0.16247289 0.36932412 0.1300181 14.9127865 0.0 1.1094027e-11 0.0 0.0
1.0338781e-10 1.0964835e-09 7.876942e-11 0.0 0.0 0.0 0.0 0.0036263631
0.0 1.2275491 0.01933352 0.13932543 0.015012512 0.030555211 0.010346049 1.0941234
0.0 0.0040986063 0.0 1.7822361 0.024719626 0.2029882 0.018955503 0.045892622
0.016560065 1.5316851 0.0 0.043824177 0.0 16.585402 0.24569085 1.8582644
0.18915592 0.4153371 0.14464048 14.424055 0.0 0.019927485 0.0 7.362225
0.11075547 0.83197695 0.08540807 0.18472391 0.064113885 6.421709 0.0 0.0023636422
0.0 1.0655812 0.0145450095 0.12249935 0.01106499 0.027980654 0.010129994 1.0908566

exp_avg f4 [8]
00000000: 1006 c43c b37e 703d eb3f e835 b282 4e3c
00000010: 546e 4a3c d1f9 893d 4aa7 1a3d 0ac4 973c
0.023928672 0.05871458 1.730395e-06 0.012604402 0.012355406 0.06737102 0.037757196 0.018526096

exp_avg_sq f4 [8]
00000000: 3706 783b cc0c 5c3c f24c e52c 10f3 983a
00000010: 20d2 d63a 8009 7d3c 5639 e23b 0751 803a
0.0037845501 0.013430785 6.517114e-12 0.0011669118 0.0016389526 0.0154441595 0.0069038076 0.0009789773

exp_avg f4 [4, 8]
00000000: ac17 83bf b251 d33f ba7d 2e36 e1bc 20be
00000010: 23fe e6be d350 0dc0 1b3a 01c0 a7ba 013f
00000020: 31f7 b3bf 5130 1740 0d21 7836 5965 29be
00000030: 0b28 13bf 3634 44c0 3724 33c0 8b3b 3c3f
00000040: 0967 c7bf 60f7 2340 8209 8736 8662 59be
00000050: 8e02 2abf a528 58c0 8387 45c0 788b 4a3f
00000060: 8d33 973f d5c2 0ac0 1926 61b6 a785 313d
00000070: 83f1 cd3e e22e 2940 9ff8 1940 e70f 31bf
-1.0241599 1.6509306 2.6001203e-06 -0.15697052 -0.45115766 -2.208058 -2.0191715 0.50675434
-1.4059812 2.362324 3.6974118e-06 -0.16542567 -0.57482976 -3.0656867 -2.7990854 0.73528355
-1.5578319 2.5619736 4.0244204e-06 -0.2122899 -0.6641015 -3.3774807 -3.086396 0.7911906
1.1812607 -2.1681416 -3.3549788e-06 0.04334035 0.4022332 2.6434865 2.4057996 -0.6916489

exp_avg_sq f4 [4, 8]
00000000: e605 8340 0ee9 233f cf1e 0d2d 4227 b840
00000010: 790d c440 ddb2 f940 6f29 eb40 01ea 9d3e
00000020: 7c8c f440 dbba 9a3f 78d8 872d 6df2 2b41
00000030: 9b71 3741 3e40 6941 73b2 5b41 ae96 143f
00000040: f367 1541 b752 bc3f b3b3 a42d 7514 5241
00000050: c721 6041 167f 8e41 2638 8641 114a 353f
00000060: eddb a140 abc1 543f ad84 482d 5219 e440
00000070: fee0 f540 3613 1b41 1929 1241 6252 cb3e
4.09447 0.6402749 8.021763e-12 5.754792 6.1266446 7.803084 7.348808 0.30842593
7.642149 1.2088274 1.5443855e-11 10.746686 11.465236 14.578184 13.731067 0.5804242
9.337878 1.4712743 1.8724444e-11 13.129994 14.008246 17.812054 16.777416 0.7081614
5.0580964 0.83108014 1.1398144e-11 7.128091 7.683715 9.69219 9.135034 0.3971129

exp_avg f4 [4]
00000000: 28e0 6dbd a23b 9ebd a05f b2bd ca67 773d
-0.0580751 -0.07726218 -0.08709645 0.060401715

exp_avg_sq f4 [4]
00000000: 0ea7 2a3d 3282 9f3d a1e6 c23d 66c4 543d
0.041663222 0.07788505 0.09516645 0.051945113

exp_avg f4 [1, 4]
00000000: 1709 a83f 525b e03c 7f22 bd40 8ba0 5dc0
1.3127774 0.027387295 5.910461 -3.4629238

exp_avg_sq f4 [1, 4]
00000000: ee92 4541 dc3d ed3f 2685 ba41 e5d2 1841
12.3483715 1.8534503 23.315014 9.551488
