deeper_null/lightning_logs/version_32/checkpoints/epoch=9-step=10.ckpt (torch, 13936 bytes, 21 tensors)

model.layers.0.weight f4 [10, 2]
0	0x3f34f856	0.7069143
1	0x3e3b7174	0.18304998
2	0x3f247a6e	0.6424931
3	0xbe32edfd	-0.17473598
4	0xbf218bed	-0.63104135
5	0xbebd3279	-0.3695257
6	0x3e0bdb3e	0.13657853
7	0x3ec9de4c	0.39427412
8	0x3ed7be93	0.42137584
9	0xbf116d58	-0.5680747
10	0x3ee9645d	0.45584384
11	0xbf2a1590	-0.6643915
12	0xbbe3e252	-0.0069544697
13	0x3e951aa8	0.291219
14	0xbf04870f	-0.51768583
15	0x3f317380	0.69316864
16	0x3e5804a2	0.21095517
17	0x3ed0c777	0.4077718
18	0x3ec6c4d4	0.38822043
19	0xbeb5ed6d	-0.35532704

model.layers.0.bias f4 [10]
0	0xbe722d07	-0.23649989
1	0x3f2516ac	0.6448772
2	0x3ee00936	0.43757027
3	0x3e3f6fa2	0.18694928
4	0x3e28cb8f	0.16483901
5	0xbddcb269	-0.107762165
6	0x3f149e4a	0.5805403
7	0x3d4c3bd4	0.049861744
8	0xbf09a723	-0.53770655
9	0xbea349e5	-0.31892315

model.layers.3.weight f4 [8, 10]
0	0x3e8c4c8a	0.27402145
1	0x3bd90171	0.0066224863
2	0xbc9b48fe	-0.018955704
3	0xbe6067a1	-0.21914531
4	0xbe2e8a68	-0.17044985
5	0x3d396420	0.045261502
6	0x3d98e892	0.07466234
7	0x3c02b5f5	0.007977952
8	0x3e85e51f	0.26151368
9	0x3e88c744	0.26714528
10	0xbe8fe99d	-0.2810792
11	0xbe3890d5	-0.18023999
12	0x3e4cf3e6	0.20014915
13	0x3e97d9de	0.29658407
14	0xbe05c310	-0.13062692
15	0x3e50d4f1	0.2039373
16	0x3e76d79c	0.24105686
17	0xbe45ea54	-0.1932767
18	0xbe9be471	-0.30447724
19	0x3e0188ad	0.12649794
20	0x3e68e345	0.22742946
21	0xbe7963ad	-0.2435443
22	0xbd972ce7	-0.07381611
23	0x3dd26cfe	0.10274695
24	0xbc71c7a8	-0.014757074
25	0xbdcd2a57	-0.10017841
26	0xbc9a6ef6	-0.018851738
27	0xbe820778	-0.25396323
28	0xbe824726	-0.25444907
29	0x3de120a3	0.10992553
30	0xbe4e08ea	-0.20120588
31	0xbb934b57	-0.004495065
32	0x3e24899e	0.16068122
33	0xbe85f31e	-0.26162046
34	0x3c602e6e	0.013682945
35	0xbdd1d82e	-0.10246311
36	0xbdd6ec83	-0.1049433
37	0xbe6871dd	-0.22699685
38	0xbcf3caf1	-0.029759856
39	0xbe44a34a	-0.19202915
40	0x3d3c3229	0.045946274
41	0x3e429745	0.19003017
42	0xbd009842	-0.031395204
43	0xbdc5d209	-0.09659202
44	0x3e70722a	0.2348105
45	0xbe462f5a	-0.19354
46	0xbc4f8b63	-0.01266751
47	0xbde27d96	-0.1105911
48	0xbe92783c	-0.28607357
49	0x3e614fc2	0.22003081
50	0xbe07cba1	-0.13261272
51	0xbe05446e	-0.13014385
52	0xbe08d380	-0.13361931
53	0xbe72cb70	-0.23710418
54	0xbe834945	-0.25641838
55	0xbe94aafd	-0.29036704
56	0xbc1ae32b	-0.009453575
57	0x3dfa2276	0.12213604
58	0x3d813692	0.063092366
59	0xbe05b460	-0.13057089
60	0x3e982733	0.29717407
61	0x3d5975a1	0.053090695
62	0xbe2b7210	-0.1674273
63	0x3e4772c5	0.19477375
64	0xbd1043af	-0.035220798
65	0xbd7c3f94	-0.06158407
66	0x3e7b8a7d	0.24564548
67	0xbdac993e	-0.08427666
68	0x3dbd2545	0.09235624
69	0x3e510ee7	0.20415841
70	0xbde0d422	-0.10977961
71	0x3e0875ad	0.1332614
72	0xbe8b0937	-0.27155468
73	0xbc9cd51c	-0.019144587
74	0xbd95d459	-0.07315893
75	0x3e3f926d	0.18708201
76	0xbe63b503	-0.22237019
77	0xbdbf742e	-0.093483314
78	0x3d91dee9	0.07122595
79	0x3e4076c2	0.18795303

model.layers.3.bias f4 [8]
0	0x3e8bb8ff	0.27289578
1	0xbe171b32	-0.14756468
2	0xbe556ab3	-0.20841484
3	0x3d2b4d17	0.041821565
4	0xbe523593	-0.2052825
5	0xbd8156bf	-0.06315374
6	0xbda6a184	-0.081362754
7	0x3e63f68b	0.22262017

model.layers.6.weight f4 [4, 8]
0	0xbd7dc132	-0.061951824
1	0xbe9ef2b2	-0.31044537
2	0x3e369ccf	0.17833255
3	0xbe572df8	-0.2101363
4	0xbea28fe6	-0.3175041
5	0xbd2397d0	-0.0399397
6	0x3dce2deb	0.10067352
7	0xbe9ae431	-0.3025222
8	0xbe9c54dc	-0.30533493
9	0xbe57d668	-0.21077883
10	0xbdc33956	-0.0953242
11	0xbe6ea8a2	-0.23306516
12	0x3d85bba0	0.06529927
13	0x3d0138ee	0.031548433
14	0xbe848dfe	-0.2588958
15	0xbdac782e	-0.0842136
16	0xbd58cc38	-0.052929133
17	0xbe52d01b	-0.20587198
18	0xbeb6c0eb	-0.3569406
19	0x3e4ebeff	0.20190047
20	0xbeaef288	-0.34169412
21	0x3caabc64	0.020841785
22	0x3da3ef73	0.08004656
23	0x3db11fe5	0.086486615
24	0x3e6138de	0.2199435
25	0x3e98453d	0.29740325
26	0xbe198657	-0.14992653
27	0x3c6af195	0.014339824
28	0x3e92d52b	0.2867826
29	0x3ea1f29f	0.31630418
30	0x3df878f6	0.121324465
31	0xbe264b6a	-0.16239706

model.layers.6.bias f4 [4]
0	0xbe9b8a30	-0.30378866
1	0x3e00a59f	0.1256318
2	0x3e6e9c77	0.23301874
3	0xbe920402	-0.28518683

model.layers.7.weight f4 [1, 4]
0	0x3ee1dde3	0.441146
1	0x3eac6879	0.33673456
2	0xbe48b2ab	-0.19599406
3	0x3eefcb0e	0.46834606

exp_avg f4 [10, 2]
0	0xc06436ae	-3.5658374
1	0xbd01b192	-0.031663485
2	0x40978686	4.7351713
3	0x3d2f5b9c	0.042811975
4	0x00000000	0.0
5	0x00000000	0.0
6	0xbe06d69d	-0.13167806
7	0xbaab43fb	-0.0013066524
8	0xc0c7b818	-6.2412224
9	0xbd622d32	-0.055218883
10	0x4140e995	12.057027
11	0x3ddd8b75	0.10817615
12	0xc0b60953	-5.688638
13	0xbd914e47	-0.07095008
14	0x00000000	0.0
15	0x00000000	0.0
16	0x41044241	8.266175
17	0x3d9583fc	0.07300565
18	0x4106e6ef	8.43138
19	0x3d9c1aff	0.076223366

exp_avg_sq f4 [10, 2]
0	0x3e98d546	0.29850215
1	0x37c8ca53	2.3936072e-05
2	0x3f29f29c	0.6638582
3	0x3866c552	5.5020042e-05
4	0x00000000	0.0
5	0x00000000	0.0
6	0x39d22670	0.0004008296
7	0x3330a437	4.1127546e-08
8	0x3f855a9b	1.0418276
9	0x38ae5af2	8.3139064e-05
10	0x407b0f11	3.9227946
11	0x39a862c4	0.00032117043
12	0x3f354c9c	0.7082002
13	0x38f863ef	0.000118441756
14	0x00000000	0.0
15	0x00000000	0.0
16	0x3ff568b1	1.9172574
17	0x391fc656	0.00015237308
18	0x400966f2	2.1469083
19	0x393aa281	0.0001779888

exp_avg f4 [10]
0	0xbd8cedf8	-0.068813264
1	0x3dbb11b1	0.09134234
2	0x00000000	0.0
3	0xbb251560	-0.0025189742
4	0xbdf69f0b	-0.12042054
5	0x3e6e628b	0.23279779
6	0xbdea5f3c	-0.11443946
7	0x00000000	0.0
8	0x3e235a85	0.15952499
9	0x3e26b1b4	0.16278726

exp_avg_sq f4 [10]
0	0x38e95f15	0.00011128016
1	0x3981a65a	0.0002472874
2	0x00000000	0.0
3	0x341d88f9	1.4671595e-07
4	0x39cb4424	0.00038769946
5	0x3abfc8f2	0.001463203
6	0x3995e121	0.0002858723
7	0x00000000	0.0
8	0x3a3b27b9	0.0007139403
9	0x3a51e75e	0.00080071937

exp_avg f4 [8, 10]
0	0x403ed12b	2.9815166
1	0x4040f462	3.014916
2	0x00000000	0.0
3	0x3f1a2db5	0.60225993
4	0x3fdefa70	1.7420177
5	0x4007360a	2.1126733
6	0x3c220e38	0.009891085
7	0x00000000	0.0
8	0x3f710bc8	0.941586
9	0x3fe17913	1.7615074
10	0x00000000	0.0
11	0x3dbfd732	0.09367217
12	0x00000000	0.0
13	0x3cedbc3a	0.029020417
14	0x3d49d81f	0.049278375
15	0x3dc8353f	0.09775781
16	0x3a05201f	0.0005078334
17	0x00000000	0.0
18	0x3cf63621	0.030055108
19	0x3da66318	0.081243694
20	0xbe808704	-0.2510301
21	0xbd13ee28	-0.036115795
22	0x00000000	0.0
23	0xbd3980e2	-0.045288928
24	0xbdef4332	-0.11682738
25	0xbe2259c6	-0.15854558
26	0xba70a3f9	-0.0009179707
27	0x00000000	0.0
28	0xbd788730	-0.0606758
29	0xbe06e2ff	-0.1317253
30	0x00000000	0.0
31	0x3ac4c16f	0.0015011261
32	0x00000000	0.0
33	0x00000000	0.0
34	0x3a790379	0.00094991137
35	0x00000000	0.0
36	0x3551feda	7.8229425e-07
37	0x00000000	0.0
38	0x39f3d19e	0.0004650475
39	0x00000000	0.0
40	0xc0ebe56f	-7.371757
41	0xc0f3c199	-7.6173825
42	0x00000000	0.0
43	0xbfc29c98	-1.5204039
44	0xc08d25d7	-4.410869
45	0xc0a9bd8c	-5.304388
46	0xbcf5f18e	-0.030022409
47	0x00000000	0.0
48	0xc015b438	-2.3391247
49	0xc08ce031	-4.402367
50	0x00000000	0.0
51	0x00000000	0.0
52	0x00000000	0.0
53	0x00000000	0.0
54	0x00000000	0.0
55	0x00000000	0.0
56	0x00000000	0.0
57	0x00000000	0.0
58	0x00000000	0.0
59	0x00000000	0.0
60	0x3f87acd7	1.0599622
61	0x3f8a320e	1.0796525
62	0x00000000	0.0
63	0x3e5c378b	0.21505563
64	0x3f1fdcd9	0.6244636
65	0x3f4161ac	0.7553966
66	0x3b3de381	0.0028974714
67	0x00000000	0.0
68	0x3ead49c1	0.33845332
69	0x3f20cd81	0.62813574
70	0x41faf7b2	31.370945
71	0x42006765	32.10097
72	0x00000000	0.0
73	0x40cd8640	6.422638
74	0x41942255	18.516764
75	0x41b36816	22.425823
76	0x3dfb96b9	0.122846074
77	0x00000000	0.0
78	0x411f434e	9.953932
79	0x419453ed	18.54098

exp_avg_sq f4 [8, 10]
0	0x3e9beda0	0.3045473
1	0x3e9f2d53	0.31089267
2	0x00000000	0.0
3	0x3c470695	0.012147565
4	0x3dd68074	0.10473719
5	0x3e1b96e2	0.15194276
6	0x360fdfd1	2.1438939e-06
7	0x00000000	0.0
8	0x3cfd8813	0.030948674
9	0x3ddb4201	0.107059486
10	0x00000000	0.0
11	0x39a2352b	0.0003093866
12	0x00000000	0.0
13	0x37dde5f7	2.6452339e-05
14	0x3897ea76	7.243913e-05
15	0x39a2fe75	0.00031088633
16	0x31edfd11	6.926378e-09
17	0x00000000	0.0
18	0x38027dad	3.111146e-05
19	0x3964e015	0.00021827251
20	0x3ad4eb1c	0.0016244384
21	0x38542304	5.057735e-05
22	0x00000000	0.0
23	0x38596014	5.182631e-05
24	0x39c29038	0.00037110015
25	0x3a24fe5c	0.0006294006
26	0x32b868a5	2.1468006e-08
27	0x00000000	0.0
28	0x38db3910	0.000104533625
29	0x39eb5e2e	0.00044892862
30	0x00000000	0.0
31	0x352c9d40	6.430382e-07
32	0x00000000	0.0
33	0x00000000	0.0
34	0x348a3dd2	2.5749483e-07
35	0x00000000	0.0
36	0x2a44a06d	1.7463956e-13
37	0x00000000	0.0
38	0x338488ab	6.171589e-08
39	0x00000000	0.0
40	0x3fafe0d9	1.3740493
41	0x3fbb5fdd	1.463863
42	0x00000000	0.0
43	0x3d6b33a8	0.05742231
44	0x3efd006c	0.49414384
45	0x3f34f573	0.70687026
46	0x37ae6ab1	2.0792098e-05
47	0x00000000	0.0
48	0x3e0f4504	0.13991171
49	0x3efc17b0	0.49236822
50	0x00000000	0.0
51	0x00000000	0.0
52	0x00000000	0.0
53	0x00000000	0.0
54	0x00000000	0.0
55	0x00000000	0.0
56	0x00000000	0.0
57	0x00000000	0.0
58	0x00000000	0.0
59	0x00000000	0.0
60	0x3d554bf5	0.05207439
61	0x3d5c7ca0	0.05382979
62	0x00000000	0.0
63	0x3b09331e	0.002093501
64	0x3c945bbe	0.018110152
65	0x3cd70cc1	0.026251199
66	0x3456bd9e	1.9999285e-07
67	0x00000000	0.0
68	0x3bb09ecd	0.0053900243
69	0x3c970606	0.01843549
70	0x41d6f2e0	26.868591
71	0x41e08054	28.06266
72	0x00000000	0.0
73	0x3f8d7b42	1.105324
74	0x41167775	9.404164
75	0x415a8a11	13.658708
76	0x39b28ce7	0.00034055786
77	0x00000000	0.0
78	0x402fd1e4	2.7471857
79	0x41174997	9.455466

exp_avg f4 [8]
0	0x3dacf7e9	0.084457226
1	0x3b7ab068	0.003825212
2	0xbbcd341b	-0.006262315
3	0x38394044	4.416729e-05
4	0xbe581945	-0.2110339
5	0x00000000	0.0
6	0x3cf7e85d	0.030262167
7	0x3f65922d	0.8967617

exp_avg_sq f4 [8]
0	0x39800d20	0.0002442384
1	0x34fc8284	4.703362e-07
2	0x358917ee	1.021426e-06
3	0x301904b9	5.5667787e-10
4	0x3a934d7f	0.0011238306
5	0x00000000	0.0
6	0x383182ee	4.2322026e-05
7	0x3cb3a204	0.021927841

exp_avg f4 [4, 8]
0	0xc1ac1d36	-21.514263
1	0xbdb08fe7	-0.08621197
2	0xbeaf9216	-0.34291142
3	0xb6366c86	-2.7183282e-06
4	0xc12d7144	-10.840153
5	0x00000000	0.0
6	0xc1c0828b	-24.063742
7	0xc16a2393	-14.633685
8	0xc183d374	-16.478249
9	0xbd873d6f	-0.066035144
10	0xbe867dc2	-0.2626782
11	0xb60bc8c5	-2.0829477e-06
12	0xc104d357	-8.301597
13	0x00000000	0.0
14	0xc19371d3	-18.430578
15	0xc133551f	-11.2082815
16	0x4113111b	9.191676
17	0x3d16c484	0.036808506
18	0x3e15cb36	0.146283
19	0x359b07a8	1.1550628e-06
20	0x40946da0	4.638382
21	0x00000000	0.0
22	0x41248856	10.283285
23	0x40c80fc0	6.2519226
24	0xc1b2b263	-22.337103
25	0xbdb73fb7	-0.089476995
26	0xbeb62092	-0.35571724
27	0xb63cd4ab	-2.8137972e-06
28	0xc1343bfc	-11.264645
29	0x00000000	0.0
30	0xc1c7e636	-24.987408
31	0xc1731755	-15.193196

exp_avg_sq f4 [4, 8]
0	0x41517d84	13.093143
1	0x396d0fc0	0.00022607949
2	0x3b6b6687	0.0035919265
3	0x2c146237	2.1086585e-12
4	0x40467ccc	3.101367
5	0x00000000	0.0
6	0x4181ada5	16.209787
7	0x40c20ad4	6.063822
8	0x40f642d5	7.695658
9	0x390b4c67	0.00013284535
10	0x3b0a6953	0.0021119907
11	0x2bae3f9b	1.2381098e-12
12	0x3fe93572	1.8219435
13	0x00000000	0.0
14	0x41186e15	9.5268755
15	0x40641a76	3.564115
16	0x4015b713	2.339299
17	0x3829eb8b	4.0512106e-05
18	0x3a27802d	0.0006389644
19	0x2ad65487	3.807269e-13
20	0x3f0ead3d	0.5573309
21	0x00000000	0.0
22	0x40397e54	2.8983355
23	0x3f8aa994	1.0833001
24	0x415f08be	13.939634
25	0x397cd3ba	0.00024111467
26	0x3b79ff26	0.0038146465
27	0x2c1efd41	2.2593735e-12
28	0x40540694	3.3129015
29	0x00000000	0.0
30	0x418a1f48	17.265274
31	0x40ce939e	6.4555197

exp_avg f4 [4]
0	0xbfb0d8fa	-1.3816216
1	0xbf87711e	-1.0581396
2	0x3f173ba5	0.59075385
3	0xbfb7b245	-1.4351279

exp_avg_sq f4 [4]
0	0x3d54feea	0.052000917
1	0x3cfa50ef	0.03055617
2	0x3c18ad94	0.009318728
3	0x3d63286e	0.05545848

exp_avg f4 [1, 4]
0	0x4187025a	16.876148
1	0x41f336bc	30.401726
2	0x401e6e68	2.4754887
3	0xc1884659	-17.03435

exp_avg_sq f4 [1, 4]
0	0x40fed471	7.963433
1	0x41d2df47	26.359022
2	0x3e0a861c	0.13527721
3	0x40f6bd2f	7.7105937
