deeper_null/lightning_logs/version_14/checkpoints/epoch=27-step=28.ckpt (torch, 13936 bytes, 21 tensors)

model.layers.0.weight f4 [10, 2]
0	0xbf11c26f	-0.5693731
1	0xbe9e77dd	-0.30950823
2	0xbf191caa	-0.5980936
3	0xbf0429f1	-0.516265
4	0x3d9ae937	0.075640135
5	0xbd172c6c	-0.0369076
6	0x3e85f1b6	0.26160973
7	0xbdea8313	-0.11450782
8	0x3f092046	0.5356487
9	0xbee3e6ec	-0.44512117
10	0xbd84b196	-0.06479184
11	0x3f2314ec	0.637038
12	0x3e946095	0.28979936
13	0xbed0b2d8	-0.40761447
14	0x3ebd0844	0.3692037
15	0x3e408986	0.18802461
16	0x3ea8fad9	0.33003882
17	0x3ef693e3	0.48159704
18	0x3ef44948	0.4771216
19	0xbe6cd2a6	-0.23127231

model.layers.0.bias f4 [10]
0	0xbf2a59af	-0.66543096
1	0xbf060456	-0.52350366
2	0x3ead1f9e	0.33813184
3	0x3ea6d7b5	0.32586446
4	0xbf0bf188	-0.5466542
5	0x3e8de468	0.27713323
6	0xbe346699	-0.17617263
7	0x3edf19fb	0.4357451
8	0xbf2e8806	-0.68176305
9	0x3ea4e7d7	0.3220813

model.layers.3.weight f4 [8, 10]
0	0xbddb49a9	-0.10707409
1	0x3e89474f	0.26812217
2	0xbc1c071f	-0.009523182
3	0xbe19b1e2	-0.15009263
4	0x3e5f8900	0.21829605
5	0x3debf1d6	0.11520736
6	0xbe794682	-0.24343303
7	0xbdb83d6d	-0.08996091
8	0x3e700c87	0.23442279
9	0x3e9d36a5	0.30705753
10	0xbcab878c	-0.020938657
11	0xbe82d775	-0.25555006
12	0xbd215326	-0.039385937
13	0xbe8f0089	-0.27930096
14	0x3e192fc1	0.14959623
15	0xbdd1704c	-0.10226497
16	0x3dcf3ced	0.101190425
17	0xbdec0a6f	-0.115254276
18	0x3e75282c	0.23941106
19	0xbe2703ca	-0.16310039
20	0xbe0f2701	-0.13979723
21	0x3e939d38	0.28830886
22	0xbea31837	-0.31854412
23	0xbea27750	-0.31731653
24	0xbe62c0e1	-0.2214389
25	0x3e8224de	0.25418752
26	0x3e8eb2c8	0.27870774
27	0xbe0ae18d	-0.13562603
28	0xbe6c7251	-0.23090483
29	0x3e3087d3	0.17239313
30	0xbe36122d	-0.17780371
31	0xbd654ef1	-0.055983488
32	0xbdb53170	-0.0884732
33	0xbc7db432	-0.015484856
34	0xbe871473	-0.2638279
35	0x3e0ce5f7	0.137596
36	0x3e3b2f30	0.1827972
37	0x3e92f313	0.28701076
38	0xbe296a3b	-0.1654443
39	0x3d02aa3b	0.031900626
40	0x3c0a48c0	0.0084401965
41	0xbc822bec	-0.015890084
42	0x3e8d2fe0	0.27575588
43	0xbdd22502	-0.10260965
44	0x3ccb155b	0.024790457
45	0x3dbd893d	0.09254692
46	0xbe166ad7	-0.14689194
47	0xbe9270c4	-0.28601658
48	0xbe07011c	-0.13184017
49	0x3e948247	0.29005644
50	0x3e66e176	0.22546944
51	0x3e9447a0	0.28960896
52	0xbe99da57	-0.30049393
53	0x3a6accdd	0.00089569186
54	0x3e6e9e8b	0.23302667
55	0x3e865c43	0.26242265
56	0xbdd44228	-0.10364181
57	0x3d7e6a92	0.062113352
58	0xbe4d2cb8	-0.2003659
59	0xbe33b213	-0.17548399
60	0x3c3f9c9e	0.011695055
61	0xbd04fda2	-0.032468446
62	0x3e7efa03	0.2490006
63	0x3d9ffad0	0.078115106
64	0x3bc4bab5	0.0060037025
65	0x3d6131e7	0.05497923
66	0x3d54546c	0.051838323
67	0xbd3da7b2	-0.046302505
68	0x3da6de58	0.081478775
69	0x3d8230e1	0.06356979
70	0x3d15e11a	0.036591627
71	0xbe4c7517	-0.19966541
72	0xbdcf9a9b	-0.101369105
73	0x3d1e66e2	0.038672335
74	0xbde730a1	-0.11288572
75	0x3e75a207	0.2398759
76	0x3d12ff37	0.035887923
77	0x3c9fb93c	0.019497506
78	0x3d90a005	0.07061771
79	0x3d0709c1	0.032968286

model.layers.3.bias f4 [8]
0	0xbe082fa6	-0.13299426
1	0x3e811105	0.25208297
2	0x3d8b7045	0.06808523
3	0x3d9fc64a	0.078014925
4	0xbd4552e9	-0.048174772
5	0xbda09ac1	-0.07842017
6	0x3e7c8a92	0.24662235
7	0xbe48d568	-0.19612658

model.layers.6.weight f4 [4, 8]
0	0x3df58827	0.119888596
1	0xbe9fea5d	-0.31233492
2	0xbce35737	-0.027751548
3	0x3ce8a675	0.028399685
4	0x3db6e409	0.08930213
5	0xbec25928	-0.37958646
6	0x3e9013b0	0.2814002
7	0xbe382510	-0.17982888
8	0xbd7a6529	-0.06113163
9	0xbbe40cba	-0.006959525
10	0x3e2fe668	0.17177737
11	0xbe934044	-0.28759968
12	0x3e9ffaaf	0.31245944
13	0x3e09ba38	0.13449943
14	0xbdef772c	-0.11692652
15	0x3e76d664	0.24105221
16	0xbe93c8b6	-0.28864068
17	0x3e775376	0.24152932
18	0x3e5b68a4	0.21426636
19	0xbe2865d3	-0.16445093
20	0x3df119e8	0.11772519
21	0x3e9d8513	0.3076559
22	0xbe7908fb	-0.24319832
23	0xbdcf2c65	-0.101158895
24	0x3dc34606	0.0953484
25	0xbd984e93	-0.07436862
26	0xbe2b5d50	-0.16734815
27	0x3d66bd13	0.05633266
28	0xbde0b7c3	-0.1097255
29	0x3e782912	0.24234417
30	0xbd8db43d	-0.06919143
31	0x3e7cbfe2	0.24682572

model.layers.6.bias f4 [4]
0	0xbe3bfb6b	-0.18357627
1	0xbb3cc97b	-0.0028806615
2	0x3e266bc5	0.16252048
3	0x3da64b4d	0.08119831

model.layers.7.weight f4 [1, 4]
0	0xbe18a588	-0.14906895
1	0xbea3255d	-0.31864443
2	0xbdb0e3e0	-0.08637214
3	0xbef5e4e7	-0.480262

exp_avg f4 [10, 2]
0	0x00000000	0.0
1	0x00000000	0.0
2	0x00000000	0.0
3	0x00000000	0.0
4	0x3e20d302	0.15705493
5	0x3b9e2675	0.004826362
6	0xbdbe34fb	-0.09287449
7	0xba2c8155	-0.0006580551
8	0x3daeb1ca	0.08530004
9	0xba130021	-0.0005607624
10	0x00000000	0.0
11	0x00000000	0.0
12	0x3e1e5577	0.1546229
13	0x3ba2ff94	0.004974315
14	0x3d4201f0	0.04736513
15	0x3a83cfd0	0.001005644
16	0x3de611eb	0.11233886
17	0x3b447235	0.00299753
18	0x3dbe918d	0.09305105
19	0xba413a22	-0.0007371028

exp_avg_sq f4 [10, 2]
0	0x00000000	0.0
1	0x00000000	0.0
2	0x00000000	0.0
3	0x00000000	0.0
4	0x3c2e8c07	0.010653502
5	0x360fd353	2.1431667e-06
6	0x3b183491	0.0023224691
7	0x34e9410a	4.3446954e-07
8	0x3ac761a7	0.0015211598
9	0x348af30e	2.588135e-07
10	0x00000000	0.0
11	0x00000000	0.0
12	0x3d067f55	0.032836277
13	0x36c1ea16	5.7790994e-06
14	0x3c3000f7	0.010742418
15	0x35dfbd3f	1.6669873e-06
16	0x3c17039c	0.009217169
17	0x3602af86	1.9473678e-06
18	0x3a15a076	0.00057078095
19	0x340009e1	1.1924523e-07

exp_avg f4 [10]
0	0x00000000	0.0
1	0x00000000	0.0
2	0x3b5c929c	0.0033656722
3	0xbae85bf2	-0.0017727597
4	0x3ac35dc1	0.001490526
5	0x00000000	0.0
6	0x3b59440a	0.0033152127
7	0x3a809210	0.0009809155
8	0x3b184172	0.0023232368
9	0x3addf224	0.0016933125

exp_avg_sq f4 [10]
0	0x00000000	0.0
1	0x00000000	0.0
2	0x368adf1f	4.138695e-06
3	0x356eaa0e	8.890937e-07
4	0x3519d352	5.7304453e-07
5	0x00000000	0.0
6	0x375564b7	1.2719239e-05
7	0x368b48b9	4.150989e-06
8	0x366e2c84	3.5490675e-06
9	0x34648910	2.1284018e-07

exp_avg f4 [8, 10]
0	0x00000000	0.0
1	0x00000000	0.0
2	0x3bce8c19	0.006303322
3	0x3cdc2ff1	0.026878329
4	0x3d71424d	0.05890112
5	0x00000000	0.0
6	0x3c725e56	0.014792999
7	0x3cb42871	0.02199194
8	0x3cc82c56	0.024435204
9	0x3d4f06ac	0.050543472
10	0x00000000	0.0
11	0x00000000	0.0
12	0x3d2824ce	0.041050725
13	0x3daf0fac	0.08547911
14	0x3e667132	0.22504118
15	0x00000000	0.0
16	0x3e1289a2	0.14310315
17	0x3e3e20d4	0.1856721
18	0x3e21329c	0.15741962
19	0x3e2e8c1a	0.17045632
20	0x00000000	0.0
21	0x00000000	0.0
22	0x3a4d124f	0.00078228576
23	0x3ad75f2e	0.0016431564
24	0xb9644c60	-0.00021772226
25	0x00000000	0.0
26	0x3b28f460	0.0025780424
27	0x3b7fce15	0.0039032747
28	0x3a3a28f0	0.0007101437
29	0x3b8d9171	0.0043203165
30	0x00000000	0.0
31	0x00000000	0.0
32	0x3d263115	0.040574152
33	0x3dd3f9a9	0.10350353
34	0x3dea6ede	0.114469275
35	0x00000000	0.0
36	0x3e06e829	0.131745
37	0x3e3fef39	0.187436
38	0x3e07cca6	0.13261661
39	0x3e687495	0.22700723
40	0x00000000	0.0
41	0x00000000	0.0
42	0x3caa0985	0.020756492
43	0x3d82a194	0.06378475
44	0x3e008dc8	0.12554085
45	0x00000000	0.0
46	0x3d0e3bbe	0.034724943
47	0x3d221f1c	0.03958045
48	0x3d736b92	0.05942876
49	0x3e04f813	0.12985258
50	0x00000000	0.0
51	0x00000000	0.0
52	0x3c050375	0.0081185
53	0x3d2c1cd1	0.04201967
54	0x3db7deda	0.089780524
55	0x00000000	0.0
56	0x3b86ab78	0.004109796
57	0x3d8159fb	0.063159905
58	0xbca67300	-0.020318508
59	0x3d79d92e	0.060998134
60	0x00000000	0.0
61	0x00000000	0.0
62	0x3d57e2c3	0.05270649
63	0x3de0a4a2	0.10968901
64	0x3e4c5aab	0.19956462
65	0x00000000	0.0
66	0x3e3a3a8a	0.18186393
67	0x3e6c0601	0.23049165
68	0x3e438c8c	0.19096583
69	0x3e692246	0.2276698
70	0x00000000	0.0
71	0x00000000	0.0
72	0xbca416a0	-0.02003032
73	0xbcde753c	-0.027155511
74	0x3d3a6982	0.045510776
75	0x00000000	0.0
76	0xbd371cd5	-0.04470523
77	0xbda94c39	-0.082664914
78	0xbcb3ab88	-0.021932378
79	0xbd4bad09	-0.049725566

exp_avg_sq f4 [8, 10]
0	0x00000000	0.0
1	0x00000000	0.0
2	0x3734aa19	1.076844e-05
3	0x389ec6ef	7.5710814e-05
4	0x39aaa153	0.00032545123
5	0x00000000	0.0
6	0x38d93f99	0.00010359212
7	0x3937294d	0.00017467626
8	0x390e8a5a	0.00013593715
9	0x399a9e2c	0.00029491016
10	0x00000000	0.0
11	0x00000000	0.0
12	0x3ab49bcf	0.0013779345
13	0x3bf5c002	0.0074996958
14	0x3d2c3c6b	0.042049807
15	0x00000000	0.0
16	0x3c5f855d	0.013642636
17	0x3ca9d3a9	0.02073081
18	0x3c9d65cb	0.019213578
19	0x3cf69a65	0.030102918
20	0x00000000	0.0
21	0x00000000	0.0
22	0x3414f1e3	1.3871572e-07
23	0x34bd6e74	3.5284359e-07
24	0x322bb4c6	9.994613e-09
25	0x00000000	0.0
26	0x35cf6574	1.5452229e-06
27	0x361afe69	2.3095874e-06
28	0x34f60d2d	4.5830657e-07
29	0x368917a2	4.0856694e-06
30	0x00000000	0.0
31	0x00000000	0.0
32	0x3b0cf39c	0.0021507507
33	0x3c4bfcf6	0.012450447
34	0x3d3bdcab	0.045864742
35	0x00000000	0.0
36	0x3cb64f96	0.022254746
37	0x3d22357c	0.039601788
38	0x3cc5c99b	0.024143985
39	0x3d7203d8	0.059085697
40	0x00000000	0.0
41	0x00000000	0.0
42	0x37d29e25	2.5107593e-05
43	0x39277831	0.00015971136
44	0x3a508182	0.00079538685
45	0x00000000	0.0
46	0x3927d83c	0.00016006915
47	0x3877abcd	5.904939e-05
48	0x3983a923	0.00025112284
49	0x3a5423c9	0.00080924906
50	0x00000000	0.0
51	0x00000000	0.0
52	0x37276827	9.9782255e-06
53	0x38c7d34c	9.5284166e-05
54	0x39fc488b	0.00048119234
55	0x00000000	0.0
56	0x39026896	0.00012436727
57	0x39941061	0.00028240963
58	0x3923abb1	0.00015608851
59	0x38e366da	0.00010843361
60	0x00000000	0.0
61	0x00000000	0.0
62	0x3b2ef34b	0.0026695307
63	0x3c7fb7a1	0.015607745
64	0x3d83514a	0.06411989
65	0x00000000	0.0
66	0x3ccd8008	0.025085464
67	0x3d2a2ebe	0.041548483
68	0x3d01f6f7	0.031729665
69	0x3d7cccae	0.061718635
70	0x00000000	0.0
71	0x00000000	0.0
72	0x3913af61	0.00014084346
73	0x3a713b45	0.0009202252
74	0x387e5b1d	6.0643175e-05
75	0x00000000	0.0
76	0x3ab95e20	0.0014142431
77	0x3b32f3ec	0.0027306033
78	0x3ae2abdb	0.0017293649
79	0x3b65a5e5	0.0035041508

exp_avg f4 [8]
0	0x3abb1af2	0.0014274998
1	0x3c086404	0.008324627
2	0x3926e25b	0.00015915318
3	0x3c090c04	0.008364681
4	0x3b91c880	0.0044489503
5	0x3b225502	0.0024769907
6	0x3c2d2877	0.01056873
7	0xbb351b89	-0.002763482

exp_avg_sq f4 [8]
0	0x34ea7c96	4.3676545e-07
1	0x385a6793	5.207171e-05
2	0x31b561f1	5.278928e-09
3	0x38ab3b48	8.1649574e-05
4	0x358a93c7	1.032481e-06
5	0x35020482	4.8435334e-07
6	0x38d39df4	0.00010090685
7	0x36bf24ad	5.696513e-06

exp_avg f4 [4, 8]
0	0x3d181e96	0.037138544
1	0xbd5623b5	-0.052280147
2	0xbac0e693	-0.0014717154
3	0xbd7ccad7	-0.06171688
4	0x3d0ce84d	0.034401227
5	0x3c912024	0.017715521
6	0xbe064cf4	-0.13115293
7	0xbba7e1da	-0.005123359
8	0x3d07643b	0.03305457
9	0xbdfe8a33	-0.12428703
10	0xbb635d2d	-0.0034692988
11	0xbe118d5c	-0.1421408
12	0x3d9794e5	0.07401446
13	0x3d1ddbf5	0.038539845
14	0xbea5df2e	-0.32396835
15	0xbc469859	-0.012121283
16	0xbaa99453	-0.0012937881
17	0xbd14fac6	-0.03637197
18	0xba84513b	-0.0010095009
19	0xbd2698e1	-0.04067314
20	0x3ca4ba2c	0.020108305
21	0x3c2d2006	0.010566717
22	0xbdc710ac	-0.09719977
23	0xbb676b91	-0.0035311917
24	0x3da4841e	0.08033012
25	0xbe38c529	-0.1804396
26	0xbba57714	-0.0050495956
27	0xbe5626ee	-0.20913288
28	0x3de58010	0.112060666
29	0x3d6dbb43	0.058039915
30	0xbeed3575	-0.46329847
31	0xbc9098e5	-0.01765103

exp_avg_sq f4 [4, 8]
0	0x3cdae3fd	0.026720041
1	0x3aca5565	0.0015436827
2	0x358ce223	1.0496627e-06
3	0x3a5315a0	0.00080522336
4	0x38228402	3.874675e-05
5	0x36d839b2	6.4440183e-06
6	0x3c922d88	0.017843977
7	0x3711716c	8.669082e-06
8	0x3e2854ad	0.16438551
9	0x3c1daa5f	0.009623139
10	0x36d806ef	6.438109e-06
11	0x3ba1f669	0.0049427045
12	0x394f731e	0.00019783943
13	0x3800de0f	3.0724386e-05
14	0x3de1dfd2	0.110290185
15	0x3851e331	5.004107e-05
16	0x3c74c75a	0.014940107
17	0x3a671069	0.0008814396
18	0x351cb2d7	5.8374775e-07
19	0x39eb298a	0.00044853642
20	0x3784e9ef	1.584456e-05
21	0x361bf877	2.3241425e-06
22	0x3c249df7	0.010047427
23	0x3692301c	4.3567397e-06
24	0x3eabe380	0.33572006
25	0x3ca04c15	0.019567529
26	0x375cc8e4	1.3159795e-05
27	0x3c25a6ca	0.010110566
28	0x39e45e15	0.00043557645
29	0x3891ccab	6.952261e-05
30	0x3e663a68	0.22483218
31	0x38db00f4	0.00010442911

exp_avg f4 [4]
0	0xbc220218	-0.0098881945
1	0xbcd9383a	-0.026516069
2	0xbc08da89	-0.008352884
3	0xbd168201	-0.036745075

exp_avg_sq f4 [4]
0	0x3990fa51	0.0002765232
1	0x3ade58a3	0.0016963672
2	0x3921495e	0.00015381488
3	0x3b6326d4	0.0034660595

exp_avg f4 [1, 4]
0	0x3de779f6	0.11302559
1	0xbeb34a78	-0.35017753
2	0xbe8818b7	-0.26581356
3	0xbdec2a87	-0.11531549

exp_avg_sq f4 [1, 4]
0	0x3d99dfe6	0.07513408
1	0x3da28b47	0.07936721
2	0x3ea833e6	0.32852095
3	0x39ed4cbf	0.00045261343
